2019-12-04 19:30:44.462794: I   21079 tensorflow/compiler/xla/xla_client/mesh_service.cc:168] Waiting to connect to client mesh master (300 seconds) localhost:54121
2019-12-04 19:30:44.463036: I   21076 tensorflow/compiler/xla/xla_client/mesh_service.cc:168] Waiting to connect to client mesh master (300 seconds) localhost:54121
2019-12-04 19:30:44.488066: I   21077 tensorflow/compiler/xla/xla_client/mesh_service.cc:168] Waiting to connect to client mesh master (300 seconds) localhost:54121
2019-12-04 19:30:44.538030: I   21080 tensorflow/compiler/xla/xla_client/mesh_service.cc:168] Waiting to connect to client mesh master (300 seconds) localhost:54121
2019-12-04 19:30:44.538093: I   21078 tensorflow/compiler/xla/xla_client/mesh_service.cc:168] Waiting to connect to client mesh master (300 seconds) localhost:54121
2019-12-04 19:30:44.566982: I   21081 tensorflow/compiler/xla/xla_client/mesh_service.cc:168] Waiting to connect to client mesh master (300 seconds) localhost:54121
2019-12-04 19:30:44.774392: I   21082 tensorflow/compiler/xla/xla_client/mesh_service.cc:168] Waiting to connect to client mesh master (300 seconds) localhost:54121
2019-12-04 19:30:48.980136: I   21078 tensorflow/compiler/xla/xla_client/computation_client.cc:195] Fetching mesh configuration for worker tpu_worker:0 from mesh service at localhost:54121
2019-12-04 19:30:49.170267: I   21076 tensorflow/compiler/xla/xla_client/computation_client.cc:195] Fetching mesh configuration for worker tpu_worker:0 from mesh service at localhost:54121
2019-12-04 19:30:49.392990: I   21079 tensorflow/compiler/xla/xla_client/computation_client.cc:195] Fetching mesh configuration for worker tpu_worker:0 from mesh service at localhost:54121
2019-12-04 19:30:49.476436: I   21082 tensorflow/compiler/xla/xla_client/computation_client.cc:195] Fetching mesh configuration for worker tpu_worker:0 from mesh service at localhost:54121
2019-12-04 19:30:49.655277: I   21081 tensorflow/compiler/xla/xla_client/computation_client.cc:195] Fetching mesh configuration for worker tpu_worker:0 from mesh service at localhost:54121
2019-12-04 19:30:49.763141: I   21080 tensorflow/compiler/xla/xla_client/computation_client.cc:195] Fetching mesh configuration for worker tpu_worker:0 from mesh service at localhost:54121
2019-12-04 19:30:50.030335: I   21077 tensorflow/compiler/xla/xla_client/computation_client.cc:195] Fetching mesh configuration for worker tpu_worker:0 from mesh service at localhost:54121
2019-12-04 19:31:36.019547: I   21077 torch_xla/csrc/tensor_util.cpp:28] Using BF16 data type for floating point values
hello
epoch     train_loss  valid_loss  accuracy  time    
2019-12-04 19:31:36.412323: I   21078 torch_xla/csrc/tensor_util.cpp:28] Using BF16 data type for floating point values
hello
epoch     train_loss  valid_loss  accuracy  time    
2019-12-04 19:31:36.961335: I   21075 torch_xla/csrc/tensor_util.cpp:28] Using BF16 data type for floating point values
2019-12-04 19:31:37.015436: I   21082 torch_xla/csrc/tensor_util.cpp:28] Using BF16 data type for floating point values
hello
epoch     train_loss  valid_loss  accuracy  time    
hello
epoch     train_loss  valid_loss  accuracy  time    
2019-12-04 19:31:37.337166: I   21076 torch_xla/csrc/tensor_util.cpp:28] Using BF16 data type for floating point values
hello
epoch     train_loss  valid_loss  accuracy  time    
2019-12-04 19:31:38.169263: I   21079 torch_xla/csrc/tensor_util.cpp:28] Using BF16 data type for floating point values
2019-12-04 19:31:38.353583: I   21080 torch_xla/csrc/tensor_util.cpp:28] Using BF16 data type for floating point values
hello
epoch     train_loss  valid_loss  accuracy  time    
hello
epoch     train_loss  valid_loss  accuracy  time    
2019-12-04 19:31:38.906237: I   21081 torch_xla/csrc/tensor_util.cpp:28] Using BF16 data type for floating point values
hello
epoch     train_loss  valid_loss  accuracy  time    
2019-12-04 19:32:43.138060: E   38524 tensorflow/compiler/xla/xla_client/xla_util.cc:72] >>> Dumping Computation 0
2019-12-04 19:32:43.138195: E   38524 tensorflow/compiler/xla/xla_client/xla_util.cc:72] HloModule SyncTensorsGraph.3449
2019-12-04 19:32:43.138206: E   38524 tensorflow/compiler/xla/xla_client/xla_util.cc:72] 
2019-12-04 19:32:43.138234: E   38524 tensorflow/compiler/xla/xla_client/xla_util.cc:72] %max_BF16.295 (lhs.296: bf16[], rhs.297: bf16[]) -> bf16[] {
2019-12-04 19:32:43.138242: E   38524 tensorflow/compiler/xla/xla_client/xla_util.cc:72]   %lhs.296 = bf16[] parameter(0)
2019-12-04 19:32:43.138250: E   38524 tensorflow/compiler/xla/xla_client/xla_util.cc:72]   %rhs.297 = bf16[] parameter(1)
2019-12-04 19:32:43.138258: E   38524 tensorflow/compiler/xla/xla_client/xla_util.cc:72]   ROOT %maximum.298 = bf16[] maximum(bf16[] %lhs.296, bf16[] %rhs.297)
2019-12-04 19:32:43.138266: E   38524 tensorflow/compiler/xla/xla_client/xla_util.cc:72] }
2019-12-04 19:32:43.138274: E   38524 tensorflow/compiler/xla/xla_client/xla_util.cc:72] 
2019-12-04 19:32:43.138318: E   38524 tensorflow/compiler/xla/xla_client/xla_util.cc:72] ENTRY %SyncTensorsGraph.3449 (p0.16: bf16[2048], p1.17: bf16[2048], p2.18: bf16[2048], p3.19: bf16[2048], p4.20: bf16[2048,1024,1,1], p5.201: bf16[1024], p6.202: bf16[1024], p7.203: bf16[1024], p8.204: bf16[1024], p9.205: bf16[1024,512,1,1], p10.246: bf16[512], p11.247: bf16[512], p12.248: bf16[512], p13.249: bf16[512], p14.250: bf16[512,256,1,1], p15.266: bf16[256], p16.267: bf16[256], p17.268: bf16[256], p18.269: bf16[256], p19.270: bf16[256,64,1,1], p20.271: bf16[64], p21.272: bf16[64], p22.273: bf16[64], p23.274: bf16[64], p24.275: bf16[64,3,7,7], p25.276: bf16[512,3,224,224], p26.313: bf16[256], p27.314: bf16[256], p28.315: bf16[256], p29.316: bf16[256], p30.317: bf16[256,64,1,1], p31.318: bf16[64], p32.319: bf16[64], p33.320: bf16[64], p34.321: bf16[64], p35.322: bf16[64,64,3,3], p36.323: bf16[64], p37.324: bf16[64], p38.325: bf16[64], p39.326: bf16[64], p40.327: bf16[64,64,1,1], p41.375: bf16[256], p42.376: bf16[256], p43.377: bf16[256], p44.378: bf16[256], p45.379: bf16[256,64,1,1], p46.380: bf16[64], p47.381: bf16[64], p48.382: bf16[64], p49.383: bf16[64], p50.384: bf16[64,64,3,3], p51.385: bf16[64], p52.386: bf16[64], p53.387: bf16[64], p54.388: bf16[64], p55.389: bf16[64,256,1,1], p56.437: bf16[256], p57.438: bf16[256], p58.439: bf16[256], p59.440: bf16[256], p60.441: bf16[256,64,1,1], p61.442: bf16[64], p62.443: bf16[64], p63.444: bf16[64], p64.445: bf16[64], p65.446: bf16[64,64,3,3], p66.447: bf16[64], p67.448: bf16[64], p68.449: bf16[64], p69.450: bf16[64], p70.451: bf16[64,256,1,1], p71.511: bf16[512], p72.512: bf16[512], p73.513: bf16[512], p74.514: bf16[512], p75.515: bf16[512,128,1,1], p76.516: bf16[128], p77.517: bf16[128], p78.518: bf16[128], p79.519: bf16[128], p80.520: bf16[128,128,3,3], p81.521: bf16[128], p82.522: bf16[128], p83.523: bf16[128], p84.524: bf16[128], p85.525: bf16[128,256,1,1], p86.573: bf16[512], p87.574: bf16[512], p88.575: bf16[512], p89.576: bf16[512], p90.577: bf16[512,128,1,1], p91.578: bf16[128], p92.579: bf16[128], p93.580: bf16[128], p94.581: bf16[128], p95.582: bf16[128,128,3,3], p96.583: bf16[128], p97.584: bf16[128], p98.585: bf16[128], p99.586: bf16[128], p100.587: bf16[128,512,1,1], p101.635: bf16[512], p102.636: bf16[512], p103.637: bf16[512], p104.638: bf16[512], p105.639: bf16[512,128,1,1], p106.640: bf16[128], p107.641: bf16[128], p108.642: bf16[128], p109.643: bf16[128], p110.644: bf16[128,128,3,3], p111.645: bf16[128], p112.646: bf16[128], p113.647: bf16[128], p114.648: bf16[128], p115.649: bf16[128,512,1,1], p116.697: bf16[512], p117.698: bf16[512], p118.699: bf16[512], p119.700: bf16[512], p120.701: bf16[512,128,1,1], p121.702: bf16[128], p122.703: bf16[128], p123.704: bf16[128], p124.705: bf16[128], p125.706: bf16[128,128,3,3], p126.707: bf16[128], p127.708: bf16[128], p128.709: bf16[128], p129.710: bf16[128], p130.711: bf16[128,512,1,1], p131.759: bf16[512], p132.760: bf16[512], p133.761: bf16[512], p134.762: bf16[512], p135.763: bf16[512,128,1,1], p136.764: bf16[128], p137.765: bf16[128], p138.766: bf16[128], p139.767: bf16[128], p140.768: bf16[128,128,3,3], p141.769: bf16[128], p142.770: bf16[128], p143.771: bf16[128], p144.772: bf16[128], p145.773: bf16[128,512,1,1], p146.821: bf16[512], p147.822: bf16[512], p148.823: bf16[512], p149.824: bf16[512], p150.825: bf16[512,128,1,1], p151.826: bf16[128], p152.827: bf16[128], p153.828: bf16[128], p154.829: bf16[128], p155.830: bf16[128,128,3,3], p156.831: bf16[128], p157.832: bf16[128], p158.833: bf16[128], p159.834: bf16[128], p160.835: bf16[128,512,1,1], p161.883: bf16[512], p162.884: bf16[512], p163.885: bf16[512], p164.886: bf16[512], p165.887: bf16[512,128,1,1], p166.888: bf16[128], p167.889: bf16[128], p168.890: bf16[128], p169.891: bf16[128], p170.892: bf16[128,128,3,3], p171.893: bf16[128], p172.894: bf16[128], p173.895: bf16[128], p174.896: bf16[128], p175.897: bf16[128,512,1,1], p176.945: bf16[512], p177.946: bf16[512], p178.947: bf16[512], p179.948: bf16[512], p180.949: bf16[512,128,1,1], p181.950: bf16[128], p182.951: bf16[128], p183.952: bf16[128], p184.953: bf16[128], p185.954: bf16[128,128,3,3], p186.955: bf16[128], p187.956: bf16[128], p188.957: bf16[128], p189.958: bf16[128], p190.959: bf16[128,512,1,1], p191.1019: bf16[1024], p192.1020: bf16[1024], p193.1021: bf16[1024], p194.1022: bf16[1024], p195.1023: bf16[1024,256,1,1], p196.1024: bf16[256], p197.1025: bf16[256], p198.1026: bf16[256], p199.1027: bf16[256], p200.1028: bf16[256,256,3,3], p201.1029: bf16[256], p202.1030: bf16[256], p203.1031: bf16[256], p204.1032: bf16[256], p205.1033: bf16[256,512,1,1], p206.1081: bf16[1024], p207.1082: bf16[1024], p208.1083: bf16[1024], p209.1084: bf16[1024], p210.1085: bf16[1024,256,1,1], p211.1086: bf16[256], p212.1087: bf16[256], p213.1088: bf16[256], p214.1089: bf16[256], p215.1090: bf16[256,256,3,3], p216.1091: bf16[256], p217.1092: bf16[256], p218.1093: bf16[256], p219.1094: bf16[256], p220.1095: bf16[256,1024,1,1], p221.1143: bf16[1024], p222.1144: bf16[1024], p223.1145: bf16[1024], p224.1146: bf16[1024], p225.1147: bf16[1024,256,1,1], p226.1148: bf16[256], p227.1149: bf16[256], p228.1150: bf16[256], p229.1151: bf16[256], p230.1152: bf16[256,256,3,3], p231.1153: bf16[256], p232.1154: bf16[256], p233.1155: bf16[256], p234.1156: bf16[256], p235.1157: bf16[256,1024,1,1], p236.1205: bf16[1024], p237.1206: bf16[1024], p238.1207: bf16[1024], p239.1208: bf16[1024], p240.1209: bf16[1024,256,1,1], p241.1210: bf16[256], p242.1211: bf16[256], p243.1212: bf16[256], p244.1213: bf16[256], p245.1214: bf16[256,256,3,3], p246.1215: bf16[256], p247.1216: bf16[256], p248.1217: bf16[256], p249.1218: bf16[256], p250.1219: bf16[256,1024,1,1], p251.1267: bf16[1024], p252.1268: bf16[1024], p253.1269: bf16[1024], p254.1270: bf16[1024], p255.1271: bf16[1024,256,1,1], p256.1272: bf16[256], p257.1273: bf16[256], p258.1274: bf16[256], p259.1275: bf16[256], p260.1276: bf16[256,256,3,3], p261.1277: bf16[256], p262.1278: bf16[256], p263.1279: bf16[256], p264.1280: bf16[256], p265.1281: bf16[256,1024,1,1], p266.1329: bf16[1024], p267.1330: bf16[1024], p268.1331: bf16[1024], p269.1332: bf16[1024], p270.1333: bf16[1024,256,1,1], p271.1334: bf16[256], p272.1335: bf16[256], p273.1336: bf16[256], p274.1337: bf16[256], p275.1338: bf16[256,256,3,3], p276.1339: bf16[256], p277.1340: bf16[256], p278.1341: bf16[256], p279.1342: bf16[256], p280.1343: bf16[256,1024,1,1], p281.1391: bf16[1024], p282.1392: bf16[1024], p283.1393: bf16[1024], p284.1394: bf16[1024], p285.1395: bf16[1024,256,1,1], p286.1396: bf16[256], p287.1397: bf16[256], p288.1398: bf16[256], p289.1399: bf16[256], p290.1400: bf16[256,256,3,3], p291.1401: bf16[256], p292.1402: bf16[256], p293.1403: bf16[256], p294.1404: bf16[256], p295.1405: bf16[256,1024,1,1], p296.1453: bf16[1024], p297.1454: bf16[1024], p298.1455: bf16[1024], p299.1456: bf16[1024], p300.1457: bf16[1024,256,1,1], p301.1458: bf16[256], p302.1459: bf16[256], p303.1460: bf16[256], p304.1461: bf16[256], p305.1462: bf16[256,256,3,3], p306.1463: bf16[256], p307.1464: bf16[256], p308.1465: bf16[256], p309.1466: bf16[256], p310.1467: bf16[256,1024,1,1], p311.1515: bf16[1024], p312.1516: bf16[1024], p313.1517: bf16[1024], p314.1518: bf16[1024], p315.1519: bf16[1024,256,1,1], p316.1520: bf16[256], p317.1521: bf16[256], p318.1522: bf16[256], p319.1523: bf16[256], p320.1524: bf16[256,256,3,3], p321.1525: bf16[256], p322.1526: bf16[256], p323.1527: bf16[256], p324.1528: bf16[256], p325.1529: bf16[256,1024,1,1], p326.1577: bf16[1024], p327.1578: bf16[1024], p328.1579: bf16[1024], p329.1580: bf16[1024], p330.1581: bf16[1024,256,1,1], p331.1582: bf16[256], p332.1583: bf16[256], p333.1584: bf16[256], p334.1585: bf16[256], p335.1586: bf16[256,256,3,3], p336.1587: bf16[256], p337.1588: bf16[256], p338.1589: bf16[256], p339.1590: bf16[256], p340.1591: bf16[256,1024,1,1], p341.1639: bf16[1024], p342.1640: bf16[1024], p343.1641: bf16[1024], p344.1642: bf16[1024], p345.1643: bf16[1024,256,1,1], p346.1644: bf16[256], p347.1645: bf16[256], p348.1646: bf16[256], p349.1647: bf16[256], p350.1648: bf16[256,256,3,3], p351.1649: bf16[256], p352.1650: bf16[256], p353.1651: bf16[256], p354.1652: bf16[256], p355.1653: bf16[256,1024,1,1], p356.1701: bf16[1024], p357.1702: bf16[1024], p358.1703: bf16[1024], p359.1704: bf16[1024], p360.1705: bf16[1024,256,1,1], p361.1706: bf16[256], p362.1707: bf16[256], p363.1708: bf16[256], p364.1709: bf16[256], p365.1710: bf16[256,256,3,3], p366.1711: bf16[256], p367.1712: bf16[256], p368.1713: bf16[256], p369.1714: bf16[256], p370.1715: bf16[256,1024,1,1], p371.1763: bf16[1024], p372.1764: bf16[1024], p373.1765: bf16[1024], p374.1766: bf16[1024], p375.1767: bf16[1024,256,1,1], p376.1768: bf16[256], p377.1769: bf16[256], p378.1770: bf16[256], p379.1771: bf16[256], p380.1772: bf16[256,256,3,3], p381.1773: bf16[256], p382.1774: bf16[256], p383.1775: bf16[256], p384.1776: bf16[256], p385.1777: bf16[256,1024,1,1], p386.1825: bf16[1024], p387.1826: bf16[1024], p388.1827: bf16[1024], p389.1828: bf16[1024], p390.1829: bf16[1024,256,1,1], p391.1830: bf16[256], p392.1831: bf16[256], p393.1832: bf16[256], p394.1833: bf16[256], p395.1834: bf16[256,256,3,3], p396.1835: bf16[256], p397.1836: bf16[256], p398.1837: bf16[256], p399.1838: bf16[256], p400.1839: bf16[256,1024,1,1], p401.1887: bf16[1024], p402.1888: bf16[1024], p403.1889: bf16[1024], p404.1890: bf16[1024], p405.1891: bf16[1024,256,1,1], p406.1892: bf16[256], p407.1893: bf16[256], p408.1894: bf16[256], p409.1895: bf16[256], p410.1896: bf16[256,256,3,3], p411.1897: bf16[256], p412.1898: bf16[256], p413.1899: bf16[256], p414.1900: bf16[256], p415.1901: bf16[256,1024,1,1], p416.1949: bf16[1024], p417.1950: bf16[1024], p418.1951: bf16[1024], p419.1952: bf16[1024], p420.1953: bf16[1024,256,1,1], p421.1954: bf16[256], p422.1955: bf16[256], p423.1956: bf16[256], p424.1957: bf16[256], p425.1958: bf16[256,256,3,3], p426.1959: bf16[256], p427.1960: bf16[256], p428.1961: bf16[256], p429.1962: bf16[256], p430.1963: bf16[256,1024,1,1], p431.2011: bf16[1024], p432.2012: bf16[1024], p433.2013: bf16[1024], p434.2014: bf16[1024], p435.2015: bf16[1024,256,1,1], p436.2016: bf16[256], p437.2017: bf16[256], p438.2018: bf16[256], p439.2019: bf16[256], p440.2020: bf16[256,256,3,3], p441.2021: bf16[256], p442.2022: bf16[256], p443.2023: bf16[256], p444.2024: bf16[256], p445.2025: bf16[256,1024,1,1], p446.2073: bf16[1024], p447.2074: bf16[1024], p448.2075: bf16[1024], p449.2076: bf16[1024], p450.2077: bf16[1024,256,1,1], p451.2078: bf16[256], p452.2079: bf16[256], p453.2080: bf16[256], p454.2081: bf16[256], p455.2082: bf16[256,256,3,3], p456.2083: bf16[256], p457.2084: bf16[256], p458.2085: bf16[256], p459.2086: bf16[256], p460.2087: bf16[256,1024,1,1], p461.2135: bf16[1024], p462.2136: bf16[1024], p463.2137: bf16[1024], p464.2138: bf16[1024], p465.2139: bf16[1024,256,1,1], p466.2140: bf16[256], p467.2141: bf16[256], p468.2142: bf16[256], p469.2143: bf16[256], p470.2144: bf16[256,256,3,3], p471.2145: bf16[256], p472.2146: bf16[256], p473.2147: bf16[256], p474.2148: bf16[256], p475.2149: bf16[256,1024,1,1], p476.2197: bf16[1024], p477.2198: bf16[1024], p478.2199: bf16[1024], p479.2200: bf16[1024], p480.2201: bf16[1024,256,1,1], p481.2202: bf16[256], p482.2203: bf16[256], p483.2204: bf16[256], p484.2205: bf16[256], p485.2206: bf16[256,256,3,3], p486.2207: bf16[256], p487.2208: bf16[256], p488.2209: bf16[256], p489.2210: bf16[256], p490.2211: bf16[256,1024,1,1], p491.2259: bf16[1024], p492.2260: bf16[1024], p493.2261: bf16[1024], p494.2262: bf16[1024], p495.2263: bf16[1024,256,1,1], p496.2264: bf16[256], p497.2265: bf16[256], p498.2266: bf16[256], p499.2267: bf16[256], p500.2268: bf16[256,256,3,3], p501.2269: bf16[256], p502.2270: bf16[256], p503.2271: bf16[256], p504.2272: bf16[256], p505.2273: bf16[256,1024,1,1], p506.2321: bf16[1024], p507.2322: bf16[1024], p508.2323: bf16[1024], p509.2324: bf16[1024], p510.2325: bf16[1024,256,1,1], p511.2326: bf16[256], p512.2327: bf16[256], p513.2328: bf16[256], p514.2329: bf16[256], p515.2330: bf16[256,256,3,3], p516.2331: bf16[256], p517.2332: bf16[256], p518.2333: bf16[256], p519.2334: bf16[256], p520.2335: bf16[256,1024,1,1], p521.2383: bf16[1024], p522.2384: bf16[1024], p523.2385: bf16[1024], p524.2386: bf16[1024], p525.2387: bf16[1024,256,1,1], p526.2388: bf16[256], p527.2389: bf16[256], p528.2390: bf16[256], p529.2391: bf16[256], p530.2392: bf16[256,256,3,3], p531.2393: bf16[256], p532.2394: bf16[256], p533.2395: bf16[256], p534.2396: bf16[256], p535.2397: bf16[256,1024,1,1], p536.2445: bf16[1024], p537.2446: bf16[1024], p538.2447: bf16[1024], p539.2448: bf16[1024], p540.2449: bf16[1024,256,1,1], p541.2450: bf16[256], p542.2451: bf16[256], p543.2452: bf16[256], p544.2453: bf16[256], p545.2454: bf16[256,256,3,3], p546.2455: bf16[256], p547.2456: bf16[256], p548.2457: bf16[256], p549.2458: bf16[256], p550.2459: bf16[256,1024,1,1], p551.2507: bf16[1024], p552.2508: bf16[1024], p553.2509: bf16[1024], p554.2510: bf16[1024], p555.2511: bf16[1024,256,1,1], p556.2512: bf16[256], p557.2513: bf16[256], p558.2514: bf16[256], p559.2515: bf16[256], p560.2516: bf16[256,256,3,3], p561.2517: bf16[256], p562.2518: bf16[256], p563.2519: bf16[256], p564.2520: bf16[256], p565.2521: bf16[256,1024,1,1], p566.2569: bf16[1024], p567.2570: bf16[1024], p568.2571: bf16[1024], p569.2572: bf16[1024], p570.2573: bf16[1024,256,1,1], p571.2574: bf16[256], p572.2575: bf16[256], p573.2576: bf16[256], p574.2577: bf16[256], p575.2578: bf16[256,256,3,3], p576.2579: bf16[256], p577.2580: bf16[256], p578.2581: bf16[256], p579.2582: bf16[256], p580.2583: bf16[256,1024,1,1], p581.2631: bf16[1024], p582.2632: bf16[1024], p583.2633: bf16[1024], p584.2634: bf16[1024], p585.2635: bf16[1024,256,1,1], p586.2636: bf16[256], p587.2637: bf16[256], p588.2638: bf16[256], p589.2639: bf16[256], p590.2640: bf16[256,256,3,3], p591.2641: bf16[256], p592.2642: bf16[256], p593.2643: bf16[256], p594.2644: bf16[256], p595.2645: bf16[256,1024,1,1], p596.2693: bf16[1024], p597.2694: bf16[1024], p598.2695: bf16[1024], p599.2696: bf16[1024], p600.2697: bf16[1024,256,1,1], p601.2698: bf16[256], p602.2699: bf16[256], p603.2700: bf16[256], p604.2701: bf16[256], p605.2702: bf16[256,256,3,3], p606.2703: bf16[256], p607.2704: bf16[256], p608.2705: bf16[256], p609.2706: bf16[256], p610.2707: bf16[256,1024,1,1], p611.2755: bf16[1024], p612.2756: bf16[1024], p613.2757: bf16[1024], p614.2758: bf16[1024], p615.2759: bf16[1024,256,1,1], p616.2760: bf16[256], p617.2761: bf16[256], p618.2762: bf16[256], p619.2763: bf16[256], p620.2764: bf16[256,256,3,3], p621.2765: bf16[256], p622.2766: bf16[256], p623.2767: bf16[256], p624.2768: bf16[256], p625.2769: bf16[256,1024,1,1], p626.2817: bf16[1024], p627.2818: bf16[1024], p628.2819: bf16[1024], p629.2820: bf16[1024], p630.2821: bf16[1024,256,1,1], p631.2822: bf16[256], p632.2823: bf16[256], p633.2824: bf16[256], p634.2825: bf16[256], p635.2826: bf16[256,256,3,3], p636.2827: bf16[256], p637.2828: bf16[256], p638.2829: bf16[256], p639.2830: bf16[256], p640.2831: bf16[256,1024,1,1], p641.2879: bf16[1024], p642.2880: bf16[1024], p643.2881: bf16[1024], p644.2882: bf16[1024], p645.2883: bf16[1024,256,1,1], p646.2884: bf16[256], p647.2885: bf16[256], p648.2886: bf16[256], p649.2887: bf16[256], p650.2888: bf16[256,256,3,3], p651.2889: bf16[256], p652.2890: bf16[256], p653.2891: bf16[256], p654.2892: bf16[256], p655.2893: bf16[256,1024,1,1], p656.2941: bf16[1024], p657.2942: bf16[1024], p658.2943: bf16[1024], p659.2944: bf16[1024], p660.2945: bf16[1024,256,1,1], p661.2946: bf16[256], p662.2947: bf16[256], p663.2948: bf16[256], p664.2949: bf16[256], p665.2950: bf16[256,256,3,3], p666.2951: bf16[256], p667.2952: bf16[256], p668.2953: bf16[256], p669.2954: bf16[256], p670.2955: bf16[256,1024,1,1], p671.3003: bf16[1024], p672.3004: bf16[1024], p673.3005: bf16[1024], p674.3006: bf16[1024], p675.3007: bf16[1024,256,1,1], p676.3008: bf16[256], p677.3009: bf16[256], p678.3010: bf16[256], p679.3011: bf16[256], p680.3012: bf16[256,256,3,3], p681.3013: bf16[256], p682.3014: bf16[256], p683.3015: bf16[256], p684.3016: bf16[256], p685.3017: bf16[256,1024,1,1], p686.3065: bf16[1024], p687.3066: bf16[1024], p688.3067: bf16[1024], p689.3068: bf16[1024], p690.3069: bf16[1024,256,1,1], p691.3070: bf16[256], p692.3071: bf16[256], p693.3072: bf16[256], p694.3073: bf16[256], p695.3074: bf16[256,256,3,3], p696.3075: bf16[256], p697.3076: bf16[256], p698.3077: bf16[256], p699.3078: bf16[256], p700.3079: bf16[256,1024,1,1], p701.3127: bf16[1024], p702.3128: bf16[1024], p703.3129: bf16[1024], p704.3130: bf16[1024], p705.3131: bf16[1024,256,1,1], p706.3132: bf16[256], p707.3133: bf16[256], p708.3134: bf16[256], p709.3135: bf16[256], p710.3136: bf16[256,256,3,3], p711.3137: bf16[256], p712.3138: bf16[256], p713.3139: bf16[256], p714.3140: bf16[256], p715.3141: bf16[256,1024,1,1], p716.3189: bf16[1024], p717.3190: bf16[1024], p718.3191: bf16[1024], p719.3192: bf16[1024], p720.3193: bf16[1024,256,1,1], p721.3194: bf16[256], p722.3195: bf16[256], p723.3196: bf16[256], p724.3197: bf16[256], p725.3198: bf16[256,256,3,3], p726.3199: bf16[256], p727.3200: bf16[256], p728.3201: bf16[256], p729.3202: bf16[256], p730.3203: bf16[256,1024,1,1], p731.3263: bf16[2048], p732.3264: bf16[2048], p733.3265: bf16[2048], p734.3266: bf16[2048], p735.3267: bf16[2048,512,1,1], p736.3268: bf16[512], p737.3269: bf16[512], p738.3270: bf16[512], p739.3271: bf16[512], p740.3272: bf16[512,512,3,3], p741.3273: bf16[512], p742.3274: bf16[512], p743.3275: bf16[512], p744.3276: bf16[512], p745.3277: bf16[512,1024,1,1], p746.3325: bf16[2048], p747.3326: bf16[2048], p748.3327: bf16[2048], p749.3328: bf16[2048], p750.3329: bf16[2048,512,1,1], p751.3330: bf16[512], p752.3331: bf16[512], p753.3332: bf16[512], p754.3333: bf16[512], p755.3334: bf16[512,512,3,3], p756.3335: bf16[512], p757.3336: bf16[512], p758.3337: bf16[512], p759.3338: bf16[512], p760.3339: bf16[512,2048,1,1], p761.3387: bf16[2048], p762.3388: bf16[2048], p763.3389: bf16[2048], p764.3390: bf16[2048], p765.3391: bf16[2048,512,1,1], p766.3392: bf16[512], p767.3393: bf16[512], p768.3394: bf16[512], p769.3395: bf16[512], p770.3396: bf16[512,512,3,3], p771.3397: bf16[512], p772.3398: bf16[512], p773.3399: bf16[512], p774.3400: bf16[512], p775.3401: bf16[512,2048,1,1]) -> (bf16[512,2048,7,7]) {
2019-12-04 19:32:43.138354: E   38524 tensorflow/compiler/xla/xla_client/xla_util.cc:72]   %p0.16 = bf16[2048]{0} parameter(0)
2019-12-04 19:32:43.138363: E   38524 tensorflow/compiler/xla/xla_client/xla_util.cc:72]   %p1.17 = bf16[2048]{0} parameter(1)
2019-12-04 19:32:43.138371: E   38524 tensorflow/compiler/xla/xla_client/xla_util.cc:72]   %p5.201 = bf16[1024]{0} parameter(5)
2019-12-04 19:32:43.138379: E   38524 tensorflow/compiler/xla/xla_client/xla_util.cc:72]   %p6.202 = bf16[1024]{0} parameter(6)
2019-12-04 19:32:43.138387: E   38524 tensorflow/compiler/xla/xla_client/xla_util.cc:72]   %p10.246 = bf16[512]{0} parameter(10)
2019-12-04 19:32:43.138395: E   38524 tensorflow/compiler/xla/xla_client/xla_util.cc:72]   %p11.247 = bf16[512]{0} parameter(11)
2019-12-04 19:32:43.138402: E   38524 tensorflow/compiler/xla/xla_client/xla_util.cc:72]   %p15.266 = bf16[256]{0} parameter(15)
2019-12-04 19:32:43.138411: E   38524 tensorflow/compiler/xla/xla_client/xla_util.cc:72]   %p16.267 = bf16[256]{0} parameter(16)
2019-12-04 19:32:43.138419: E   38524 tensorflow/compiler/xla/xla_client/xla_util.cc:72]   %p20.271 = bf16[64]{0} parameter(20)
2019-12-04 19:32:43.138429: E   38524 tensorflow/compiler/xla/xla_client/xla_util.cc:72]   %p21.272 = bf16[64]{0} parameter(21)
2019-12-04 19:32:43.138373: E   38501 tensorflow/compiler/xla/xla_client/xla_util.cc:72] >>> Dumping Computation 0
2019-12-04 19:32:43.138438: E   38524 tensorflow/compiler/xla/xla_client/xla_util.cc:72]   %p25.276 = bf16[512,3,224,224]{3,2,1,0} parameter(25)
2019-12-04 19:32:43.138446: E   38524 tensorflow/compiler/xla/xla_client/xla_util.cc:72]   %p24.275 = bf16[64,3,7,7]{0,3,2,1} parameter(24)
2019-12-04 19:32:43.138443: E   38501 tensorflow/compiler/xla/xla_client/xla_util.cc:72] HloModule SyncTensorsGraph.3449
2019-12-04 19:32:43.138455: E   38524 tensorflow/compiler/xla/xla_client/xla_util.cc:72]   %convolution.277 = bf16[512,64,112,112]{3,2,1,0} convolution(bf16[512,3,224,224]{3,2,1,0} %p25.276, bf16[64,3,7,7]{0,3,2,1} %p24.275), window={size=7x7 stride=2x2 pad=3_3x3_3}, dim_labels=bf01_oi01->bf01
2019-12-04 19:32:43.138464: E   38524 tensorflow/compiler/xla/xla_client/xla_util.cc:72]   %p23.274 = bf16[64]{0} parameter(23)
2019-12-04 19:32:43.138456: E   38501 tensorflow/compiler/xla/xla_client/xla_util.cc:72] 
2019-12-04 19:32:43.138473: E   38524 tensorflow/compiler/xla/xla_client/xla_util.cc:72]   %p22.273 = bf16[64]{0} parameter(22)
2019-12-04 19:32:43.138480: E   38501 tensorflow/compiler/xla/xla_client/xla_util.cc:72] %max_BF16.295 (lhs.296: bf16[], rhs.297: bf16[]) -> bf16[] {
2019-12-04 19:32:43.138482: E   38524 tensorflow/compiler/xla/xla_client/xla_util.cc:72]   %batch-norm-training.278 = (bf16[512,64,112,112]{3,2,1,0}, bf16[64]{0}, bf16[64]{0}) batch-norm-training(bf16[512,64,112,112]{3,2,1,0} %convolution.277, bf16[64]{0} %p23.274, bf16[64]{0} %p22.273), epsilon=1e-05, feature_index=1
2019-12-04 19:32:43.138489: E   38501 tensorflow/compiler/xla/xla_client/xla_util.cc:72]   %lhs.296 = bf16[] parameter(0)
2019-12-04 19:32:43.138491: E   38524 tensorflow/compiler/xla/xla_client/xla_util.cc:72]   %get-tuple-element.280 = bf16[64]{0} get-tuple-element((bf16[512,64,112,112]{3,2,1,0}, bf16[64]{0}, bf16[64]{0}) %batch-norm-training.278), index=1
2019-12-04 19:32:43.138497: E   38501 tensorflow/compiler/xla/xla_client/xla_util.cc:72]   %rhs.297 = bf16[] parameter(1)
2019-12-04 19:32:43.138500: E   38524 tensorflow/compiler/xla/xla_client/xla_util.cc:72]   %constant.283 = bf16[] constant(1)
2019-12-04 19:32:43.138505: E   38501 tensorflow/compiler/xla/xla_client/xla_util.cc:72]   ROOT %maximum.298 = bf16[] maximum(bf16[] %lhs.296, bf16[] %rhs.297)
2019-12-04 19:32:43.138508: E   38524 tensorflow/compiler/xla/xla_client/xla_util.cc:72]   %broadcast.287 = bf16[64]{0} broadcast(bf16[] %constant.283), dimensions={}
2019-12-04 19:32:43.138514: E   38501 tensorflow/compiler/xla/xla_client/xla_util.cc:72] }
2019-12-04 19:32:43.138517: E   38524 tensorflow/compiler/xla/xla_client/xla_util.cc:72]   %get-tuple-element.281 = bf16[64]{0} get-tuple-element((bf16[512,64,112,112]{3,2,1,0}, bf16[64]{0}, bf16[64]{0}) %batch-norm-training.278), index=2
2019-12-04 19:32:43.138522: E   38501 tensorflow/compiler/xla/xla_client/xla_util.cc:72] 
2019-12-04 19:32:43.138526: E   38524 tensorflow/compiler/xla/xla_client/xla_util.cc:72]   %constant.282 = bf16[] constant(1.001e-05)
2019-12-04 19:32:43.138541: E   38524 tensorflow/compiler/xla/xla_client/xla_util.cc:72]   %broadcast.284 = bf16[64]{0} broadcast(bf16[] %constant.282), dimensions={}
2019-12-04 19:32:43.138550: E   38524 tensorflow/compiler/xla/xla_client/xla_util.cc:72]   %add.285 = bf16[64]{0} add(bf16[64]{0} %get-tuple-element.281, bf16[64]{0} %broadcast.284)
2019-12-04 19:32:43.138551: E   38501 tensorflow/compiler/xla/xla_client/xla_util.cc:72] ENTRY %SyncTensorsGraph.3449 (p0.16: bf16[2048], p1.17: bf16[2048], p2.18: bf16[2048], p3.19: bf16[2048], p4.20: bf16[2048,1024,1,1], p5.201: bf16[1024], p6.202: bf16[1024], p7.203: bf16[1024], p8.204: bf16[1024], p9.205: bf16[1024,512,1,1], p10.246: bf16[512], p11.247: bf16[512], p12.248: bf16[512], p13.249: bf16[512], p14.250: bf16[512,256,1,1], p15.266: bf16[256], p16.267: bf16[256], p17.268: bf16[256], p18.269: bf16[256], p19.270: bf16[256,64,1,1], p20.271: bf16[64], p21.272: bf16[64], p22.273: bf16[64], p23.274: bf16[64], p24.275: bf16[64,3,7,7], p25.276: bf16[512,3,224,224], p26.313: bf16[256], p27.314: bf16[256], p28.315: bf16[256], p29.316: bf16[256], p30.317: bf16[256,64,1,1], p31.318: bf16[64], p32.319: bf16[64], p33.320: bf16[64], p34.321: bf16[64], p35.322: bf16[64,64,3,3], p36.323: bf16[64], p37.324: bf16[64], p38.325: bf16[64], p39.326: bf16[64], p40.327: bf16[64,64,1,1], p41.375: bf16[256], p42.376: bf16[256], p43.377: bf16[256], p44.378: bf16[256], p45.379: bf16[256,64,1,1], p46.380: bf16[64], p47.381: bf16[64], p48.382: bf16[64], p49.383: bf16[64], p50.384: bf16[64,64,3,3], p51.385: bf16[64], p52.386: bf16[64], p53.387: bf16[64], p54.388: bf16[64], p55.389: bf16[64,256,1,1], p56.437: bf16[256], p57.438: bf16[256], p58.439: bf16[256], p59.440: bf16[256], p60.441: bf16[256,64,1,1], p61.442: bf16[64], p62.443: bf16[64], p63.444: bf16[64], p64.445: bf16[64], p65.446: bf16[64,64,3,3], p66.447: bf16[64], p67.448: bf16[64], p68.449: bf16[64], p69.450: bf16[64], p70.451: bf16[64,256,1,1], p71.511: bf16[512], p72.512: bf16[512], p73.513: bf16[512], p74.514: bf16[512], p75.515: bf16[512,128,1,1], p76.516: bf16[128], p77.517: bf16[128], p78.518: bf16[128], p79.519: bf16[128], p80.520: bf16[128,128,3,3], p81.521: bf16[128], p82.522: bf16[128], p83.523: bf16[128], p84.524: bf16[128], p85.525: bf16[128,256,1,1], p86.573: bf16[512], p87.574: bf16[512], p88.575: bf16[512], p89.576: bf16[512], p90.577: bf16[512,128,1,1], p91.578: bf16[128], p92.579: bf16[128], p93.580: bf16[128], p94.581: bf16[128], p95.582: bf16[128,128,3,3], p96.583: bf16[128], p97.584: bf16[128], p98.585: bf16[128], p99.586: bf16[128], p100.587: bf16[128,512,1,1], p101.635: bf16[512], p102.636: bf16[512], p103.637: bf16[512], p104.638: bf16[512], p105.639: bf16[512,128,1,1], p106.640: bf16[128], p107.641: bf16[128], p108.642: bf16[128], p109.643: bf16[128], p110.644: bf16[128,128,3,3], p111.645: bf16[128], p112.646: bf16[128], p113.647: bf16[128], p114.648: bf16[128], p115.649: bf16[128,512,1,1], p116.697: bf16[512], p117.698: bf16[512], p118.699: bf16[512], p119.700: bf16[512], p120.701: bf16[512,128,1,1], p121.702: bf16[128], p122.703: bf16[128], p123.704: bf16[128], p124.705: bf16[128], p125.706: bf16[128,128,3,3], p126.707: bf16[128], p127.708: bf16[128], p128.709: bf16[128], p129.710: bf16[128], p130.711: bf16[128,512,1,1], p131.759: bf16[512], p132.760: bf16[512], p133.761: bf16[512], p134.762: bf16[512], p135.763: bf16[512,128,1,1], p136.764: bf16[128], p137.765: bf16[128], p138.766: bf16[128], p139.767: bf16[128], p140.768: bf16[128,128,3,3], p141.769: bf16[128], p142.770: bf16[128], p143.771: bf16[128], p144.772: bf16[128], p145.773: bf16[128,512,1,1], p146.821: bf16[512], p147.822: bf16[512], p148.823: bf16[512], p149.824: bf16[512], p150.825: bf16[512,128,1,1], p151.826: bf16[128], p152.827: bf16[128], p153.828: bf16[128], p154.829: bf16[128], p155.830: bf16[128,128,3,3], p156.831: bf16[128], p157.832: bf16[128], p158.833: bf16[128], p159.834: bf16[128], p160.835: bf16[128,512,1,1], p161.883: bf16[512], p162.884: bf16[512], p163.885: bf16[512], p164.886: bf16[512], p165.887: bf16[512,128,1,1], p166.888: bf16[128], p167.889: bf16[128], p168.890: bf16[128], p169.891: bf16[128], p170.892: bf16[128,128,3,3], p171.893: bf16[128], p172.894: bf16[128], p173.895: bf16[128], p174.896: bf16[128], p175.897: bf16[128,512,1,1], p176.945: bf16[512], p177.946: bf16[512], p178.947: bf16[512], p179.948: bf16[512], p180.949: bf16[512,128,1,1], p181.950: bf16[128], p182.951: bf16[128], p183.952: bf16[128], p184.953: bf16[128], p185.954: bf16[128,128,3,3], p186.955: bf16[128], p187.956: bf16[128], p188.957: bf16[128], p189.958: bf16[128], p190.959: bf16[128,512,1,1], p191.1019: bf16[1024], p192.1020: bf16[1024], p193.1021: bf16[1024], p194.1022: bf16[1024], p195.1023: bf16[1024,256,1,1], p196.1024: bf16[256], p197.1025: bf16[256], p198.1026: bf16[256], p199.1027: bf16[256], p200.1028: bf16[256,256,3,3], p201.1029: bf16[256], p202.1030: bf16[256], p203.1031: bf16[256], p204.1032: bf16[256], p205.1033: bf16[256,512,1,1], p206.1081: bf16[1024], p207.1082: bf16[1024], p208.1083: bf16[1024], p209.1084: bf16[1024], p210.1085: bf16[1024,256,1,1], p211.1086: bf16[256], p212.1087: bf16[256], p213.1088: bf16[256], p214.1089: bf16[256], p215.1090: bf16[256,256,3,3], p216.1091: bf16[256], p217.1092: bf16[256], p218.1093: bf16[256], p219.1094: bf16[256], p220.1095: bf16[256,1024,1,1], p221.1143: bf16[1024], p222.1144: bf16[1024], p223.1145: bf16[1024], p224.1146: bf16[1024], p225.1147: bf16[1024,256,1,1], p226.1148: bf16[256], p227.1149: bf16[256], p228.1150: bf16[256], p229.1151: bf16[256], p230.1152: bf16[256,256,3,3], p231.1153: bf16[256], p232.1154: bf16[256], p233.1155: bf16[256], p234.1156: bf16[256], p235.1157: bf16[256,1024,1,1], p236.1205: bf16[1024], p237.1206: bf16[1024], p238.1207: bf16[1024], p239.1208: bf16[1024], p240.1209: bf16[1024,256,1,1], p241.1210: bf16[256], p242.1211: bf16[256], p243.1212: bf16[256], p244.1213: bf16[256], p245.1214: bf16[256,256,3,3], p246.1215: bf16[256], p247.1216: bf16[256], p248.1217: bf16[256], p249.1218: bf16[256], p250.1219: bf16[256,1024,1,1], p251.1267: bf16[1024], p252.1268: bf16[1024], p253.1269: bf16[1024], p254.1270: bf16[1024], p255.1271: bf16[1024,256,1,1], p256.1272: bf16[256], p257.1273: bf16[256], p258.1274: bf16[256], p259.1275: bf16[256], p260.1276: bf16[256,256,3,3], p261.1277: bf16[256], p262.1278: bf16[256], p263.1279: bf16[256], p264.1280: bf16[256], p265.1281: bf16[256,1024,1,1], p266.1329: bf16[1024], p267.1330: bf16[1024], p268.1331: bf16[1024], p269.1332: bf16[1024], p270.1333: bf16[1024,256,1,1], p271.1334: bf16[256], p272.1335: bf16[256], p273.1336: bf16[256], p274.1337: bf16[256], p275.1338: bf16[256,256,3,3], p276.1339: bf16[256], p277.1340: bf16[256], p278.1341: bf16[256], p279.1342: bf16[256], p280.1343: bf16[256,1024,1,1], p281.1391: bf16[1024], p282.1392: bf16[1024], p283.1393: bf16[1024], p284.1394: bf16[1024], p285.1395: bf16[1024,256,1,1], p286.1396: bf16[256], p287.1397: bf16[256], p288.1398: bf16[256], p289.1399: bf16[256], p290.1400: bf16[256,256,3,3], p291.1401: bf16[256], p292.1402: bf16[256], p293.1403: bf16[256], p294.1404: bf16[256], p295.1405: bf16[256,1024,1,1], p296.1453: bf16[1024], p297.1454: bf16[1024], p298.1455: bf16[1024], p299.1456: bf16[1024], p300.1457: bf16[1024,256,1,1], p301.1458: bf16[256], p302.1459: bf16[256], p303.1460: bf16[256], p304.1461: bf16[256], p305.1462: bf16[256,256,3,3], p306.1463: bf16[256], p307.1464: bf16[256], p308.1465: bf16[256], p309.1466: bf16[256], p310.1467: bf16[256,1024,1,1], p311.1515: bf16[1024], p312.1516: bf16[1024], p313.1517: bf16[1024], p314.1518: bf16[1024], p315.1519: bf16[1024,256,1,1], p316.1520: bf16[256], p317.1521: bf16[256], p318.1522: bf16[256], p319.1523: bf16[256], p320.1524: bf16[256,256,3,3], p321.1525: bf16[256], p322.1526: bf16[256], p323.1527: bf16[256], p324.1528: bf16[256], p325.1529: bf16[256,1024,1,1], p326.1577: bf16[1024], p327.1578: bf16[1024], p328.1579: bf16[1024], p329.1580: bf16[1024], p330.1581: bf16[1024,256,1,1], p331.1582: bf16[256], p332.1583: bf16[256], p333.1584: bf16[256], p334.1585: bf16[256], p335.1586: bf16[256,256,3,3], p336.1587: bf16[256], p337.1588: bf16[256], p338.1589: bf16[256], p339.1590: bf16[256], p340.1591: bf16[256,1024,1,1], p341.1639: bf16[1024], p342.1640: bf16[1024], p343.1641: bf16[1024], p344.1642: bf16[1024], p345.1643: bf16[1024,256,1,1], p346.1644: bf16[256], p347.1645: bf16[256], p348.1646: bf16[256], p349.1647: bf16[256], p350.1648: bf16[256,256,3,3], p351.1649: bf16[256], p352.1650: bf16[256], p353.1651: bf2019-12-04 19:32:43.138558: E   38524 tensorflow/compiler/xla/xla_client/xla_util.cc:72]   %sqrt.286 = bf16[64]{0} sqrt(bf16[64]{0} %add.285)
16[256], p354.1652: bf16[256], p355.1653: bf16[256,1024,1,1], p356.1701: bf16[1024], p357.1702: bf16[1024], p358.1703: bf16[1024], p359.1704: bf16[1024], p360.1705: bf16[1024,256,1,1], p361.1706: bf16[256], p362.1707: bf16[256], p363.1708: bf16[256], p364.1709: bf16[256], p365.1710: bf16[256,256,3,3], p366.1711: bf16[256], p367.1712: bf16[256], p368.1713: bf16[256], p369.1714: bf16[256], p370.1715: bf16[256,1024,1,1], p371.1763: bf16[1024], p372.1764: bf16[1024], p373.1765: bf16[1024], p374.1766: bf16[1024], p375.1767: bf16[1024,256,1,1], p376.1768: bf16[256], p377.1769: bf16[256], p378.1770: bf16[256], p379.1771: bf16[256], p380.1772: bf16[256,256,3,3], p381.1773: bf16[256], p382.1774: bf16[256], p383.1775: bf16[256], p384.1776: bf16[256], p385.1777: bf16[256,1024,1,1], p386.1825: bf16[1024], p387.1826: bf16[1024], p388.1827: bf16[1024], p389.1828: bf16[1024], p390.1829: bf16[1024,256,1,1], p391.1830: bf16[256], p392.1831: bf16[256], p393.1832: bf16[256], p394.1833: bf16[256], p395.1834: bf16[256,256,3,3], p396.1835: bf16[256], p397.1836: bf16[256], p398.1837: bf16[256], p399.1838: bf16[256], p400.1839: bf16[256,1024,1,1], p401.1887: bf16[1024], p402.1888: bf16[1024], p403.1889: bf16[1024], p404.1890: bf16[1024], p405.1891: bf16[1024,256,1,1], p406.1892: bf16[256], p407.1893: bf16[256], p408.1894: bf16[256], p409.1895: bf16[256], p410.1896: bf16[256,256,3,3], p411.1897: bf16[256], p412.1898: bf16[256], p413.1899: bf16[256], p414.1900: bf16[256], p415.1901: bf16[256,1024,1,1], p416.1949: bf16[1024], p417.1950: bf16[1024], p418.1951: bf16[1024], p419.1952: bf16[1024], p420.1953: bf16[1024,256,1,1], p421.1954: bf16[256], p422.1955: bf16[256], p423.1956: bf16[256], p424.1957: bf16[256], p425.1958: bf16[256,256,3,3], p426.1959: bf16[256], p427.1960: bf16[256], p428.1961: bf16[256], p429.1962: bf16[256], p430.1963: bf16[256,1024,1,1], p431.2011: bf16[1024], p432.2012: bf16[1024], p433.2013: bf16[1024], p434.2014: bf16[1024], p435.2015: bf16[1024,256,1,1], p436.2016: bf16[256], p437.2017: bf16[256], p438.2018: bf16[256], p439.2019: bf16[256], p440.2020: bf16[256,256,3,3], p441.2021: bf16[256], p442.2022: bf16[256], p443.2023: bf16[256], p444.2024: bf16[256], p445.2025: bf16[256,1024,1,1], p446.2073: bf16[1024], p447.2074: bf16[1024], p448.2075: bf16[1024], p449.2076: bf16[1024], p450.2077: bf16[1024,256,1,1], p451.2078: bf16[256], p452.2079: bf16[256], p453.2080: bf16[256], p454.2081: bf16[256], p455.2082: bf16[256,256,3,3], p456.2083: bf16[256], p457.2084: bf16[256], p458.2085: bf16[256], p459.2086: bf16[256], p460.2087: bf16[256,1024,1,1], p461.2135: bf16[1024], p462.2136: bf16[1024], p463.2137: bf16[1024], p464.2138: bf16[1024], p465.2139: bf16[1024,256,1,1], p466.2140: bf16[256], p467.2141: bf16[256], p468.2142: bf16[256], p469.2143: bf16[256], p470.2144: bf16[256,256,3,3], p471.2145: bf16[256], p472.2146: bf16[256], p473.2147: bf16[256], p474.2148: bf16[256], p475.2149: bf16[256,1024,1,1], p476.2197: bf16[1024], p477.2198: bf16[1024], p478.2199: bf16[1024], p479.2200: bf16[1024], p480.2201: bf16[1024,256,1,1], p481.2202: bf16[256], p482.2203: bf16[256], p483.2204: bf16[256], p484.2205: bf16[256], p485.2206: bf16[256,256,3,3], p486.2207: bf16[256], p487.2208: bf16[256], p488.2209: bf16[256], p489.2210: bf16[256], p490.2211: bf16[256,1024,1,1], p491.2259: bf16[1024], p492.2260: bf16[1024], p493.2261: bf16[1024], p494.2262: bf16[1024], p495.2263: bf16[1024,256,1,1], p496.2264: bf16[256], p497.2265: bf16[256], p498.2266: bf16[256], p499.2267: bf16[256], p500.2268: bf16[256,256,3,3], p501.2269: bf16[256], p502.2270: bf16[256], p503.2271: bf16[256], p504.2272: bf16[256], p505.2273: bf16[256,1024,1,1], p506.2321: bf16[1024], p507.2322: bf16[1024], p508.2323: bf16[1024], p509.2324: bf16[1024], p510.2325: bf16[1024,256,1,1], p511.2326: bf16[256], p512.2327: bf16[256], p513.2328: bf16[256], p514.2329: bf16[256], p515.2330: bf16[256,256,3,3], p516.2331: bf16[256], p517.2332: bf16[256], p518.2333: bf16[256], p519.2334: bf16[256], p520.2335: bf16[256,1024,1,1], p521.2383: bf16[1024], p522.2384: bf16[1024], p523.2385: bf16[1024], p524.2386: bf16[1024], p525.2387: bf16[1024,256,1,1], p526.2388: bf16[256], p527.2389: bf16[256], p528.2390: bf16[256], p529.2391: bf16[256], p530.2392: bf16[256,256,3,3], p531.2393: bf16[256], p532.2394: bf16[256], p533.2395: bf16[256], p534.2396: bf16[256], p535.2397: bf16[256,1024,1,1], p536.2445: bf16[1024], p537.2446: bf16[1024], p538.2447: bf16[1024], p539.2448: bf16[1024], p540.2449: bf16[1024,256,1,1], p541.2450: bf16[256], p542.2451: bf16[256], p543.2452: bf16[256], p544.2453: bf16[256], p545.2454: bf16[256,256,3,3], p546.2455: bf16[256], p547.2456: bf16[256], p548.2457: bf16[256], p549.2458: bf16[256], p550.2459: bf16[256,1024,1,1], p551.2507: bf16[1024], p552.2508: bf16[1024], p553.2509: bf16[1024], p554.2510: bf16[1024], p555.2511: bf16[1024,256,1,1], p556.2512: bf16[256], p557.2513: bf16[256], p558.2514: bf16[256], p559.2515: bf16[256], p560.2516: bf16[256,256,3,3], p561.2517: bf16[256], p562.2518: bf16[256], p563.2519: bf16[256], p564.2520: bf16[256], p565.2521: bf16[256,1024,1,1], p566.2569: bf16[1024], p567.2570: bf16[1024], p568.2571: bf16[1024], p569.2572: bf16[1024], p570.2573: bf16[1024,256,1,1], p571.2574: bf16[256], p572.2575: bf16[256], p573.2576: bf16[256], p574.2577: bf16[256], p575.2578: bf16[256,256,3,3], p576.2579: bf16[256], p577.2580: bf16[256], p578.2581: bf16[256], p579.2582: bf16[256], p580.2583: bf16[256,1024,1,1], p581.2631: bf16[1024], p582.2632: bf16[1024], p583.2633: bf16[1024], p584.2634: bf16[1024], p585.2635: bf16[1024,256,1,1], p586.2636: bf16[256], p587.2637: bf16[256], p588.2638: bf16[256], p589.2639: bf16[256], p590.2640: bf16[256,256,3,3], p591.2641: bf16[256], p592.2642: bf16[256], p593.2643: bf16[256], p594.2644: bf16[256], p595.2645: bf16[256,1024,1,1], p596.2693: bf16[1024], p597.2694: bf16[1024], p598.2695: bf16[1024], p599.2696: bf16[1024], p600.2697: bf16[1024,256,1,1], p601.2698: bf16[256], p602.2699: bf16[256], p603.2700: bf16[256], p604.2701: bf16[256], p605.2702: bf16[256,256,3,3], p606.2703: bf16[256], p607.2704: bf16[256], p608.2705: bf16[256], p609.2706: bf16[256], p610.2707: bf16[256,1024,1,1], p611.2755: bf16[1024], p612.2756: bf16[1024], p613.2757: bf16[1024], p614.2758: bf16[1024], p615.2759: bf16[1024,256,1,1], p616.2760: bf16[256], p617.2761: bf16[256], p618.2762: bf16[256], p619.2763: bf16[256], p620.2764: bf16[256,256,3,3], p621.2765: bf16[256], p622.2766: bf16[256], p623.2767: bf16[256], p624.2768: bf16[256], p625.2769: bf16[256,1024,1,1], p626.2817: bf16[1024], p627.2818: bf16[1024], p628.2819: bf16[1024], p629.2820: bf16[1024], p630.2821: bf16[1024,256,1,1], p631.2822: bf16[256], p632.2823: bf16[256], p633.2824: bf16[256], p634.2825: bf16[256], p635.2826: bf16[256,256,3,3], p636.2827: bf16[256], p637.2828: bf16[256], p638.2829: bf16[256], p639.2830: bf16[256], p640.2831: bf16[256,1024,1,1], p641.2879: bf16[1024], p642.2880: bf16[1024], p643.2881: bf16[1024], p644.2882: bf16[1024], p645.2883: bf16[1024,256,1,1], p646.2884: bf16[256], p647.2885: bf16[256], p648.2886: bf16[256], p649.2887: bf16[256], p650.2888: bf16[256,256,3,3], p651.2889: bf16[256], p652.2890: bf16[256], p653.2891: bf16[256], p654.2892: bf16[256], p655.2893: bf16[256,1024,1,1], p656.2941: bf16[1024], p657.2942: bf16[1024], p658.2943: bf16[1024], p659.2944: bf16[1024], p660.2945: bf16[1024,256,1,1], p661.2946: bf16[256], p662.2947: bf16[256], p663.2948: bf16[256], p664.2949: bf16[256], p665.2950: bf16[256,256,3,3], p666.2951: bf16[256], p667.2952: bf16[256], p668.2953: bf16[256], p669.2954: bf16[256], p670.2955: bf16[256,1024,1,1], p671.3003: bf16[1024], p672.3004: bf16[1024], p673.3005: bf16[1024], p674.3006: bf16[1024], p675.3007: bf16[1024,256,1,1], p676.3008: bf16[256], p677.3009: bf16[256], p678.3010: bf16[256], p679.3011: bf16[256], p680.3012: bf16[256,256,3,3], p681.3013: bf16[256], p682.3014: bf16[256], p683.3015: bf16[256], p684.3016: bf16[256], p685.3017: bf16[256,1024,1,1], p686.3065: bf16[1024], p687.3066: bf16[1024], p688.3067: bf16[1024], p689.3068: bf16[1024], p690.3069: bf16[1024,256,1,1], p691.3070: bf16[256], p692.3071: bf16[256], p693.3072: bf16[256], p694.3073: bf16[256], p695.3074: bf16[256,256,3,3], p696.3075: bf16[256], p697.3076: bf16[256], p698.3077: bf16[256], p699.3078: bf16[256], p700.3079: bf16[256,1024,1,1], p701.3127: bf16[1024], p702.3128: bf16[1024], p703.3129: bf16[1024], p704.3130: bf16[1024], p705.3131: bf16[1024,256,1,1], p706.3132: bf16[256], p707.3133: bf16[256], p708.3134: bf16[256], p709.3135: bf16[256], p710.3136: bf16[256,256,3,3], p711.3137: bf16[256], p712.3138: bf16[256], p713.3139: bf16[256], p714.3140: bf16[256], p715.3141: bf16[256,1024,1,1], p716.3189: bf16[1024], p717.3190: bf16[1024], p718.3191: bf16[1024], p719.3192: bf16[1024], p720.3193: bf16[1024,256,1,1], p721.3194: bf16[256], p722.3195: bf16[256], p723.3196: bf16[256], p724.3197: bf16[256], p725.3198: bf16[256,256,3,3], p726.3199: bf16[256], p727.3200: bf16[256], p728.3201: bf16[256], p729.3202: bf16[256], p730.3203: bf16[256,1024,1,1], p731.3263: bf16[2048], p732.3264: bf16[2048], p733.3265: bf16[2048], p734.3266: bf16[2048], p735.3267: bf16[2048,512,1,1], p736.3268: bf16[512], p737.3269: bf16[512], p738.3270: bf16[512], p739.3271: bf16[512], p740.3272: bf16[512,512,3,3], p741.3273: bf16[512], p742.3274: bf16[512], p743.3275: bf16[512], p744.3276: bf16[512], p745.3277: bf16[512,1024,1,1], p746.3325: bf16[2048], p747.3326: bf16[2048], p748.3327: bf16[2048], p749.3328: bf16[2048], p750.3329: bf16[2048,512,1,1], p751.3330: bf16[512], p752.3331: bf16[512], p753.3332: bf16[512], p754.3333: bf16[512], p755.3334: bf16[512,512,3,3], p756.3335: bf16[512], p757.3336: bf16[512], p758.3337: bf16[512], p759.3338: bf16[512], p760.3339: bf16[512,2048,1,1], p761.3387: bf16[2048], p762.3388: bf16[2048], p763.3389: bf16[2048], p764.3390: bf16[2048], p765.3391: bf16[2048,512,1,1], p766.3392: bf16[512], p767.3393: bf16[512], p768.3394: bf16[512], p769.3395: bf16[512], p770.3396: bf16[512,512,3,3], p771.3397: bf16[512], p772.3398: bf16[512], p773.3399: bf16[512], p774.3400: bf16[512], p775.3401: bf16[512,2048,1,1]) -> (bf16[512,2048,7,7]) {
2019-12-04 19:32:43.138573: E   38524 tensorflow/compiler/xla/xla_client/xla_util.cc:72]   %divide.288 = bf16[64]{0} divide(bf16[64]{0} %broadcast.287, bf16[64]{0} %sqrt.286)
2019-12-04 19:32:43.138581: E   38501 tensorflow/compiler/xla/xla_client/xla_util.cc:72]   %p0.16 = bf16[2048]{0} parameter(0)
2019-12-04 19:32:43.138582: E   38524 tensorflow/compiler/xla/xla_client/xla_util.cc:72]   %get-tuple-element.279 = bf16[512,64,112,112]{3,2,1,0} get-tuple-element((bf16[512,64,112,112]{3,2,1,0}, bf16[64]{0}, bf16[64]{0}) %batch-norm-training.278), index=0
2019-12-04 19:32:43.138590: E   38501 tensorflow/compiler/xla/xla_client/xla_util.cc:72]   %p1.17 = bf16[2048]{0} parameter(1)
2019-12-04 19:32:43.138591: E   38524 tensorflow/compiler/xla/xla_client/xla_util.cc:72]   %constant.289 = bf16[] constant(0)
2019-12-04 19:32:43.138600: E   38501 tensorflow/compiler/xla/xla_client/xla_util.cc:72]   %p5.201 = bf16[1024]{0} parameter(5)
2019-12-04 19:32:43.138601: E   38524 tensorflow/compiler/xla/xla_client/xla_util.cc:72]   %broadcast.290 = bf16[512,64,112,112]{3,2,1,0} broadcast(bf16[] %constant.289), dimensions={}
2019-12-04 19:32:43.138611: E   38524 tensorflow/compiler/xla/xla_client/xla_util.cc:72]   %maximum.291 = bf16[512,64,112,112]{3,2,1,0} maximum(bf16[512,64,112,112]{3,2,1,0} %get-tuple-element.279, bf16[512,64,112,112]{3,2,1,0} %broadcast.290)
2019-12-04 19:32:43.138611: E   38501 tensorflow/compiler/xla/xla_client/xla_util.cc:72]   %p6.202 = bf16[1024]{0} parameter(6)
2019-12-04 19:32:43.138620: E   38524 tensorflow/compiler/xla/xla_client/xla_util.cc:72]   %constant.292 = bf16[] constant(-inf)
2019-12-04 19:32:43.138620: E   38501 tensorflow/compiler/xla/xla_client/xla_util.cc:72]   %p10.246 = bf16[512]{0} parameter(10)
2019-12-04 19:32:43.138628: E   38524 tensorflow/compiler/xla/xla_client/xla_util.cc:72]   %pad.293 = bf16[512,64,114,114]{3,2,1,0} pad(bf16[512,64,112,112]{3,2,1,0} %maximum.291, bf16[] %constant.292), padding=0_0x0_0x1_1x1_1
2019-12-04 19:32:43.138629: E   38501 tensorflow/compiler/xla/xla_client/xla_util.cc:72]   %p11.247 = bf16[512]{0} parameter(11)
2019-12-04 19:32:43.138637: E   38524 tensorflow/compiler/xla/xla_client/xla_util.cc:72]   %constant.294 = bf16[] constant(-inf)
2019-12-04 19:32:43.138638: E   38501 tensorflow/compiler/xla/xla_client/xla_util.cc:72]   %p15.266 = bf16[256]{0} parameter(15)
2019-12-04 19:32:43.138649: E   38501 tensorflow/compiler/xla/xla_client/xla_util.cc:72]   %p16.267 = bf16[256]{0} parameter(16)
2019-12-04 19:32:43.138649: E   38524 tensorflow/compiler/xla/xla_client/xla_util.cc:72]   %reduce-window.299 = bf16[512,64,56,56]{3,2,1,0} reduce-window(bf16[512,64,114,114]{3,2,1,0} %pad.293, bf16[] %constant.294), window={size=1x1x3x3 stride=1x1x2x2}, to_apply=%max_BF16.295
2019-12-04 19:32:43.138658: E   38501 tensorflow/compiler/xla/xla_client/xla_util.cc:72]   %p20.271 = bf16[64]{0} parameter(20)
2019-12-04 19:32:43.138659: E   38524 tensorflow/compiler/xla/xla_client/xla_util.cc:72]   %p19.270 = bf16[256,64,1,1]{0,1,3,2} parameter(19)
2019-12-04 19:32:43.138667: E   38501 tensorflow/compiler/xla/xla_client/xla_util.cc:72]   %p21.272 = bf16[64]{0} parameter(21)
2019-12-04 19:32:43.138674: E   38524 tensorflow/compiler/xla/xla_client/xla_util.cc:72]   %convolution.300 = bf16[512,256,56,56]{3,2,1,0} convolution(bf16[512,64,56,56]{3,2,1,0} %reduce-window.299, bf16[256,64,1,1]{0,1,3,2} %p19.270), window={size=1x1}, dim_labels=bf01_oi01->bf01
2019-12-04 19:32:43.138675: E   38501 tensorflow/compiler/xla/xla_client/xla_util.cc:72]   %p25.276 = bf16[512,3,224,224]{3,2,1,0} parameter(25)
2019-12-04 19:32:43.138683: E   38524 tensorflow/compiler/xla/xla_client/xla_util.cc:72]   %p18.269 = bf16[256]{0} parameter(18)
2019-12-04 19:32:43.138684: E   38501 tensorflow/compiler/xla/xla_client/xla_util.cc:72]   %p24.275 = bf16[64,3,7,7]{0,3,2,1} parameter(24)
2019-12-04 19:32:43.138643: E   38586 tensorflow/compiler/xla/xla_client/xla_util.cc:72] >>> Dumping Computation 0
2019-12-04 19:32:43.138692: E   38524 tensorflow/compiler/xla/xla_client/xla_util.cc:72]   %p17.268 = bf16[256]{0} parameter(17)
2019-12-04 19:32:43.138694: E   38501 tensorflow/compiler/xla/xla_client/xla_util.cc:72]   %convolution.277 = bf16[512,64,112,112]{3,2,1,0} convolution(bf16[512,3,224,224]{3,2,1,0} %p25.276, bf16[64,3,7,7]{0,3,2,1} %p24.275), window={size=7x7 stride=2x2 pad=3_3x3_3}, dim_labels=bf01_oi01->bf01
2019-12-04 19:32:43.138700: E   38524 tensorflow/compiler/xla/xla_client/xla_util.cc:72]   %batch-norm-training.301 = (bf16[512,256,56,56]{3,2,1,0}, bf16[256]{0}, bf16[256]{0}) batch-norm-training(bf16[512,256,56,56]{3,2,1,0} %convolution.300, bf16[256]{0} %p18.269, bf16[256]{0} %p17.268), epsilon=1e-05, feature_index=1
2019-12-04 19:32:43.138700: E   38586 tensorflow/compiler/xla/xla_client/xla_util.cc:72] HloModule SyncTensorsGraph.3449
2019-12-04 19:32:43.138704: E   38501 tensorflow/compiler/xla/xla_client/xla_util.cc:72]   %p23.274 = bf16[64]{0} parameter(23)
2019-12-04 19:32:43.138710: E   38524 tensorflow/compiler/xla/xla_client/xla_util.cc:72]   %get-tuple-element.303 = bf16[256]{0} get-tuple-element((bf16[512,256,56,56]{3,2,1,0}, bf16[256]{0}, bf16[256]{0}) %batch-norm-training.301), index=1
2019-12-04 19:32:43.138714: E   38501 tensorflow/compiler/xla/xla_client/xla_util.cc:72]   %p22.273 = bf16[64]{0} parameter(22)
2019-12-04 19:32:43.138720: E   38524 tensorflow/compiler/xla/xla_client/xla_util.cc:72]   %constant.306 = bf16[] constant(1)
2019-12-04 19:32:43.138723: E   38501 tensorflow/compiler/xla/xla_client/xla_util.cc:72]   %batch-norm-training.278 = (bf16[512,64,112,112]{3,2,1,0}, bf16[64]{0}, bf16[64]{0}) batch-norm-training(bf16[512,64,112,112]{3,2,1,0} %convolution.277, bf16[64]{0} %p23.274, bf16[64]{0} %p22.273), epsilon=1e-05, feature_index=1
2019-12-04 19:32:43.138711: E   38586 tensorflow/compiler/xla/xla_client/xla_util.cc:72] 
2019-12-04 19:32:43.138685: E   38714 tensorflow/compiler/xla/xla_client/xla_util.cc:72] >>> Dumping Computation 0
2019-12-04 19:32:43.138728: E   38524 tensorflow/compiler/xla/xla_client/xla_util.cc:72]   %broadcast.310 = bf16[256]{0} broadcast(bf16[] %constant.306), dimensions={}
2019-12-04 19:32:43.138733: E   38501 tensorflow/compiler/xla/xla_client/xla_util.cc:72]   %get-tuple-element.280 = bf16[64]{0} get-tuple-element((bf16[512,64,112,112]{3,2,1,0}, bf16[64]{0}, bf16[64]{0}) %batch-norm-training.278), index=1
2019-12-04 19:32:43.138734: E   38586 tensorflow/compiler/xla/xla_client/xla_util.cc:72] %max_BF16.295 (lhs.296: bf16[], rhs.297: bf16[]) -> bf16[] {
2019-12-04 19:32:43.138735: E   38714 tensorflow/compiler/xla/xla_client/xla_util.cc:72] HloModule SyncTensorsGraph.3449
2019-12-04 19:32:43.138737: E   38524 tensorflow/compiler/xla/xla_client/xla_util.cc:72]   %get-tuple-element.304 = bf16[256]{0} get-tuple-element((bf16[512,256,56,56]{3,2,1,0}, bf16[256]{0}, bf16[256]{0}) %batch-norm-training.301), index=2
2019-12-04 19:32:43.138743: E   38586 tensorflow/compiler/xla/xla_client/xla_util.cc:72]   %lhs.296 = bf16[] parameter(0)
2019-12-04 19:32:43.138743: E   38501 tensorflow/compiler/xla/xla_client/xla_util.cc:72]   %constant.283 = bf16[] constant(1)
2019-12-04 19:32:43.138746: E   38524 tensorflow/compiler/xla/xla_client/xla_util.cc:72]   %constant.305 = bf16[] constant(1.001e-05)
2019-12-04 19:32:43.138752: E   38586 tensorflow/compiler/xla/xla_client/xla_util.cc:72]   %rhs.297 = bf16[] parameter(1)
2019-12-04 19:32:43.138753: E   38501 tensorflow/compiler/xla/xla_client/xla_util.cc:72]   %broadcast.287 = bf16[64]{0} broadcast(bf16[] %constant.283), dimensions={}
2019-12-04 19:32:43.138755: E   38524 tensorflow/compiler/xla/xla_client/xla_util.cc:72]   %broadcast.307 = bf16[256]{0} broadcast(bf16[] %constant.305), dimensions={}
2019-12-04 19:32:43.138744: E   38714 tensorflow/compiler/xla/xla_client/xla_util.cc:72] 
2019-12-04 19:32:43.138759: E   38586 tensorflow/compiler/xla/xla_client/xla_util.cc:72]   ROOT %maximum.298 = bf16[] maximum(bf16[] %lhs.296, bf16[] %rhs.297)
2019-12-04 19:32:43.138761: E   38501 tensorflow/compiler/xla/xla_client/xla_util.cc:72]   %get-tuple-element.281 = bf16[64]{0} get-tuple-element((bf16[512,64,112,112]{3,2,1,0}, bf16[64]{0}, bf16[64]{0}) %batch-norm-training.278), index=2
2019-12-04 19:32:43.138764: E   38524 tensorflow/compiler/xla/xla_client/xla_util.cc:72]   %add.308 = bf16[256]{0} add(bf16[256]{0} %get-tuple-element.304, bf16[256]{0} %broadcast.307)
2019-12-04 19:32:43.138765: E   38714 tensorflow/compiler/xla/xla_client/xla_util.cc:72] %max_BF16.295 (lhs.296: bf16[], rhs.297: bf16[]) -> bf16[] {
2019-12-04 19:32:43.138767: E   38586 tensorflow/compiler/xla/xla_client/xla_util.cc:72] }
2019-12-04 19:32:43.138769: E   38501 tensorflow/compiler/xla/xla_client/xla_util.cc:72]   %constant.282 = bf16[] constant(1.001e-05)
2019-12-04 19:32:43.138772: E   38524 tensorflow/compiler/xla/xla_client/xla_util.cc:72]   %sqrt.309 = bf16[256]{0} sqrt(bf16[256]{0} %add.308)
2019-12-04 19:32:43.138773: E   38714 tensorflow/compiler/xla/xla_client/xla_util.cc:72]   %lhs.296 = bf16[] parameter(0)
2019-12-04 19:32:43.138774: E   38586 tensorflow/compiler/xla/xla_client/xla_util.cc:72] 
2019-12-04 19:32:43.138778: E   38501 tensorflow/compiler/xla/xla_client/xla_util.cc:72]   %broadcast.284 = bf16[64]{0} broadcast(bf16[] %constant.282), dimensions={}
2019-12-04 19:32:43.138780: E   38524 tensorflow/compiler/xla/xla_client/xla_util.cc:72]   %divide.311 = bf16[256]{0} divide(bf16[256]{0} %broadcast.310, bf16[256]{0} %sqrt.309)
2019-12-04 19:32:43.138781: E   38714 tensorflow/compiler/xla/xla_client/xla_util.cc:72]   %rhs.297 = bf16[] parameter(1)
2019-12-04 19:32:43.138786: E   38501 tensorflow/compiler/xla/xla_client/xla_util.cc:72]   %add.285 = bf16[64]{0} add(bf16[64]{0} %get-tuple-element.281, bf16[64]{0} %broadcast.284)
2019-12-04 19:32:43.138790: E   38524 tensorflow/compiler/xla/xla_client/xla_util.cc:72]   %p26.313 = bf16[256]{0} parameter(26)
2019-12-04 19:32:43.138790: E   38714 tensorflow/compiler/xla/xla_client/xla_util.cc:72]   ROOT %maximum.298 = bf16[] maximum(bf16[] %lhs.296, bf16[] %rhs.297)
2019-12-04 19:32:43.138795: E   38501 tensorflow/compiler/xla/xla_client/xla_util.cc:72]   %sqrt.286 = bf16[64]{0} sqrt(bf16[64]{0} %add.285)
2019-12-04 19:32:43.138799: E   38714 tensorflow/compiler/xla/xla_client/xla_util.cc:72] }
2019-12-04 19:32:43.138799: E   38524 tensorflow/compiler/xla/xla_client/xla_util.cc:72]   %p27.314 = bf16[256]{0} parameter(27)
2019-12-04 19:32:43.138803: E   38501 tensorflow/compiler/xla/xla_client/xla_util.cc:72]   %divide.288 = bf16[64]{0} divide(bf16[64]{0} %broadcast.287, bf16[64]{0} %sqrt.286)
2019-12-04 19:32:43.138802: E   38586 tensorflow/compiler/xla/xla_client/xla_util.cc:72] ENTRY %SyncTensorsGraph.3449 (p0.16: bf16[2048], p1.17: bf16[2048], p2.18: bf16[2048], p3.19: bf16[2048], p4.20: bf16[2048,1024,1,1], p5.201: bf16[1024], p6.202: bf16[1024], p7.203: bf16[1024], p8.204: bf16[1024], p9.205: bf16[1024,512,1,1], p10.246: bf16[512], p11.247: bf16[512], p12.248: bf16[512], p13.249: bf16[512], p14.250: bf16[512,256,1,1], p15.266: bf16[256], p16.267: bf16[256], p17.268: bf16[256], p18.269: bf16[256], p19.270: bf16[256,64,1,1], p20.271: bf16[64], p21.272: bf16[64], p22.273: bf16[64], p23.274: bf16[64], p24.275: bf16[64,3,7,7], p25.276: bf16[512,3,224,224], p26.313: bf16[256], p27.314: bf16[256], p28.315: bf16[256], p29.316: bf16[256], p30.317: bf16[256,64,1,1], p31.318: bf16[64], p32.319: bf16[64], p33.320: bf16[64], p34.321: bf16[64], p35.322: bf16[64,64,3,3], p36.323: bf16[64], p37.324: bf16[64], p38.325: bf16[64], p39.326: bf16[64], p40.327: bf16[64,64,1,1], p41.375: bf16[256], p42.376: bf16[256], p43.377: bf16[256], p44.378: bf16[256], p45.379: bf16[256,64,1,1], p46.380: bf16[64], p47.381: bf16[64], p48.382: bf16[64], p49.383: bf16[64], p50.384: bf16[64,64,3,3], p51.385: bf16[64], p52.386: bf16[64], p53.387: bf16[64], p54.388: bf16[64], p55.389: bf16[64,256,1,1], p56.437: bf16[256], p57.438: bf16[256], p58.439: bf16[256], p59.440: bf16[256], p60.441: bf16[256,64,1,1], p61.442: bf16[64], p62.443: bf16[64], p63.444: bf16[64], p64.445: bf16[64], p65.446: bf16[64,64,3,3], p66.447: bf16[64], p67.448: bf16[64], p68.449: bf16[64], p69.450: bf16[64], p70.451: bf16[64,256,1,1], p71.511: bf16[512], p72.512: bf16[512], p73.513: bf16[512], p74.514: bf16[512], p75.515: bf16[512,128,1,1], p76.516: bf16[128], p77.517: bf16[128], p78.518: bf16[128], p79.519: bf16[128], p80.520: bf16[128,128,3,3], p81.521: bf16[128], p82.522: bf16[128], p83.523: bf16[128], p84.524: bf16[128], p85.525: bf16[128,256,1,1], p86.573: bf16[512], p87.574: bf16[512], p88.575: bf16[512], p89.576: bf16[512], p90.577: bf16[512,128,1,1], p91.578: bf16[128], p92.579: bf16[128], p93.580: bf16[128], p94.581: bf16[128], p95.582: bf16[128,128,3,3], p96.583: bf16[128], p97.584: bf16[128], p98.585: bf16[128], p99.586: bf16[128], p100.587: bf16[128,512,1,1], p101.635: bf16[512], p102.636: bf16[512], p103.637: bf16[512], p104.638: bf16[512], p105.639: bf16[512,128,1,1], p106.640: bf16[128], p107.641: bf16[128], p108.642: bf16[128], p109.643: bf16[128], p110.644: bf16[128,128,3,3], p111.645: bf16[128], p112.646: bf16[128], p113.647: bf16[128], p114.648: bf16[128], p115.649: bf16[128,512,1,1], p116.697: bf16[512], p117.698: bf16[512], p118.699: bf16[512], p119.700: bf16[512], p120.701: bf16[512,128,1,1], p121.702: bf16[128], p122.703: bf16[128], p123.704: bf16[128], p124.705: bf16[128], p125.706: bf16[128,128,3,3], p126.707: bf16[128], p127.708: bf16[128], p128.709: bf16[128], p129.710: bf16[128], p130.711: bf16[128,512,1,1], p131.759: bf16[512], p132.760: bf16[512], p133.761: bf16[512], p134.762: bf16[512], p135.763: bf16[512,128,1,1], p136.764: bf16[128], p137.765: bf16[128], p138.766: bf16[128], p139.767: bf16[128], p140.768: bf16[128,128,3,3], p141.769: bf16[128], p142.770: bf16[128], p143.771: bf16[128], p144.772: bf16[128], p145.773: bf16[128,512,1,1], p146.821: bf16[512], p147.822: bf16[512], p148.823: bf16[512], p149.824: bf16[512], p150.825: bf16[512,128,1,1], p151.826: bf16[128], p152.827: bf16[128], p153.828: bf16[128], p154.829: bf16[128], p155.830: bf16[128,128,3,3], p156.831: bf16[128], p157.832: bf16[128], p158.833: bf16[128], p159.834: bf16[128], p160.835: bf16[128,512,1,1], p161.883: bf16[512], p162.884: bf16[512], p163.885: bf16[512], p164.886: bf16[512], p165.887: bf16[512,128,1,1], p166.888: bf16[128], p167.889: bf16[128], p168.890: bf16[128], p169.891: bf16[128], p170.892: bf16[128,128,3,3], p171.893: bf16[128], p172.894: bf16[128], p173.895: bf16[128], p174.896: bf16[128], p175.897: bf16[128,512,1,1], p176.945: bf16[512], p177.946: bf16[512], p178.947: bf16[512], p179.948: bf16[512], p180.949: bf16[512,128,1,1], p181.950: bf16[128], p182.951: bf16[128], p183.952: bf16[128], p184.953: bf16[128], p185.954: bf16[128,128,3,3], p186.955: bf16[128], p187.956: bf16[128], p188.957: bf16[128], p189.958: bf16[128], p190.959: bf16[128,512,1,1], p191.1019: bf16[1024], p192.1020: bf16[1024], p193.1021: bf16[1024], p194.1022: bf16[1024], p195.1023: bf16[1024,256,1,1], p196.1024: bf16[256], p197.1025: bf16[256], p198.1026: bf16[256], p199.1027: bf16[256], p200.1028: bf16[256,256,3,3], p201.1029: bf16[256], p202.1030: bf16[256], p203.1031: bf16[256], p204.1032: bf16[256], p205.1033: bf16[256,512,1,1], p206.1081: bf16[1024], p207.1082: bf16[1024], p208.1083: bf16[1024], p209.1084: bf16[1024], p210.1085: bf16[1024,256,1,1], p211.1086: bf16[256], p212.1087: bf16[256], p213.1088: bf16[256], p214.1089: bf16[256], p215.1090: bf16[256,256,3,3], p216.1091: bf16[256], p217.1092: bf16[256], p218.1093: bf16[256], p219.1094: bf16[256], p220.1095: bf16[256,1024,1,1], p221.1143: bf16[1024], p222.1144: bf16[1024], p223.1145: bf16[1024], p224.1146: bf16[1024], p225.1147: bf16[1024,256,1,1], p226.1148: bf16[256], p227.1149: bf16[256], p228.1150: bf16[256], p229.1151: bf16[256], p230.1152: bf16[256,256,3,3], p231.1153: bf16[256], p232.1154: bf16[256], p233.1155: bf16[256], p234.1156: bf16[256], p235.1157: bf16[256,1024,1,1], p236.1205: bf16[1024], p237.1206: bf16[1024], p238.1207: bf16[1024], p239.1208: bf16[1024], p240.1209: bf16[1024,256,1,1], p241.1210: bf16[256], p242.1211: bf16[256], p243.1212: bf16[256], p244.1213: bf16[256], p245.1214: bf16[256,256,3,3], p246.1215: bf16[256], p247.1216: bf16[256], p248.1217: bf16[256], p249.1218: bf16[256], p250.1219: bf16[256,1024,1,1], p251.1267: bf16[1024], p252.1268: bf16[1024], p253.1269: bf16[1024], p254.1270: bf16[1024], p255.1271: bf16[1024,256,1,1], p256.1272: bf16[256], p257.1273: bf16[256], p258.1274: bf16[256], p259.1275: bf16[256], p260.1276: bf16[256,256,3,3], p261.1277: bf16[256], p262.1278: bf16[256], p263.1279: bf16[256], p264.1280: bf16[256], p265.1281: bf16[256,1024,1,1], p266.1329: bf16[1024], p267.1330: bf16[1024], p268.1331: bf16[1024], p269.1332: bf16[1024], p270.1333: bf16[1024,256,1,1], p271.1334: bf16[256], p272.1335: bf16[256], p273.1336: bf16[256], p274.1337: bf16[256], p275.1338: bf16[256,256,3,3], p276.1339: bf16[256], p277.1340: bf16[256], p278.1341: bf16[256], p279.1342: bf16[256], p280.1343: bf16[256,1024,1,1], p281.1391: bf16[1024], p282.1392: bf16[1024], p283.1393: bf16[1024], p284.1394: bf16[1024], p285.1395: bf16[1024,256,1,1], p286.1396: bf16[256], p287.1397: bf16[256], p288.1398: bf16[256], p289.1399: bf16[256], p290.1400: bf16[256,256,3,3], p291.1401: bf16[256], p292.1402: bf16[256], p293.1403: bf16[256], p294.1404: bf16[256], p295.1405: bf16[256,1024,1,1], p296.1453: bf16[1024], p297.1454: bf16[1024], p298.1455: bf16[1024], p299.1456: bf16[1024], p300.1457: bf16[1024,256,1,1], p301.1458: bf16[256], p302.1459: bf16[256], p303.1460: bf16[256], p304.1461: bf16[256], p305.1462: bf16[256,256,3,3], p306.1463: bf16[256], p307.1464: bf16[256], p308.1465: bf16[256], p309.1466: bf16[256], p310.1467: bf16[256,1024,1,1], p311.1515: bf16[1024], p312.1516: bf16[1024], p313.1517: bf16[1024], p314.1518: bf16[1024], p315.1519: bf16[1024,256,1,1], p316.1520: bf16[256], p317.1521: bf16[256], p318.1522: bf16[256], p319.1523: bf16[256], p320.1524: bf16[256,256,3,3], p321.1525: bf16[256], p322.1526: bf16[256], p323.1527: bf16[256], p324.1528: bf16[256], p325.1529: bf16[256,1024,1,1], p326.1577: bf16[1024], p327.1578: bf16[1024], p328.1579: bf16[1024], p329.1580: bf16[1024], p330.1581: bf16[1024,256,1,1], p331.1582: bf16[256], p332.1583: bf16[256], p333.1584: bf16[256], p334.1585: bf16[256], p335.1586: bf16[256,256,3,3], p336.1587: bf16[256], p337.1588: bf16[256], p338.1589: bf16[256], p339.1590: bf16[256], p340.1591: bf16[256,1024,1,1], p341.1639: bf16[1024], p342.1640: bf16[1024], p343.1641: bf16[1024], p344.1642: bf16[1024], p345.1643: bf16[1024,256,1,1], p346.1644: bf16[256], p347.1645: bf16[256], p348.1646: bf16[256], p349.1647: bf16[256], p350.1648: bf16[256,256,3,3], p351.1649: bf16[256], p352.1650: bf16[256], p353.1651: bf2019-12-04 19:32:43.138809: E   38714 tensorflow/compiler/xla/xla_client/xla_util.cc:72] 
16[256], p354.1652: bf16[256], p355.1653: bf16[256,1024,1,1], p356.1701: bf16[1024], p357.1702: bf16[1024], p358.1703: bf16[1024], p359.1704: bf16[1024], p360.1705: bf16[1024,256,1,1], p361.1706: bf16[256], p362.1707: bf16[256], p363.1708: bf16[256], p364.1709: bf16[256], p365.1710: bf16[256,256,3,3], p366.1711: bf16[256], p367.1712: bf16[256], p368.1713: bf16[256], p369.1714: bf16[256], p370.1715: bf16[256,1024,1,1], p371.1763: bf16[1024], p372.1764: bf16[1024], p373.1765: bf16[1024], p374.1766: bf16[1024], p375.1767: bf16[1024,256,1,1], p376.1768: bf16[256], p377.1769: bf16[256], p378.1770: bf16[256], p379.1771: bf16[256], p380.1772: bf16[256,256,3,3], p381.1773: bf16[256], p382.1774: bf16[256], p383.1775: bf16[256], p384.1776: bf16[256], p385.1777: bf16[256,1024,1,1], p386.1825: bf16[1024], p387.1826: bf16[1024], p388.1827: bf16[1024], p389.1828: bf16[1024], p390.1829: bf16[1024,256,1,1], p391.1830: bf16[256], p392.1831: bf16[256], p393.1832: bf16[256], p394.1833: bf16[256], p395.1834: bf16[256,256,3,3], p396.1835: bf16[256], p397.1836: bf16[256], p398.1837: bf16[256], p399.1838: bf16[256], p400.1839: bf16[256,1024,1,1], p401.1887: bf16[1024], p402.1888: bf16[1024], p403.1889: bf16[1024], p404.1890: bf16[1024], p405.1891: bf16[1024,256,1,1], p406.1892: bf16[256], p407.1893: bf16[256], p408.1894: bf16[256], p409.1895: bf16[256], p410.1896: bf16[256,256,3,3], p411.1897: bf16[256], p412.1898: bf16[256], p413.1899: bf16[256], p414.1900: bf16[256], p415.1901: bf16[256,1024,1,1], p416.1949: bf16[1024], p417.1950: bf16[1024], p418.1951: bf16[1024], p419.1952: bf16[1024], p420.1953: bf16[1024,256,1,1], p421.1954: bf16[256], p422.1955: bf16[256], p423.1956: bf16[256], p424.1957: bf16[256], p425.1958: bf16[256,256,3,3], p426.1959: bf16[256], p427.1960: bf16[256], p428.1961: bf16[256], p429.1962: bf16[256], p430.1963: bf16[256,1024,1,1], p431.2011: bf16[1024], p432.2012: bf16[1024], p433.2013: bf16[1024], p434.2014: bf16[1024], p435.2015: bf16[1024,256,1,1], p436.2016: bf16[256], p437.2017: bf16[256], p438.2018: bf16[256], p439.2019: bf16[256], p440.2020: bf16[256,256,3,3], p441.2021: bf16[256], p442.2022: bf16[256], p443.2023: bf16[256], p444.2024: bf16[256], p445.2025: bf16[256,1024,1,1], p446.2073: bf16[1024], p447.2074: bf16[1024], p448.2075: bf16[1024], p449.2076: bf16[1024], p450.2077: bf16[1024,256,1,1], p451.2078: bf16[256], p452.2079: bf16[256], p453.2080: bf16[256], p454.2081: bf16[256], p455.2082: bf16[256,256,3,3], p456.2083: bf16[256], p457.2084: bf16[256], p458.2085: bf16[256], p459.2086: bf16[256], p460.2087: bf16[256,1024,1,1], p461.2135: bf16[1024], p462.2136: bf16[1024], p463.2137: bf16[1024], p464.2138: bf16[1024], p465.2139: bf16[1024,256,1,1], p466.2140: bf16[256], p467.2141: bf16[256], p468.2142: bf16[256], p469.2143: bf16[256], p470.2144: bf16[256,256,3,3], p471.2145: bf16[256], p472.2146: bf16[256], p473.2147: bf16[256], p474.2148: bf16[256], p475.2149: bf16[256,1024,1,1], p476.2197: bf16[1024], p477.2198: bf16[1024], p478.2199: bf16[1024], p479.2200: bf16[1024], p480.2201: bf16[1024,256,1,1], p481.2202: bf16[256], p482.2203: bf16[256], p483.2204: bf16[256], p484.2205: bf16[256], p485.2206: bf16[256,256,3,3], p486.2207: bf16[256], p487.2208: bf16[256], p488.2209: bf16[256], p489.2210: bf16[256], p490.2211: bf16[256,1024,1,1], p491.2259: bf16[1024], p492.2260: bf16[1024], p493.2261: bf16[1024], p494.2262: bf16[1024], p495.2263: bf16[1024,256,1,1], p496.2264: bf16[256], p497.2265: bf16[256], p498.2266: bf16[256], p499.2267: bf16[256], p500.2268: bf16[256,256,3,3], p501.2269: bf16[256], p502.2270: bf16[256], p503.2271: bf16[256], p504.2272: bf16[256], p505.2273: bf16[256,1024,1,1], p506.2321: bf16[1024], p507.2322: bf16[1024], p508.2323: bf16[1024], p509.2324: bf16[1024], p510.2325: bf16[1024,256,1,1], p511.2326: bf16[256], p512.2327: bf16[256], p513.2328: bf16[256], p514.2329: bf16[256], p515.2330: bf16[256,256,3,3], p516.2331: bf16[256], p517.2332: bf16[256], p518.2333: bf16[256], p519.2334: bf16[256], p520.2335: bf16[256,1024,1,1], p521.2383: bf16[1024], p522.2384: bf16[1024], p523.2385: bf16[1024], p524.2386: bf16[1024], p525.2387: bf16[1024,256,1,1], p526.2388: bf16[256], p527.2389: bf16[256], p528.2390: bf16[256], p529.2391: bf16[256], p530.2392: bf16[256,256,3,3], p531.2393: bf16[256], p532.2394: bf16[256], p533.2395: bf16[256], p534.2396: bf16[256], p535.2397: bf16[256,1024,1,1], p536.2445: bf16[1024], p537.2446: bf16[1024], p538.2447: bf16[1024], p539.2448: bf16[1024], p540.2449: bf16[1024,256,1,1], p541.2450: bf16[256], p542.2451: bf16[256], p543.2452: bf16[256], p544.2453: bf16[256], p545.2454: bf16[256,256,3,3], p546.2455: bf16[256], p547.2456: bf16[256], p548.2457: bf16[256], p549.2458: bf16[256], p550.2459: bf16[256,1024,1,1], p551.2507: bf16[1024], p552.2508: bf16[1024], p553.2509: bf16[1024], p554.2510: bf16[1024], p555.2511: bf16[1024,256,1,1], p556.2512: bf16[256], p557.2513: bf16[256], p558.2514: bf16[256], p559.2515: bf16[256], p560.2516: bf16[256,256,3,3], p561.2517: bf16[256], p562.2518: bf16[256], p563.2519: bf16[256], p564.2520: bf16[256], p565.2521: bf16[256,1024,1,1], p566.2569: bf16[1024], p567.2570: bf16[1024], p568.2571: bf16[1024], p569.2572: bf16[1024], p570.2573: bf16[1024,256,1,1], p571.2574: bf16[256], p572.2575: bf16[256], p573.2576: bf16[256], p574.2577: bf16[256], p575.2578: bf16[256,256,3,3], p576.2579: bf16[256], p577.2580: bf16[256], p578.2581: bf16[256], p579.2582: bf16[256], p580.2583: bf16[256,1024,1,1], p581.2631: bf16[1024], p582.2632: bf16[1024], p583.2633: bf16[1024], p584.2634: bf16[1024], p585.2635: bf16[1024,256,1,1], p586.2636: bf16[256], p587.2637: bf16[256], p588.2638: bf16[256], p589.2639: bf16[256], p590.2640: bf16[256,256,3,3], p591.2641: bf16[256], p592.2642: bf16[256], p593.2643: bf16[256], p594.2644: bf16[256], p595.2645: bf16[256,1024,1,1], p596.2693: bf16[1024], p597.2694: bf16[1024], p598.2695: bf16[1024], p599.2696: bf16[1024], p600.2697: bf16[1024,256,1,1], p601.2698: bf16[256], p602.2699: bf16[256], p603.2700: bf16[256], p604.2701: bf16[256], p605.2702: bf16[256,256,3,3], p606.2703: bf16[256], p607.2704: bf16[256], p608.2705: bf16[256], p609.2706: bf16[256], p610.2707: bf16[256,1024,1,1], p611.2755: bf16[1024], p612.2756: bf16[1024], p613.2757: bf16[1024], p614.2758: bf16[1024], p615.2759: bf16[1024,256,1,1], p616.2760: bf16[256], p617.2761: bf16[256], p618.2762: bf16[256], p619.2763: bf16[256], p620.2764: bf16[256,256,3,3], p621.2765: bf16[256], p622.2766: bf16[256], p623.2767: bf16[256], p624.2768: bf16[256], p625.2769: bf16[256,1024,1,1], p626.2817: bf16[1024], p627.2818: bf16[1024], p628.2819: bf16[1024], p629.2820: bf16[1024], p630.2821: bf16[1024,256,1,1], p631.2822: bf16[256], p632.2823: bf16[256], p633.2824: bf16[256], p634.2825: bf16[256], p635.2826: bf16[256,256,3,3], p636.2827: bf16[256], p637.2828: bf16[256], p638.2829: bf16[256], p639.2830: bf16[256], p640.2831: bf16[256,1024,1,1], p641.2879: bf16[1024], p642.2880: bf16[1024], p643.2881: bf16[1024], p644.2882: bf16[1024], p645.2883: bf16[1024,256,1,1], p646.2884: bf16[256], p647.2885: bf16[256], p648.2886: bf16[256], p649.2887: bf16[256], p650.2888: bf16[256,256,3,3], p651.2889: bf16[256], p652.2890: bf16[256], p653.2891: bf16[256], p654.2892: bf16[256], p655.2893: bf16[256,1024,1,1], p656.2941: bf16[1024], p657.2942: bf16[1024], p658.2943: bf16[1024], p659.2944: bf16[1024], p660.2945: bf16[1024,256,1,1], p661.2946: bf16[256], p662.2947: bf16[256], p663.2948: bf16[256], p664.2949: bf16[256], p665.2950: bf16[256,256,3,3], p666.2951: bf16[256], p667.2952: bf16[256], p668.2953: bf16[256], p669.2954: bf16[256], p670.2955: bf16[256,1024,1,1], p671.3003: bf16[1024], p672.3004: bf16[1024], p673.3005: bf16[1024], p674.3006: bf16[1024], p675.3007: bf16[1024,256,1,1], p676.3008: bf16[256], p677.3009: bf16[256], p678.3010: bf16[256], p679.3011: bf16[256], p680.3012: bf16[256,256,3,3], p681.3013: bf16[256], p682.3014: bf16[256], p683.3015: bf16[256], p684.3016: bf16[256], p685.3017: bf16[256,1024,1,1], p686.3065: bf16[1024], p687.3066: bf16[1024], p688.3067: bf16[1024], p689.3068: bf16[1024], p690.3069: bf16[1024,256,1,1], p691.3070: bf16[256], p692.3071: bf16[256], p693.3072: bf16[256], p694.3073: bf16[256],2019-12-04 19:32:43.138811: E   38524 tensorflow/compiler/xla/xla_client/xla_util.cc:72]   %p31.318 = bf16[64]{0} parameter(31)
2019-12-04 19:32:43.138812: E   38501 tensorflow/compiler/xla/xla_client/xla_util.cc:72]   %get-tuple-element.279 = bf16[512,64,112,112]{3,2,1,0} get-tuple-element((bf16[512,64,112,112]{3,2,1,0}, bf16[64]{0}, bf16[64]{0}) %batch-norm-training.278), index=0
 p695.3074: bf16[256,256,3,3], p696.3075: bf16[256], p697.3076: bf16[256], p698.3077: bf16[256], p699.3078: bf16[256], p700.3079: bf16[256,1024,1,1], p701.3127: bf16[1024], p702.3128: bf16[1024], p703.3129: bf16[1024], p704.3130: bf16[1024], p705.3131: bf16[1024,256,1,1], p706.3132: bf16[256], p707.3133: bf16[256], p708.3134: bf16[256], p709.3135: bf16[256], p710.3136: bf16[256,256,3,3], p711.3137: bf16[256], p712.3138: bf16[256], p713.3139: bf16[256], p714.3140: bf16[256], p715.3141: bf16[256,1024,1,1], p716.3189: bf16[1024], p717.3190: bf16[1024], p718.3191: bf16[1024], p719.3192: bf16[1024], p720.3193: bf16[1024,256,1,1], p721.3194: bf16[256], p722.3195: bf16[256], p723.3196: bf16[256], p724.3197: bf16[256], p725.3198: bf16[256,256,3,3], p726.3199: bf16[256], p727.3200: bf16[256], p728.3201: bf16[256], p729.3202: bf16[256], p730.3203: bf16[256,1024,1,1], p731.3263: bf16[2048], p732.3264: bf16[2048], p733.3265: bf16[2048], p734.3266: bf16[2048], p735.3267: bf16[2048,512,1,1], p736.3268: bf16[512], p737.3269: bf16[512], p738.3270: bf16[512], p739.3271: bf16[512], p740.3272: bf16[512,512,3,3], p741.3273: bf16[512], p742.3274: bf16[512], p743.3275: bf16[512], p744.3276: bf16[512], p745.3277: bf16[512,1024,1,1], p746.3325: bf16[2048], p747.3326: bf16[2048], p748.3327: bf16[2048], p749.3328: bf16[2048], p750.3329: bf16[2048,512,1,1], p751.3330: bf16[512], p752.3331: bf16[512], p753.3332: bf16[512], p754.3333: bf16[512], p755.3334: bf16[512,512,3,3], p756.3335: bf16[512], p757.3336: bf16[512], p758.3337: bf16[512], p759.3338: bf16[512], p760.3339: bf16[512,2048,1,1], p761.3387: bf16[2048], p762.3388: bf16[2048], p763.3389: bf16[2048], p764.3390: bf16[2048], p765.3391: bf16[2048,512,1,1], p766.3392: bf16[512], p767.3393: bf16[512], p768.3394: bf16[512], p769.3395: bf16[512], p770.3396: bf16[512,512,3,3], p771.3397: bf16[512], p772.3398: bf16[512], p773.3399: bf16[512], p774.3400: bf16[512], p775.3401: bf16[512,2048,1,1]) -> (bf16[512,2048,7,7]) {
2019-12-04 19:32:43.138826: E   38524 tensorflow/compiler/xla/xla_client/xla_util.cc:72]   %p32.319 = bf16[64]{0} parameter(32)
2019-12-04 19:32:43.138827: E   38501 tensorflow/compiler/xla/xla_client/xla_util.cc:72]   %constant.289 = bf16[] constant(0)
2019-12-04 19:32:43.138829: E   38586 tensorflow/compiler/xla/xla_client/xla_util.cc:72]   %p0.16 = bf16[2048]{0} parameter(0)
2019-12-04 19:32:43.138837: E   38524 tensorflow/compiler/xla/xla_client/xla_util.cc:72]   %p36.323 = bf16[64]{0} parameter(36)
2019-12-04 19:32:43.138837: E   38586 tensorflow/compiler/xla/xla_client/xla_util.cc:72]   %p1.17 = bf16[2048]{0} parameter(1)
2019-12-04 19:32:43.138837: E   38501 tensorflow/compiler/xla/xla_client/xla_util.cc:72]   %broadcast.290 = bf16[512,64,112,112]{3,2,1,0} broadcast(bf16[] %constant.289), dimensions={}
2019-12-04 19:32:43.138839: E   38714 tensorflow/compiler/xla/xla_client/xla_util.cc:72] ENTRY %SyncTensorsGraph.3449 (p0.16: bf16[2048], p1.17: bf16[2048], p2.18: bf16[2048], p3.19: bf16[2048], p4.20: bf16[2048,1024,1,1], p5.201: bf16[1024], p6.202: bf16[1024], p7.203: bf16[1024], p8.204: bf16[1024], p9.205: bf16[1024,512,1,1], p10.246: bf16[512], p11.247: bf16[512], p12.248: bf16[512], p13.249: bf16[512], p14.250: bf16[512,256,1,1], p15.266: bf16[256], p16.267: bf16[256], p17.268: bf16[256], p18.269: bf16[256], p19.270: bf16[256,64,1,1], p20.271: bf16[64], p21.272: bf16[64], p22.273: bf16[64], p23.274: bf16[64], p24.275: bf16[64,3,7,7], p25.276: bf16[512,3,224,224], p26.313: bf16[256], p27.314: bf16[256], p28.315: bf16[256], p29.316: bf16[256], p30.317: bf16[256,64,1,1], p31.318: bf16[64], p32.319: bf16[64], p33.320: bf16[64], p34.321: bf16[64], p35.322: bf16[64,64,3,3], p36.323: bf16[64], p37.324: bf16[64], p38.325: bf16[64], p39.326: bf16[64], p40.327: bf16[64,64,1,1], p41.375: bf16[256], p42.376: bf16[256], p43.377: bf16[256], p44.378: bf16[256], p45.379: bf16[256,64,1,1], p46.380: bf16[64], p47.381: bf16[64], p48.382: bf16[64], p49.383: bf16[64], p50.384: bf16[64,64,3,3], p51.385: bf16[64], p52.386: bf16[64], p53.387: bf16[64], p54.388: bf16[64], p55.389: bf16[64,256,1,1], p56.437: bf16[256], p57.438: bf16[256], p58.439: bf16[256], p59.440: bf16[256], p60.441: bf16[256,64,1,1], p61.442: bf16[64], p62.443: bf16[64], p63.444: bf16[64], p64.445: bf16[64], p65.446: bf16[64,64,3,3], p66.447: bf16[64], p67.448: bf16[64], p68.449: bf16[64], p69.450: bf16[64], p70.451: bf16[64,256,1,1], p71.511: bf16[512], p72.512: bf16[512], p73.513: bf16[512], p74.514: bf16[512], p75.515: bf16[512,128,1,1], p76.516: bf16[128], p77.517: bf16[128], p78.518: bf16[128], p79.519: bf16[128], p80.520: bf16[128,128,3,3], p81.521: bf16[128], p82.522: bf16[128], p83.523: bf16[128], p84.524: bf16[128], p85.525: bf16[128,256,1,1], p86.573: bf16[512], p87.574: bf16[512], p88.575: bf16[512], p89.576: bf16[512], p90.577: bf16[512,128,1,1], p91.578: bf16[128], p92.579: bf16[128], p93.580: bf16[128], p94.581: bf16[128], p95.582: bf16[128,128,3,3], p96.583: bf16[128], p97.584: bf16[128], p98.585: bf16[128], p99.586: bf16[128], p100.587: bf16[128,512,1,1], p101.635: bf16[512], p102.636: bf16[512], p103.637: bf16[512], p104.638: bf16[512], p105.639: bf16[512,128,1,1], p106.640: bf16[128], p107.641: bf16[128], p108.642: bf16[128], p109.643: bf16[128], p110.644: bf16[128,128,3,3], p111.645: bf16[128], p112.646: bf16[128], p113.647: bf16[128], p114.648: bf16[128], p115.649: bf16[128,512,1,1], p116.697: bf16[512], p117.698: bf16[512], p118.699: bf16[512], p119.700: bf16[512], p120.701: bf16[512,128,1,1], p121.702: bf16[128], p122.703: bf16[128], p123.704: bf16[128], p124.705: bf16[128], p125.706: bf16[128,128,3,3], p126.707: bf16[128], p127.708: bf16[128], p128.709: bf16[128], p129.710: bf16[128], p130.711: bf16[128,512,1,1], p131.759: bf16[512], p132.760: bf16[512], p133.761: bf16[512], p134.762: bf16[512], p135.763: bf16[512,128,1,1], p136.764: bf16[128], p137.765: bf16[128], p138.766: bf16[128], p139.767: bf16[128], p140.768: bf16[128,128,3,3], p141.769: bf16[128], p142.770: bf16[128], p143.771: bf16[128], p144.772: bf16[128], p145.773: bf16[128,512,1,1], p146.821: bf16[512], p147.822: bf16[512], p148.823: bf16[512], p149.824: bf16[512], p150.825: bf16[512,128,1,1], p151.826: bf16[128], p152.827: bf16[128], p153.828: bf16[128], p154.829: bf16[128], p155.830: bf16[128,128,3,3], p156.831: bf16[128], p157.832: bf16[128], p158.833: bf16[128], p159.834: bf16[128], p160.835: bf16[128,512,1,1], p161.883: bf16[512], p162.884: bf16[512], p163.885: bf16[512], p164.886: bf16[512], p165.887: bf16[512,128,1,1], p166.888: bf16[128], p167.889: bf16[128], p168.890: bf16[128], p169.891: bf16[128], p170.892: bf16[128,128,3,3], p171.893: bf16[128], p172.894: bf16[128], p173.895: bf16[128], p174.896: bf16[128], p175.897: bf16[128,512,1,1], p176.945: bf16[512], p177.946: bf16[512], p178.947: bf16[512], p179.948: bf16[512], p180.949: bf16[512,128,1,1], p181.950: bf16[128], p182.951: bf16[128], p183.952: bf16[128], p184.953: bf16[128], p185.954: bf16[128,128,3,3], p186.955: bf16[128], p187.956: bf16[128], p188.957: bf16[128], p189.958: bf16[128], p190.959: bf16[128,512,1,1], p191.1019: bf16[1024], p192.1020: bf16[1024], p193.1021: bf16[1024], p194.1022: bf16[1024], p195.1023: bf16[1024,256,1,1], p196.1024: bf16[256], p197.1025: bf16[256], p198.1026: bf16[256], p199.1027: bf16[256], p200.1028: bf16[256,256,3,3], p201.1029: bf16[256], p202.1030: bf16[256], p203.1031: bf16[256], p204.1032: bf16[256], p205.1033: bf16[256,512,1,1], p206.1081: bf16[1024], p207.1082: bf16[1024], p208.1083: bf16[1024], p209.1084: bf16[1024], p210.1085: bf16[1024,256,1,1], p211.1086: bf16[256], p212.1087: bf16[256], p213.1088: bf16[256], p214.1089: bf16[256], p215.1090: bf16[256,256,3,3], p216.1091: bf16[256], p217.1092: bf16[256], p218.1093: bf16[256], p219.1094: bf16[256], p220.1095: bf16[256,1024,1,1], p221.1143: bf16[1024], p222.1144: bf16[1024], p223.1145: bf16[1024], p224.1146: bf16[1024], p225.1147: bf16[1024,256,1,1], p226.1148: bf16[256], p227.1149: bf16[256], p228.1150: bf16[256], p229.1151: bf16[256], p230.1152: bf16[256,256,3,3], p231.1153: bf16[256], p232.1154: bf16[256], p233.1155: bf16[256], p234.1156: bf16[256], p235.1157: bf16[256,1024,1,1], p236.1205: bf16[1024], p237.1206: bf16[1024], p238.1207: bf16[1024], p239.1208: bf16[1024], p240.1209: bf16[1024,256,1,1], p241.1210: bf16[256], p242.1211: bf16[256], p243.1212: bf16[256], p244.1213: bf16[256], p245.1214: bf16[256,256,3,3], p246.1215: bf16[256], p247.1216: bf16[256], p248.1217: bf16[256], p249.1218: bf16[256], p250.1219: bf16[256,1024,1,1], p251.1267: bf16[1024], p252.1268: bf16[1024], p253.1269: bf16[1024], p254.1270: bf16[1024], p255.1271: bf16[1024,256,1,1], p256.1272: bf16[256], p257.1273: bf16[256], p258.1274: bf16[256], p259.1275: bf16[256], p260.1276: bf16[256,256,3,3], p261.1277: bf16[256], p262.1278: bf16[256], p263.1279: bf16[256], p264.1280: bf16[256], p265.1281: bf16[256,1024,1,1], p266.1329: bf16[1024], p267.1330: bf16[1024], p268.1331: bf16[1024], p269.1332: bf16[1024], p270.1333: bf16[1024,256,1,1], p271.1334: bf16[256], p272.1335: bf16[256], p273.1336: bf16[256], p274.1337: bf16[256], p275.1338: bf16[256,256,3,3], p276.1339: bf16[256], p277.1340: bf16[256], p278.1341: bf16[256], p279.1342: bf16[256], p280.1343: bf16[256,1024,1,1], p281.1391: bf16[1024], p282.1392: bf16[1024], p283.1393: bf16[1024], p284.1394: bf16[1024], p285.1395: bf16[1024,256,1,1], p286.1396: bf16[256], p287.1397: bf16[256], p288.1398: bf16[256], p289.1399: bf16[256], p290.1400: bf16[256,256,3,3], p291.1401: bf16[256], p292.1402: bf16[256], p293.1403: bf16[256], p294.1404: bf16[256], p295.1405: bf16[256,1024,1,1], p296.1453: bf16[1024], p297.1454: bf16[1024], p298.1455: bf16[1024], p299.1456: bf16[1024], p300.1457: bf16[1024,256,1,1], p301.1458: bf16[256], p302.1459: bf16[256], p303.1460: bf16[256], p304.1461: bf16[256], p305.1462: bf16[256,256,3,3], p306.1463: bf16[256], p307.1464: bf16[256], p308.1465: bf16[256], p309.1466: bf16[256], p310.1467: bf16[256,1024,1,1], p311.1515: bf16[1024], p312.1516: bf16[1024], p313.1517: bf16[1024], p314.1518: bf16[1024], p315.1519: bf16[1024,256,1,1], p316.1520: bf16[256], p317.1521: bf16[256], p318.1522: bf16[256], p319.1523: bf16[256], p320.1524: bf16[256,256,3,3], p321.1525: bf16[256], p322.1526: bf16[256], p323.1527: bf16[256], p324.1528: bf16[256], p325.1529: bf16[256,1024,1,1], p326.1577: bf16[1024], p327.1578: bf16[1024], p328.1579: bf16[1024], p329.1580: bf16[1024], p330.1581: bf16[1024,256,1,1], p331.1582: bf16[256], p332.1583: bf16[256], p333.1584: bf16[256], p334.1585: bf16[256], p335.1586: bf16[256,256,3,3], p336.1587: bf16[256], p337.1588: bf16[256], p338.1589: bf16[256], p339.1590: bf16[256], p340.1591: bf16[256,1024,1,1], p341.1639: bf16[1024], p342.1640: bf16[1024], p343.1641: bf16[1024], p344.1642: bf16[1024], p345.1643: bf16[1024,256,1,1], p346.1644: bf16[256], p347.1645: bf16[256], p348.1646: bf16[256], p349.1647: bf16[256], p350.1648: bf16[256,256,3,3], p351.1649: bf16[256], p352.1650: bf16[256], p353.1651: bf16[256], p354.1652: bf16[256], p355.1653: bf16[256,1024,1,1], p356.1701: bf16[1024], p357.1702: bf16[1024], p358.1703: bf16[1024], p359.1704: bf16[1024], p360.1705: bf16[1024,256,1,1], p361.1706: bf16[256], p362.1707: bf16[256], p363.1708: bf16[256], p364.1709: bf16[256], p365.1710: bf16[256,256,3,3], p366.1711: bf16[256], p367.1712: bf16[256], p368.1713: bf16[256], p369.1714: bf16[256], p370.1715: bf16[256,1024,1,1], p371.1763: bf16[1024], p372.1764: bf16[1024], p373.1765: bf16[1024], p374.1766: bf16[1024], p375.1767: bf16[1024,256,1,1], p376.1768: bf16[256], p377.1769: bf16[256], p378.1770: bf16[256], p379.1771: bf16[256], p380.1772: bf16[256,256,3,3], p381.1773: bf16[256], p382.1774: bf16[256], p383.1775: bf16[256], p384.1776: bf16[256], p385.1777: bf16[256,1024,1,1], p386.1825: bf16[1024], p387.1826: bf16[1024], p388.1827: bf16[1024], p389.1828: bf16[1024], p390.1829: bf16[1024,256,1,1], p391.1830: bf16[256], p392.1831: bf16[256], p393.1832: bf16[256], p394.1833: bf16[256], p395.1834: bf16[256,256,3,3], p396.1835: bf16[256], p397.1836: bf16[256], p398.1837: bf16[256], p399.1838: bf16[256], p400.1839: bf16[256,1024,1,1], p401.1887: bf16[1024], p402.1888: bf16[1024], p403.1889: bf16[1024], p404.1890: bf16[1024], p405.1891: bf16[1024,256,1,1], p406.1892: bf16[256], p407.1893: bf16[256], p408.1894: bf16[256], p409.1895: bf16[256], p410.1896: bf16[256,256,3,3], p411.1897: bf16[256], p412.1898: bf16[256], p413.1899: bf16[256], p414.1900: bf16[256], p415.1901: bf16[256,1024,1,1], p416.1949: bf16[1024], p417.1950: bf16[1024], p418.1951: bf16[1024], p419.1952: bf16[1024], p420.1953: bf16[1024,256,1,1], p421.1954: bf16[256], p422.1955: bf16[256], p423.1956: bf16[256], p424.1957: bf16[256], p425.1958: bf16[256,256,3,3], p426.1959: bf16[256], p427.1960: bf16[256], p428.1961: bf16[256], p429.1962: bf16[256], p430.1963: bf16[256,1024,1,1], p431.2011: bf16[1024], p432.2012: bf16[1024], p433.2013: bf16[1024], p434.2014: bf16[1024], p435.2015: bf16[1024,256,1,1], p436.2016: bf16[256], p437.2017: bf16[256], p438.2018: bf16[256], p439.2019: bf16[256], p440.2020: bf16[256,256,3,3], p441.2021: bf16[256], p442.2022: bf16[256], p443.2023: bf16[256], p444.2024: bf16[256], p445.2025: bf16[256,1024,1,1], p446.2073: bf16[1024], p447.2074: bf16[1024], p448.2075: bf16[1024], p449.2076: bf16[1024], p450.2077: bf16[1024,256,1,1], p451.2078: bf16[256], p452.2079: bf16[256], p453.2080: bf16[256], p454.2081: bf16[256], p455.2082: bf16[256,256,3,3], p456.2083: bf16[256], p457.2084: bf16[256], p458.2085: bf16[256], p459.2086: bf16[256], p460.2087: bf16[256,1024,1,1], p461.2135: bf16[1024], p462.2136: bf16[1024], p463.2137: bf16[1024], p464.2138: bf16[1024], p465.2139: bf16[1024,256,1,1], p466.2140: bf16[256], p467.2141: bf16[256], p468.2142: bf16[256], p469.2143: bf16[256], p470.2144: bf16[256,256,3,3], p471.2145: bf16[256], p472.2146: bf16[256], p473.2147: bf16[256], p474.2148: bf16[256], p475.2149: bf16[256,1024,1,1], p476.2197: bf16[1024], p477.2198: bf16[1024], p478.2199: bf16[1024], p479.2200: bf16[1024], p480.2201: bf16[1024,256,1,1], p481.2202: bf16[256], p482.2203: bf16[256], p483.2204: bf16[256], p484.2205: bf16[256], p485.2206: bf16[256,256,3,3], p486.2207: bf16[256], p487.2208: bf16[256], p488.2209: bf16[256], p489.2210: bf16[256], p490.2211: bf16[256,1024,1,1], p491.2259: bf16[1024], p492.2260: bf16[1024], p493.2261: bf16[1024], p494.2262: bf16[1024], p495.2263: bf16[1024,256,1,1], p496.2264: bf16[256], p497.2265: bf16[256], p498.2266: bf16[256], p499.2267: bf16[256], p500.2268: bf16[256,256,3,3], p501.2269: bf16[256], p502.2270: bf16[256], p503.2271: bf16[256], p504.2272: bf16[256], p505.2273: bf16[256,1024,1,1], p506.2321: bf16[1024], p507.2322: bf16[1024], p508.2323: bf16[1024], p509.2324: bf16[1024], p510.2325: bf16[1024,256,1,1], p511.2326: bf16[256], p512.2327: bf16[256], p513.2328: bf16[256], p514.2329: bf16[256], p515.2330: bf16[256,256,3,3], p516.2331: bf16[256], p517.2332: bf16[256], p518.2333: bf16[256], p519.2334: bf16[256], p520.2335: bf16[256,1024,1,1], p521.2383: bf16[1024], p522.2384: bf16[1024], p523.2385: bf16[1024], p524.2386: bf16[1024], p525.2387: bf16[1024,256,1,1], p526.2388: bf16[256], p527.2389: bf16[256], p528.2390: bf16[256], p529.2391: bf16[256], p530.2392: bf16[256,256,3,3], p531.2393: bf16[256], p532.2394: bf16[256], p533.2395: bf16[256], p534.2396: bf16[256], p535.2397: bf16[256,1024,1,1], p536.2445: bf16[1024], p537.2446: bf16[1024], p538.2447: bf16[1024], p539.2448: bf16[1024], p540.2449: bf16[1024,256,1,1], p541.2450: bf16[256], p542.2451: bf16[256], p543.2452: bf16[256], p544.2453: bf16[256], p545.2454: bf16[256,256,3,3], p546.2455: bf16[256], p547.2456: bf16[256], p548.2457: bf16[256], p549.2458: bf16[256], p550.2459: bf16[256,1024,1,1], p551.2507: bf16[1024], p552.2508: bf16[1024], p553.2509: bf16[1024], p554.2510: bf16[1024], p555.2511: bf16[1024,256,1,1], p556.2512: bf16[256], p557.2513: bf16[256], p558.2514: bf16[256], p559.2515: bf16[256], p560.2516: bf16[256,256,3,3], p561.2517: bf16[256], p562.2518: bf16[256], p563.2519: bf16[256], p564.2520: bf16[256], p565.2521: bf16[256,1024,1,1], p566.2569: bf16[1024], p567.2570: bf16[1024], p568.2571: bf16[1024], p569.2572: bf16[1024], p570.2573: bf16[1024,256,1,1], p571.2574: bf16[256], p572.2575: bf16[256], p573.2576: bf16[256], p574.2577: bf16[256], p575.2578: bf16[256,256,3,3], p576.2579: bf16[256], p577.2580: bf16[256], p578.2581: bf16[256], p579.2582: bf16[256], p580.2583: bf16[256,1024,1,1], p581.2631: bf16[1024], p582.2632: bf16[1024], p583.2633: bf16[1024], p584.2634: bf16[1024], p585.2635: bf16[1024,256,1,1], p586.2636: bf16[256], p587.2637: bf16[256], p588.2638: bf16[256], p589.2639: bf16[256], p590.2640: bf16[256,256,3,3], p591.2641: bf16[256], p592.2642: bf16[256], p593.2643: bf16[256], p594.2644: bf16[256], p595.2645: bf16[256,1024,1,1], p596.2693: bf16[1024], p597.2694: bf16[1024], p598.2695: bf16[1024], p599.2696: bf16[1024], p600.2697: bf16[1024,256,1,1], p601.2698: bf16[256], p602.2699: bf16[256], p603.2700: bf16[256], p604.2701: bf16[256], p605.2702: bf16[256,256,3,3], p606.2703: bf16[256], p607.2704: bf16[256], p608.2705: bf16[256], p609.2706: bf16[256], p610.2707: bf16[256,1024,1,1], p611.2755: bf16[1024], p612.2756: bf16[1024], p613.2757: bf16[1024], p614.2758: bf16[1024], p615.2759: bf16[1024,256,1,1], p616.2760: bf16[256], p617.2761: bf16[256], p618.2762: bf16[256], p619.2763: bf16[256], p620.2764: bf16[256,256,3,3], p621.2765: bf16[256], p622.2766: bf16[256], p623.2767: bf16[256], p624.2768: bf16[256], p625.2769: bf16[256,1024,1,1], p626.2817: bf16[1024], p627.2818: bf16[1024], p628.2819: bf16[1024], p629.2820: bf16[1024], p630.2821: bf16[1024,256,1,1], p631.2822: bf16[256], p632.2823: bf16[256], p633.2824: bf16[256], p634.2825: bf16[256], p635.2826: bf16[256,256,3,3], p636.2827: bf16[256], p637.2828: bf16[256], p638.2829: bf16[256], p639.2830: bf16[256], p640.2831: bf16[256,1024,1,1], p641.2879: bf16[1024], p642.2880: bf16[1024], p643.2881: bf16[1024], p644.2882: bf16[1024], p645.2883: bf16[1024,256,1,1], p646.2884: bf16[256], p647.2885: bf16[256], p648.2886: bf16[256], p649.2887: bf16[256], p650.2888: bf16[256,256,3,3], p651.2889: bf16[256], p652.2890: bf16[256], p653.2891: bf16[256], p654.2892: bf16[256], p655.2893: bf16[256,1024,1,1], p656.2941: bf16[1024], p657.2942: bf16[1024], p658.2943: bf16[1024], p659.2944: bf16[1024], p660.2945: bf16[1024,256,1,1], p661.2946: bf16[256], p662.2947: bf16[256], p663.2948: bf16[256], p664.2949: bf16[256], p665.2950: bf16[256,256,3,3], p666.2951: bf16[256], p667.2952: bf16[256], p668.2953: bf16[256], p669.2954: bf16[256], p670.2955: bf16[256,1024,1,1], p671.3003: bf16[1024], p672.3004: bf16[1024], p673.3005: bf16[1024], p674.3006: bf16[1024], p675.3007: bf16[1024,256,1,1], p676.3008: bf16[256], p677.3009: bf16[256], p678.3010: bf16[256], p679.3011: bf16[256], p680.3012: bf16[256,256,3,3], p681.3013: bf16[256], p682.3014: bf16[256], p683.3015: bf16[256], p684.3016: bf16[256], p685.3017: bf16[256,1024,1,1], p686.3065: bf16[1024], p687.3066: bf16[1024], p688.3067: bf16[1024], p689.3068: bf16[1024], p690.3069: bf16[1024,256,1,1], p691.3070: bf16[256], p692.3071: bf16[256], p693.3072: bf16[256], p694.3073: bf16[256],2019-12-04 19:32:43.138847: E   38586 tensorflow/compiler/xla/xla_client/xla_util.cc:72]   %p5.201 = bf16[1024]{0} parameter(5)
 p695.3074: bf16[256,256,3,3], p696.3075: bf16[256], p697.3076: bf16[256], p698.3077: bf16[256], p699.3078: bf16[256], p700.3079: bf16[256,1024,1,1], p701.3127: bf16[1024], p702.3128: bf16[1024], p703.3129: bf16[1024], p704.3130: bf16[1024], p705.3131: bf16[1024,256,1,1], p706.3132: bf16[256], p707.3133: bf16[256], p708.3134: bf16[256], p709.3135: bf16[256], p710.3136: bf16[256,256,3,3], p711.3137: bf16[256], p712.3138: bf16[256], p713.3139: bf16[256], p714.3140: bf16[256], p715.3141: bf16[256,1024,1,1], p716.3189: bf16[1024], p717.3190: bf16[1024], p718.3191: bf16[1024], p719.3192: bf16[1024], p720.3193: bf16[1024,256,1,1], p721.3194: bf16[256], p722.3195: bf16[256], p723.3196: bf16[256], p724.3197: bf16[256], p725.3198: bf16[256,256,3,3], p726.3199: bf16[256], p727.3200: bf16[256], p728.3201: bf16[256], p729.3202: bf16[256], p730.3203: bf16[256,1024,1,1], p731.3263: bf16[2048], p732.3264: bf16[2048], p733.3265: bf16[2048], p734.3266: bf16[2048], p735.3267: bf16[2048,512,1,1], p736.3268: bf16[512], p737.3269: bf16[512], p738.3270: bf16[512], p739.3271: bf16[512], p740.3272: bf16[512,512,3,3], p741.3273: bf16[512], p742.3274: bf16[512], p743.3275: bf16[512], p744.3276: bf16[512], p745.3277: bf16[512,1024,1,1], p746.3325: bf16[2048], p747.3326: bf16[2048], p748.3327: bf16[2048], p749.3328: bf16[2048], p750.3329: bf16[2048,512,1,1], p751.3330: bf16[512], p752.3331: bf16[512], p753.3332: bf16[512], p754.3333: bf16[512], p755.3334: bf16[512,512,3,3], p756.3335: bf16[512], p757.3336: bf16[512], p758.3337: bf16[512], p759.3338: bf16[512], p760.3339: bf16[512,2048,1,1], p761.3387: bf16[2048], p762.3388: bf16[2048], p763.3389: bf16[2048], p764.3390: bf16[2048], p765.3391: bf16[2048,512,1,1], p766.3392: bf16[512], p767.3393: bf16[512], p768.3394: bf16[512], p769.3395: bf16[512], p770.3396: bf16[512,512,3,3], p771.3397: bf16[512], p772.3398: bf16[512], p773.3399: bf16[512], p774.3400: bf16[512], p775.3401: bf16[512,2048,1,1]) -> (bf16[512,2048,7,7]) {
2019-12-04 19:32:43.138848: E   38524 tensorflow/compiler/xla/xla_client/xla_util.cc:72]   %p37.324 = bf16[64]{0} parameter(37)
2019-12-04 19:32:43.138848: E   38501 tensorflow/compiler/xla/xla_client/xla_util.cc:72]   %maximum.291 = bf16[512,64,112,112]{3,2,1,0} maximum(bf16[512,64,112,112]{3,2,1,0} %get-tuple-element.279, bf16[512,64,112,112]{3,2,1,0} %broadcast.290)
2019-12-04 19:32:43.138857: E   38586 tensorflow/compiler/xla/xla_client/xla_util.cc:72]   %p6.202 = bf16[1024]{0} parameter(6)
2019-12-04 19:32:43.138859: E   38714 tensorflow/compiler/xla/xla_client/xla_util.cc:72]   %p0.16 = bf16[2048]{0} parameter(0)
2019-12-04 19:32:43.138860: E   38524 tensorflow/compiler/xla/xla_client/xla_util.cc:72]   %p40.327 = bf16[64,64,1,1]{1,0,3,2} parameter(40)
2019-12-04 19:32:43.138860: E   38501 tensorflow/compiler/xla/xla_client/xla_util.cc:72]   %constant.292 = bf16[] constant(-inf)
2019-12-04 19:32:43.138865: E   38586 tensorflow/compiler/xla/xla_client/xla_util.cc:72]   %p10.246 = bf16[512]{0} parameter(10)
2019-12-04 19:32:43.138867: E   38714 tensorflow/compiler/xla/xla_client/xla_util.cc:72]   %p1.17 = bf16[2048]{0} parameter(1)
2019-12-04 19:32:43.138868: E   38524 tensorflow/compiler/xla/xla_client/xla_util.cc:72]   %convolution.328 = bf16[512,64,56,56]{3,2,1,0} convolution(bf16[512,64,56,56]{3,2,1,0} %reduce-window.299, bf16[64,64,1,1]{1,0,3,2} %p40.327), window={size=1x1}, dim_labels=bf01_oi01->bf01
2019-12-04 19:32:43.138869: E   38501 tensorflow/compiler/xla/xla_client/xla_util.cc:72]   %pad.293 = bf16[512,64,114,114]{3,2,1,0} pad(bf16[512,64,112,112]{3,2,1,0} %maximum.291, bf16[] %constant.292), padding=0_0x0_0x1_1x1_1
2019-12-04 19:32:43.138874: E   38586 tensorflow/compiler/xla/xla_client/xla_util.cc:72]   %p11.247 = bf16[512]{0} parameter(11)
2019-12-04 19:32:43.138875: E   38714 tensorflow/compiler/xla/xla_client/xla_util.cc:72]   %p5.201 = bf16[1024]{0} parameter(5)
2019-12-04 19:32:43.138877: E   38524 tensorflow/compiler/xla/xla_client/xla_util.cc:72]   %p39.326 = bf16[64]{0} parameter(39)
2019-12-04 19:32:43.138879: E   38501 tensorflow/compiler/xla/xla_client/xla_util.cc:72]   %constant.294 = bf16[] constant(-inf)
2019-12-04 19:32:43.138882: E   38586 tensorflow/compiler/xla/xla_client/xla_util.cc:72]   %p15.266 = bf16[256]{0} parameter(15)
2019-12-04 19:32:43.138882: E   38714 tensorflow/compiler/xla/xla_client/xla_util.cc:72]   %p6.202 = bf16[1024]{0} parameter(6)
2019-12-04 19:32:43.138886: E   38524 tensorflow/compiler/xla/xla_client/xla_util.cc:72]   %p38.325 = bf16[64]{0} parameter(38)
2019-12-04 19:32:43.138888: E   38501 tensorflow/compiler/xla/xla_client/xla_util.cc:72]   %reduce-window.299 = bf16[512,64,56,56]{3,2,1,0} reduce-window(bf16[512,64,114,114]{3,2,1,0} %pad.293, bf16[] %constant.294), window={size=1x1x3x3 stride=1x1x2x2}, to_apply=%max_BF16.295
2019-12-04 19:32:43.138890: E   38586 tensorflow/compiler/xla/xla_client/xla_util.cc:72]   %p16.267 = bf16[256]{0} parameter(16)
2019-12-04 19:32:43.138890: E   38714 tensorflow/compiler/xla/xla_client/xla_util.cc:72]   %p10.246 = bf16[512]{0} parameter(10)
2019-12-04 19:32:43.138897: E   38524 tensorflow/compiler/xla/xla_client/xla_util.cc:72]   %batch-norm-training.329 = (bf16[512,64,56,56]{3,2,1,0}, bf16[64]{0}, bf16[64]{0}) batch-norm-training(bf16[512,64,56,56]{3,2,1,0} %convolution.328, bf16[64]{0} %p39.326, bf16[64]{0} %p38.325), epsilon=1e-05, feature_index=1
2019-12-04 19:32:43.138899: E   38586 tensorflow/compiler/xla/xla_client/xla_util.cc:72]   %p20.271 = bf16[64]{0} parameter(20)
2019-12-04 19:32:43.138899: E   38501 tensorflow/compiler/xla/xla_client/xla_util.cc:72]   %p19.270 = bf16[256,64,1,1]{0,1,3,2} parameter(19)
2019-12-04 19:32:43.138899: E   38714 tensorflow/compiler/xla/xla_client/xla_util.cc:72]   %p11.247 = bf16[512]{0} parameter(11)
2019-12-04 19:32:43.138906: E   38524 tensorflow/compiler/xla/xla_client/xla_util.cc:72]   %get-tuple-element.331 = bf16[64]{0} get-tuple-element((bf16[512,64,56,56]{3,2,1,0}, bf16[64]{0}, bf16[64]{0}) %batch-norm-training.329), index=1
2019-12-04 19:32:43.138907: E   38586 tensorflow/compiler/xla/xla_client/xla_util.cc:72]   %p21.272 = bf16[64]{0} parameter(21)
2019-12-04 19:32:43.138908: E   38501 tensorflow/compiler/xla/xla_client/xla_util.cc:72]   %convolution.300 = bf16[512,256,56,56]{3,2,1,0} convolution(bf16[512,64,56,56]{3,2,1,0} %reduce-window.299, bf16[256,64,1,1]{0,1,3,2} %p19.270), window={size=1x1}, dim_labels=bf01_oi01->bf01
2019-12-04 19:32:43.138908: E   38714 tensorflow/compiler/xla/xla_client/xla_util.cc:72]   %p15.266 = bf16[256]{0} parameter(15)
2019-12-04 19:32:43.138917: E   38714 tensorflow/compiler/xla/xla_client/xla_util.cc:72]   %p16.267 = bf16[256]{0} parameter(16)
2019-12-04 19:32:43.138916: E   38586 tensorflow/compiler/xla/xla_client/xla_util.cc:72]   %p25.276 = bf16[512,3,224,224]{3,2,1,0} parameter(25)
2019-12-04 19:32:43.138916: E   38524 tensorflow/compiler/xla/xla_client/xla_util.cc:72]   %constant.334 = bf16[] constant(1)
2019-12-04 19:32:43.138917: E   38501 tensorflow/compiler/xla/xla_client/xla_util.cc:72]   %p18.269 = bf16[256]{0} parameter(18)
2019-12-04 19:32:43.138925: E   38714 tensorflow/compiler/xla/xla_client/xla_util.cc:72]   %p20.271 = bf16[64]{0} parameter(20)
2019-12-04 19:32:43.138925: E   38586 tensorflow/compiler/xla/xla_client/xla_util.cc:72]   %p24.275 = bf16[64,3,7,7]{0,3,2,1} parameter(24)
2019-12-04 19:32:43.138928: E   38501 tensorflow/compiler/xla/xla_client/xla_util.cc:72]   %p17.268 = bf16[256]{0} parameter(17)
2019-12-04 19:32:43.138929: E   38524 tensorflow/compiler/xla/xla_client/xla_util.cc:72]   %broadcast.338 = bf16[64]{0} broadcast(bf16[] %constant.334), dimensions={}
2019-12-04 19:32:43.138933: E   38714 tensorflow/compiler/xla/xla_client/xla_util.cc:72]   %p21.272 = bf16[64]{0} parameter(21)
2019-12-04 19:32:43.138934: E   38586 tensorflow/compiler/xla/xla_client/xla_util.cc:72]   %convolution.277 = bf16[512,64,112,112]{3,2,1,0} convolution(bf16[512,3,224,224]{3,2,1,0} %p25.276, bf16[64,3,7,7]{0,3,2,1} %p24.275), window={size=7x7 stride=2x2 pad=3_3x3_3}, dim_labels=bf01_oi01->bf01
2019-12-04 19:32:43.138937: E   38501 tensorflow/compiler/xla/xla_client/xla_util.cc:72]   %batch-norm-training.301 = (bf16[512,256,56,56]{3,2,1,0}, bf16[256]{0}, bf16[256]{0}) batch-norm-training(bf16[512,256,56,56]{3,2,1,0} %convolution.300, bf16[256]{0} %p18.269, bf16[256]{0} %p17.268), epsilon=1e-05, feature_index=1
2019-12-04 19:32:43.138938: E   38524 tensorflow/compiler/xla/xla_client/xla_util.cc:72]   %get-tuple-element.332 = bf16[64]{0} get-tuple-element((bf16[512,64,56,56]{3,2,1,0}, bf16[64]{0}, bf16[64]{0}) %batch-norm-training.329), index=2
2019-12-04 19:32:43.138941: E   38714 tensorflow/compiler/xla/xla_client/xla_util.cc:72]   %p25.276 = bf16[512,3,224,224]{3,2,1,0} parameter(25)
2019-12-04 19:32:43.138942: E   38586 tensorflow/compiler/xla/xla_client/xla_util.cc:72]   %p23.274 = bf16[64]{0} parameter(23)
2019-12-04 19:32:43.138946: E   38501 tensorflow/compiler/xla/xla_client/xla_util.cc:72]   %get-tuple-element.303 = bf16[256]{0} get-tuple-element((bf16[512,256,56,56]{3,2,1,0}, bf16[256]{0}, bf16[256]{0}) %batch-norm-training.301), index=1
2019-12-04 19:32:43.138948: E   38524 tensorflow/compiler/xla/xla_client/xla_util.cc:72]   %constant.333 = bf16[] constant(1.001e-05)
2019-12-04 19:32:43.138949: E   38714 tensorflow/compiler/xla/xla_client/xla_util.cc:72]   %p24.275 = bf16[64,3,7,7]{0,3,2,1} parameter(24)
2019-12-04 19:32:43.138950: E   38586 tensorflow/compiler/xla/xla_client/xla_util.cc:72]   %p22.273 = bf16[64]{0} parameter(22)
2019-12-04 19:32:43.138956: E   38501 tensorflow/compiler/xla/xla_client/xla_util.cc:72]   %constant.306 = bf16[] constant(1)
2019-12-04 19:32:43.138959: E   38586 tensorflow/compiler/xla/xla_client/xla_util.cc:72]   %batch-norm-training.278 = (bf16[512,64,112,112]{3,2,1,0}, bf16[64]{0}, bf16[64]{0}) batch-norm-training(bf16[512,64,112,112]{3,2,1,0} %convolution.277, bf16[64]{0} %p23.274, bf16[64]{0} %p22.273), epsilon=1e-05, feature_index=1
2019-12-04 19:32:43.138959: E   38714 tensorflow/compiler/xla/xla_client/xla_util.cc:72]   %convolution.277 = bf16[512,64,112,112]{3,2,1,0} convolution(bf16[512,3,224,224]{3,2,1,0} %p25.276, bf16[64,3,7,7]{0,3,2,1} %p24.275), window={size=7x7 stride=2x2 pad=3_3x3_3}, dim_labels=bf01_oi01->bf01
2019-12-04 19:32:43.138959: E   38524 tensorflow/compiler/xla/xla_client/xla_util.cc:72]   %broadcast.335 = bf16[64]{0} broadcast(bf16[] %constant.333), dimensions={}
2019-12-04 19:32:43.138964: E   38501 tensorflow/compiler/xla/xla_client/xla_util.cc:72]   %broadcast.310 = bf16[256]{0} broadcast(bf16[] %constant.306), dimensions={}
2019-12-04 19:32:43.138969: E   38586 tensorflow/compiler/xla/xla_client/xla_util.cc:72]   %get-tuple-element.280 = bf16[64]{0} get-tuple-element((bf16[512,64,112,112]{3,2,1,0}, bf16[64]{0}, bf16[64]{0}) %batch-norm-training.278), index=1
2019-12-04 19:32:43.138970: E   38714 tensorflow/compiler/xla/xla_client/xla_util.cc:72]   %p23.274 = bf16[64]{0} parameter(23)
2019-12-04 19:32:43.138971: E   38524 tensorflow/compiler/xla/xla_client/xla_util.cc:72]   %add.336 = bf16[64]{0} add(bf16[64]{0} %get-tuple-element.332, bf16[64]{0} %broadcast.335)
2019-12-04 19:32:43.138974: E   38501 tensorflow/compiler/xla/xla_client/xla_util.cc:72]   %get-tuple-element.304 = bf16[256]{0} get-tuple-element((bf16[512,256,56,56]{3,2,1,0}, bf16[256]{0}, bf16[256]{0}) %batch-norm-training.301), index=2
2019-12-04 19:32:43.138977: E   38586 tensorflow/compiler/xla/xla_client/xla_util.cc:72]   %constant.283 = bf16[] constant(1)
2019-12-04 19:32:43.138977: E   38714 tensorflow/compiler/xla/xla_client/xla_util.cc:72]   %p22.273 = bf16[64]{0} parameter(22)
2019-12-04 19:32:43.138980: E   38524 tensorflow/compiler/xla/xla_client/xla_util.cc:72]   %sqrt.337 = bf16[64]{0} sqrt(bf16[64]{0} %add.336)
2019-12-04 19:32:43.138983: E   38501 tensorflow/compiler/xla/xla_client/xla_util.cc:72]   %constant.305 = bf16[] constant(1.001e-05)
2019-12-04 19:32:43.138984: E   38586 tensorflow/compiler/xla/xla_client/xla_util.cc:72]   %broadcast.287 = bf16[64]{0} broadcast(bf16[] %constant.283), dimensions={}
2019-12-04 19:32:43.138985: E   38714 tensorflow/compiler/xla/xla_client/xla_util.cc:72]   %batch-norm-training.278 = (bf16[512,64,112,112]{3,2,1,0}, bf16[64]{0}, bf16[64]{0}) batch-norm-training(bf16[512,64,112,112]{3,2,1,0} %convolution.277, bf16[64]{0} %p23.274, bf16[64]{0} %p22.273), epsilon=1e-05, feature_index=1
2019-12-04 19:32:43.138990: E   38524 tensorflow/compiler/xla/xla_client/xla_util.cc:72]   %divide.339 = bf16[64]{0} divide(bf16[64]{0} %broadcast.338, bf16[64]{0} %sqrt.337)
2019-12-04 19:32:43.138992: E   38586 tensorflow/compiler/xla/xla_client/xla_util.cc:72]   %get-tuple-element.281 = bf16[64]{0} get-tuple-element((bf16[512,64,112,112]{3,2,1,0}, bf16[64]{0}, bf16[64]{0}) %batch-norm-training.278), index=2
2019-12-04 19:32:43.138993: E   38714 tensorflow/compiler/xla/xla_client/xla_util.cc:72]   %get-tuple-element.280 = bf16[64]{0} get-tuple-element((bf16[512,64,112,112]{3,2,1,0}, bf16[64]{0}, bf16[64]{0}) %batch-norm-training.278), index=1
2019-12-04 19:32:43.138991: E   38501 tensorflow/compiler/xla/xla_client/xla_util.cc:72]   %broadcast.307 = bf16[256]{0} broadcast(bf16[] %constant.305), dimensions={}
2019-12-04 19:32:43.139000: E   38524 tensorflow/compiler/xla/xla_client/xla_util.cc:72]   %get-tuple-element.330 = bf16[512,64,56,56]{3,2,1,0} get-tuple-element((bf16[512,64,56,56]{3,2,1,0}, bf16[64]{0}, bf16[64]{0}) %batch-norm-training.329), index=0
2019-12-04 19:32:43.139001: E   38586 tensorflow/compiler/xla/xla_client/xla_util.cc:72]   %constant.282 = bf16[] constant(1.001e-05)
2019-12-04 19:32:43.139002: E   38501 tensorflow/compiler/xla/xla_client/xla_util.cc:72]   %add.308 = bf16[256]{0} add(bf16[256]{0} %get-tuple-element.304, bf16[256]{0} %broadcast.307)
2019-12-04 19:32:43.139009: E   38714 tensorflow/compiler/xla/xla_client/xla_util.cc:72]   %constant.283 = bf16[] constant(1)
2019-12-04 19:32:43.139011: E   38586 tensorflow/compiler/xla/xla_client/xla_util.cc:72]   %broadcast.284 = bf16[64]{0} broadcast(bf16[] %constant.282), dimensions={}
2019-12-04 19:32:43.139011: E   38524 tensorflow/compiler/xla/xla_client/xla_util.cc:72]   %constant.340 = bf16[] constant(0)
2019-12-04 19:32:43.139011: E   38501 tensorflow/compiler/xla/xla_client/xla_util.cc:72]   %sqrt.309 = bf16[256]{0} sqrt(bf16[256]{0} %add.308)
2019-12-04 19:32:43.139017: E   38714 tensorflow/compiler/xla/xla_client/xla_util.cc:72]   %broadcast.287 = bf16[64]{0} broadcast(bf16[] %constant.283), dimensions={}
2019-12-04 19:32:43.139018: E   38586 tensorflow/compiler/xla/xla_client/xla_util.cc:72]   %add.285 = bf16[64]{0} add(bf16[64]{0} %get-tuple-element.281, bf16[64]{0} %broadcast.284)
2019-12-04 19:32:43.139021: E   38524 tensorflow/compiler/xla/xla_client/xla_util.cc:72]   %broadcast.341 = bf16[512,64,56,56]{3,2,1,0} broadcast(bf16[] %constant.340), dimensions={}
2019-12-04 19:32:43.139021: E   38501 tensorflow/compiler/xla/xla_client/xla_util.cc:72]   %divide.311 = bf16[256]{0} divide(bf16[256]{0} %broadcast.310, bf16[256]{0} %sqrt.309)
2019-12-04 19:32:43.139025: E   38714 tensorflow/compiler/xla/xla_client/xla_util.cc:72]   %get-tuple-element.281 = bf16[64]{0} get-tuple-element((bf16[512,64,112,112]{3,2,1,0}, bf16[64]{0}, bf16[64]{0}) %batch-norm-training.278), index=2
2019-12-04 19:32:43.139026: E   38586 tensorflow/compiler/xla/xla_client/xla_util.cc:72]   %sqrt.286 = bf16[64]{0} sqrt(bf16[64]{0} %add.285)
2019-12-04 19:32:43.139032: E   38501 tensorflow/compiler/xla/xla_client/xla_util.cc:72]   %p26.313 = bf16[256]{0} parameter(26)
2019-12-04 19:32:43.139032: E   38524 tensorflow/compiler/xla/xla_client/xla_util.cc:72]   %maximum.342 = bf16[512,64,56,56]{3,2,1,0} maximum(bf16[512,64,56,56]{3,2,1,0} %get-tuple-element.330, bf16[512,64,56,56]{3,2,1,0} %broadcast.341)
2019-12-04 19:32:43.139034: E   38586 tensorflow/compiler/xla/xla_client/xla_util.cc:72]   %divide.288 = bf16[64]{0} divide(bf16[64]{0} %broadcast.287, bf16[64]{0} %sqrt.286)
2019-12-04 19:32:43.139034: E   38714 tensorflow/compiler/xla/xla_client/xla_util.cc:72]   %constant.282 = bf16[] constant(1.001e-05)
2019-12-04 19:32:43.139042: E   38501 tensorflow/compiler/xla/xla_client/xla_util.cc:72]   %p27.314 = bf16[256]{0} parameter(27)
2019-12-04 19:32:43.139044: E   38524 tensorflow/compiler/xla/xla_client/xla_util.cc:72]   %p35.322 = bf16[64,64,3,3]{1,0,3,2} parameter(35)
2019-12-04 19:32:43.139045: E   38714 tensorflow/compiler/xla/xla_client/xla_util.cc:72]   %broadcast.284 = bf16[64]{0} broadcast(bf16[] %constant.282), dimensions={}
2019-12-04 19:32:43.139045: E   38586 tensorflow/compiler/xla/xla_client/xla_util.cc:72]   %get-tuple-element.279 = bf16[512,64,112,112]{3,2,1,0} get-tuple-element((bf16[512,64,112,112]{3,2,1,0}, bf16[64]{0}, bf16[64]{0}) %batch-norm-training.278), index=0
2019-12-04 19:32:43.139051: E   38501 tensorflow/compiler/xla/xla_client/xla_util.cc:72]   %p31.318 = bf16[64]{0} parameter(31)
2019-12-04 19:32:43.139055: E   38586 tensorflow/compiler/xla/xla_client/xla_util.cc:72]   %constant.289 = bf16[] constant(0)
2019-12-04 19:32:43.139055: E   38524 tensorflow/compiler/xla/xla_client/xla_util.cc:72]   %convolution.343 = bf16[512,64,56,56]{3,2,1,0} convolution(bf16[512,64,56,56]{3,2,1,0} %maximum.342, bf16[64,64,3,3]{1,0,3,2} %p35.322), window={size=3x3 pad=1_1x1_1}, dim_labels=bf01_oi01->bf01
2019-12-04 19:32:43.139055: E   38714 tensorflow/compiler/xla/xla_client/xla_util.cc:72]   %add.285 = bf16[64]{0} add(bf16[64]{0} %get-tuple-element.281, bf16[64]{0} %broadcast.284)
2019-12-04 19:32:43.139059: E   38501 tensorflow/compiler/xla/xla_client/xla_util.cc:72]   %p32.319 = bf16[64]{0} parameter(32)
2019-12-04 19:32:43.139064: E   38586 tensorflow/compiler/xla/xla_client/xla_util.cc:72]   %broadcast.290 = bf16[512,64,112,112]{3,2,1,0} broadcast(bf16[] %constant.289), dimensions={}
2019-12-04 19:32:43.139066: E   38714 tensorflow/compiler/xla/xla_client/xla_util.cc:72]   %sqrt.286 = bf16[64]{0} sqrt(bf16[64]{0} %add.285)
2019-12-04 19:32:43.139066: E   38524 tensorflow/compiler/xla/xla_client/xla_util.cc:72]   %p34.321 = bf16[64]{0} parameter(34)
2019-12-04 19:32:43.139068: E   38501 tensorflow/compiler/xla/xla_client/xla_util.cc:72]   %p36.323 = bf16[64]{0} parameter(36)
2019-12-04 19:32:43.139071: E   38586 tensorflow/compiler/xla/xla_client/xla_util.cc:72]   %maximum.291 = bf16[512,64,112,112]{3,2,1,0} maximum(bf16[512,64,112,112]{3,2,1,0} %get-tuple-element.279, bf16[512,64,112,112]{3,2,1,0} %broadcast.290)
2019-12-04 19:32:43.139074: E   38714 tensorflow/compiler/xla/xla_client/xla_util.cc:72]   %divide.288 = bf16[64]{0} divide(bf16[64]{0} %broadcast.287, bf16[64]{0} %sqrt.286)
2019-12-04 19:32:43.139075: E   38524 tensorflow/compiler/xla/xla_client/xla_util.cc:72]   %p33.320 = bf16[64]{0} parameter(33)
2019-12-04 19:32:43.139076: E   38501 tensorflow/compiler/xla/xla_client/xla_util.cc:72]   %p37.324 = bf16[64]{0} parameter(37)
2019-12-04 19:32:43.139079: E   38586 tensorflow/compiler/xla/xla_client/xla_util.cc:72]   %constant.292 = bf16[] constant(-inf)
2019-12-04 19:32:43.139082: E   38714 tensorflow/compiler/xla/xla_client/xla_util.cc:72]   %get-tuple-element.279 = bf16[512,64,112,112]{3,2,1,0} get-tuple-element((bf16[512,64,112,112]{3,2,1,0}, bf16[64]{0}, bf16[64]{0}) %batch-norm-training.278), index=0
2019-12-04 19:32:43.139084: E   38524 tensorflow/compiler/xla/xla_client/xla_util.cc:72]   %batch-norm-training.344 = (bf16[512,64,56,56]{3,2,1,0}, bf16[64]{0}, bf16[64]{0}) batch-norm-training(bf16[512,64,56,56]{3,2,1,0} %convolution.343, bf16[64]{0} %p34.321, bf16[64]{0} %p33.320), epsilon=1e-05, feature_index=1
2019-12-04 19:32:43.139085: E   38501 tensorflow/compiler/xla/xla_client/xla_util.cc:72]   %p40.327 = bf16[64,64,1,1]{1,0,3,2} parameter(40)
2019-12-04 19:32:43.139086: E   38586 tensorflow/compiler/xla/xla_client/xla_util.cc:72]   %pad.293 = bf16[512,64,114,114]{3,2,1,0} pad(bf16[512,64,112,112]{3,2,1,0} %maximum.291, bf16[] %constant.292), padding=0_0x0_0x1_1x1_1
2019-12-04 19:32:43.139090: E   38714 tensorflow/compiler/xla/xla_client/xla_util.cc:72]   %constant.289 = bf16[] constant(0)
2019-12-04 19:32:43.139093: E   38524 tensorflow/compiler/xla/xla_client/xla_util.cc:72]   %get-tuple-element.346 = bf16[64]{0} get-tuple-element((bf16[512,64,56,56]{3,2,1,0}, bf16[64]{0}, bf16[64]{0}) %batch-norm-training.344), index=1
2019-12-04 19:32:43.139095: E   38586 tensorflow/compiler/xla/xla_client/xla_util.cc:72]   %constant.294 = bf16[] constant(-inf)
2019-12-04 19:32:43.139095: E   38501 tensorflow/compiler/xla/xla_client/xla_util.cc:72]   %convolution.328 = bf16[512,64,56,56]{3,2,1,0} convolution(bf16[512,64,56,56]{3,2,1,0} %reduce-window.299, bf16[64,64,1,1]{1,0,3,2} %p40.327), window={size=1x1}, dim_labels=bf01_oi01->bf01
2019-12-04 19:32:43.139098: E   38714 tensorflow/compiler/xla/xla_client/xla_util.cc:72]   %broadcast.290 = bf16[512,64,112,112]{3,2,1,0} broadcast(bf16[] %constant.289), dimensions={}
2019-12-04 19:32:43.139104: E   38586 tensorflow/compiler/xla/xla_client/xla_util.cc:72]   %reduce-window.299 = bf16[512,64,56,56]{3,2,1,0} reduce-window(bf16[512,64,114,114]{3,2,1,0} %pad.293, bf16[] %constant.294), window={size=1x1x3x3 stride=1x1x2x2}, to_apply=%max_BF16.295
2019-12-04 19:32:43.139105: E   38501 tensorflow/compiler/xla/xla_client/xla_util.cc:72]   %p39.326 = bf16[64]{0} parameter(39)
2019-12-04 19:32:43.139105: E   38714 tensorflow/compiler/xla/xla_client/xla_util.cc:72]   %maximum.291 = bf16[512,64,112,112]{3,2,1,0} maximum(bf16[512,64,112,112]{3,2,1,0} %get-tuple-element.279, bf16[512,64,112,112]{3,2,1,0} %broadcast.290)
2019-12-04 19:32:43.139112: E   38586 tensorflow/compiler/xla/xla_client/xla_util.cc:72]   %p19.270 = bf16[256,64,1,1]{0,1,3,2} parameter(19)
2019-12-04 19:32:43.139114: E   38714 tensorflow/compiler/xla/xla_client/xla_util.cc:72]   %constant.292 = bf16[] constant(-inf)
2019-12-04 19:32:43.139114: E   38501 tensorflow/compiler/xla/xla_client/xla_util.cc:72]   %p38.325 = bf16[64]{0} parameter(38)
2019-12-04 19:32:43.139114: E   38524 tensorflow/compiler/xla/xla_client/xla_util.cc:72]   %constant.349 = bf16[] constant(1)
2019-12-04 19:32:43.139120: E   38586 tensorflow/compiler/xla/xla_client/xla_util.cc:72]   %convolution.300 = bf16[512,256,56,56]{3,2,1,0} convolution(bf16[512,64,56,56]{3,2,1,0} %reduce-window.299, bf16[256,64,1,1]{0,1,3,2} %p19.270), window={size=1x1}, dim_labels=bf01_oi01->bf01
2019-12-04 19:32:43.139122: E   38714 tensorflow/compiler/xla/xla_client/xla_util.cc:72]   %pad.293 = bf16[512,64,114,114]{3,2,1,0} pad(bf16[512,64,112,112]{3,2,1,0} %maximum.291, bf16[] %constant.292), padding=0_0x0_0x1_1x1_1
2019-12-04 19:32:43.139123: E   38501 tensorflow/compiler/xla/xla_client/xla_util.cc:72]   %batch-norm-training.329 = (bf16[512,64,56,56]{3,2,1,0}, bf16[64]{0}, bf16[64]{0}) batch-norm-training(bf16[512,64,56,56]{3,2,1,0} %convolution.328, bf16[64]{0} %p39.326, bf16[64]{0} %p38.325), epsilon=1e-05, feature_index=1
2019-12-04 19:32:43.139124: E   38524 tensorflow/compiler/xla/xla_client/xla_util.cc:72]   %broadcast.353 = bf16[64]{0} broadcast(bf16[] %constant.349), dimensions={}
2019-12-04 19:32:43.139128: E   38586 tensorflow/compiler/xla/xla_client/xla_util.cc:72]   %p18.269 = bf16[256]{0} parameter(18)
2019-12-04 19:32:43.139129: E   38714 tensorflow/compiler/xla/xla_client/xla_util.cc:72]   %constant.294 = bf16[] constant(-inf)
2019-12-04 19:32:43.139133: E   38501 tensorflow/compiler/xla/xla_client/xla_util.cc:72]   %get-tuple-element.331 = bf16[64]{0} get-tuple-element((bf16[512,64,56,56]{3,2,1,0}, bf16[64]{0}, bf16[64]{0}) %batch-norm-training.329), index=1
2019-12-04 19:32:43.139134: E   38524 tensorflow/compiler/xla/xla_client/xla_util.cc:72]   %get-tuple-element.347 = bf16[64]{0} get-tuple-element((bf16[512,64,56,56]{3,2,1,0}, bf16[64]{0}, bf16[64]{0}) %batch-norm-training.344), index=2
2019-12-04 19:32:43.139136: E   38586 tensorflow/compiler/xla/xla_client/xla_util.cc:72]   %p17.268 = bf16[256]{0} parameter(17)
2019-12-04 19:32:43.139137: E   38714 tensorflow/compiler/xla/xla_client/xla_util.cc:72]   %reduce-window.299 = bf16[512,64,56,56]{3,2,1,0} reduce-window(bf16[512,64,114,114]{3,2,1,0} %pad.293, bf16[] %constant.294), window={size=1x1x3x3 stride=1x1x2x2}, to_apply=%max_BF16.295
2019-12-04 19:32:43.139141: E   38501 tensorflow/compiler/xla/xla_client/xla_util.cc:72]   %constant.334 = bf16[] constant(1)
2019-12-04 19:32:43.139146: E   38586 tensorflow/compiler/xla/xla_client/xla_util.cc:72]   %batch-norm-training.301 = (bf16[512,256,56,56]{3,2,1,0}, bf16[256]{0}, bf16[256]{0}) batch-norm-training(bf16[512,256,56,56]{3,2,1,0} %convolution.300, bf16[256]{0} %p18.269, bf16[256]{0} %p17.268), epsilon=1e-05, feature_index=1
2019-12-04 19:32:43.139146: E   38714 tensorflow/compiler/xla/xla_client/xla_util.cc:72]   %p19.270 = bf16[256,64,1,1]{0,1,3,2} parameter(19)
2019-12-04 19:32:43.139146: E   38524 tensorflow/compiler/xla/xla_client/xla_util.cc:72]   %constant.348 = bf16[] constant(1.001e-05)
2019-12-04 19:32:43.139150: E   38501 tensorflow/compiler/xla/xla_client/xla_util.cc:72]   %broadcast.338 = bf16[64]{0} broadcast(bf16[] %constant.334), dimensions={}
2019-12-04 19:32:43.139154: E   38586 tensorflow/compiler/xla/xla_client/xla_util.cc:72]   %get-tuple-element.303 = bf16[256]{0} get-tuple-element((bf16[512,256,56,56]{3,2,1,0}, bf16[256]{0}, bf16[256]{0}) %batch-norm-training.301), index=1
2019-12-04 19:32:43.139157: E   38714 tensorflow/compiler/xla/xla_client/xla_util.cc:72]   %convolution.300 = bf16[512,256,56,56]{3,2,1,0} convolution(bf16[512,64,56,56]{3,2,1,0} %reduce-window.299, bf16[256,64,1,1]{0,1,3,2} %p19.270), window={size=1x1}, dim_labels=bf01_oi01->bf01
2019-12-04 19:32:43.139157: E   38524 tensorflow/compiler/xla/xla_client/xla_util.cc:72]   %broadcast.350 = bf16[64]{0} broadcast(bf16[] %constant.348), dimensions={}
2019-12-04 19:32:43.139159: E   38501 tensorflow/compiler/xla/xla_client/xla_util.cc:72]   %get-tuple-element.332 = bf16[64]{0} get-tuple-element((bf16[512,64,56,56]{3,2,1,0}, bf16[64]{0}, bf16[64]{0}) %batch-norm-training.329), index=2
2019-12-04 19:32:43.139162: E   38586 tensorflow/compiler/xla/xla_client/xla_util.cc:72]   %constant.306 = bf16[] constant(1)
2019-12-04 19:32:43.139164: E   38714 tensorflow/compiler/xla/xla_client/xla_util.cc:72]   %p18.269 = bf16[256]{0} parameter(18)
2019-12-04 19:32:43.139166: E   38524 tensorflow/compiler/xla/xla_client/xla_util.cc:72]   %add.351 = bf16[64]{0} add(bf16[64]{0} %get-tuple-element.347, bf16[64]{0} %broadcast.350)
2019-12-04 19:32:43.139168: E   38501 tensorflow/compiler/xla/xla_client/xla_util.cc:72]   %constant.333 = bf16[] constant(1.001e-05)
2019-12-04 19:32:43.139169: E   38586 tensorflow/compiler/xla/xla_client/xla_util.cc:72]   %broadcast.310 = bf16[256]{0} broadcast(bf16[] %constant.306), dimensions={}
2019-12-04 19:32:43.139172: E   38714 tensorflow/compiler/xla/xla_client/xla_util.cc:72]   %p17.268 = bf16[256]{0} parameter(17)
2019-12-04 19:32:43.139175: E   38524 tensorflow/compiler/xla/xla_client/xla_util.cc:72]   %sqrt.352 = bf16[64]{0} sqrt(bf16[64]{0} %add.351)
2019-12-04 19:32:43.139177: E   38586 tensorflow/compiler/xla/xla_client/xla_util.cc:72]   %get-tuple-element.304 = bf16[256]{0} get-tuple-element((bf16[512,256,56,56]{3,2,1,0}, bf16[256]{0}, bf16[256]{0}) %batch-norm-training.301), index=2
2019-12-04 19:32:43.139177: E   38501 tensorflow/compiler/xla/xla_client/xla_util.cc:72]   %broadcast.335 = bf16[64]{0} broadcast(bf16[] %constant.333), dimensions={}
2019-12-04 19:32:43.139179: E   38714 tensorflow/compiler/xla/xla_client/xla_util.cc:72]   %batch-norm-training.301 = (bf16[512,256,56,56]{3,2,1,0}, bf16[256]{0}, bf16[256]{0}) batch-norm-training(bf16[512,256,56,56]{3,2,1,0} %convolution.300, bf16[256]{0} %p18.269, bf16[256]{0} %p17.268), epsilon=1e-05, feature_index=1
2019-12-04 19:32:43.139184: E   38524 tensorflow/compiler/xla/xla_client/xla_util.cc:72]   %divide.354 = bf16[64]{0} divide(bf16[64]{0} %broadcast.353, bf16[64]{0} %sqrt.352)
2019-12-04 19:32:43.139185: E   38586 tensorflow/compiler/xla/xla_client/xla_util.cc:72]   %constant.305 = bf16[] constant(1.001e-05)
2019-12-04 19:32:43.139186: E   38501 tensorflow/compiler/xla/xla_client/xla_util.cc:72]   %add.336 = bf16[64]{0} add(bf16[64]{0} %get-tuple-element.332, bf16[64]{0} %broadcast.335)
2019-12-04 19:32:43.139188: E   38714 tensorflow/compiler/xla/xla_client/xla_util.cc:72]   %get-tuple-element.303 = bf16[256]{0} get-tuple-element((bf16[512,256,56,56]{3,2,1,0}, bf16[256]{0}, bf16[256]{0}) %batch-norm-training.301), index=1
2019-12-04 19:32:43.139194: E   38586 tensorflow/compiler/xla/xla_client/xla_util.cc:72]   %broadcast.307 = bf16[256]{0} broadcast(bf16[] %constant.305), dimensions={}
2019-12-04 19:32:43.139193: E   38524 tensorflow/compiler/xla/xla_client/xla_util.cc:72]   %get-tuple-element.345 = bf16[512,64,56,56]{3,2,1,0} get-tuple-element((bf16[512,64,56,56]{3,2,1,0}, bf16[64]{0}, bf16[64]{0}) %batch-norm-training.344), index=0
2019-12-04 19:32:43.139195: E   38501 tensorflow/compiler/xla/xla_client/xla_util.cc:72]   %sqrt.337 = bf16[64]{0} sqrt(bf16[64]{0} %add.336)
2019-12-04 19:32:43.139196: E   38714 tensorflow/compiler/xla/xla_client/xla_util.cc:72]   %constant.306 = bf16[] constant(1)
2019-12-04 19:32:43.139202: E   38586 tensorflow/compiler/xla/xla_client/xla_util.cc:72]   %add.308 = bf16[256]{0} add(bf16[256]{0} %get-tuple-element.304, bf16[256]{0} %broadcast.307)
2019-12-04 19:32:43.139203: E   38524 tensorflow/compiler/xla/xla_client/xla_util.cc:72]   %constant.355 = bf16[] constant(0)
2019-12-04 19:32:43.139204: E   38714 tensorflow/compiler/xla/xla_client/xla_util.cc:72]   %broadcast.310 = bf16[256]{0} broadcast(bf16[] %constant.306), dimensions={}
2019-12-04 19:32:43.139204: E   38501 tensorflow/compiler/xla/xla_client/xla_util.cc:72]   %divide.339 = bf16[64]{0} divide(bf16[64]{0} %broadcast.338, bf16[64]{0} %sqrt.337)
2019-12-04 19:32:43.139209: E   38586 tensorflow/compiler/xla/xla_client/xla_util.cc:72]   %sqrt.309 = bf16[256]{0} sqrt(bf16[256]{0} %add.308)
2019-12-04 19:32:43.139211: E   38524 tensorflow/compiler/xla/xla_client/xla_util.cc:72]   %broadcast.356 = bf16[512,64,56,56]{3,2,1,0} broadcast(bf16[] %constant.355), dimensions={}
2019-12-04 19:32:43.139212: E   38714 tensorflow/compiler/xla/xla_client/xla_util.cc:72]   %get-tuple-element.304 = bf16[256]{0} get-tuple-element((bf16[512,256,56,56]{3,2,1,0}, bf16[256]{0}, bf16[256]{0}) %batch-norm-training.301), index=2
2019-12-04 19:32:43.139213: E   38501 tensorflow/compiler/xla/xla_client/xla_util.cc:72]   %get-tuple-element.330 = bf16[512,64,56,56]{3,2,1,0} get-tuple-element((bf16[512,64,56,56]{3,2,1,0}, bf16[64]{0}, bf16[64]{0}) %batch-norm-training.329), index=0
2019-12-04 19:32:43.139217: E   38586 tensorflow/compiler/xla/xla_client/xla_util.cc:72]   %divide.311 = bf16[256]{0} divide(bf16[256]{0} %broadcast.310, bf16[256]{0} %sqrt.309)
2019-12-04 19:32:43.139222: E   38714 tensorflow/compiler/xla/xla_client/xla_util.cc:72]   %constant.305 = bf16[] constant(1.001e-05)
2019-12-04 19:32:43.139222: E   38524 tensorflow/compiler/xla/xla_client/xla_util.cc:72]   %maximum.357 = bf16[512,64,56,56]{3,2,1,0} maximum(bf16[512,64,56,56]{3,2,1,0} %get-tuple-element.345, bf16[512,64,56,56]{3,2,1,0} %broadcast.356)
2019-12-04 19:32:43.139223: E   38501 tensorflow/compiler/xla/xla_client/xla_util.cc:72]   %constant.340 = bf16[] constant(0)
2019-12-04 19:32:43.139224: E   38586 tensorflow/compiler/xla/xla_client/xla_util.cc:72]   %p26.313 = bf16[256]{0} parameter(26)
2019-12-04 19:32:43.139230: E   38714 tensorflow/compiler/xla/xla_client/xla_util.cc:72]   %broadcast.307 = bf16[256]{0} broadcast(bf16[] %constant.305), dimensions={}
2019-12-04 19:32:43.139233: E   38586 tensorflow/compiler/xla/xla_client/xla_util.cc:72]   %p27.314 = bf16[256]{0} parameter(27)
2019-12-04 19:32:43.139232: E   38524 tensorflow/compiler/xla/xla_client/xla_util.cc:72]   %p30.317 = bf16[256,64,1,1]{0,1,3,2} parameter(30)
2019-12-04 19:32:43.139233: E   38501 tensorflow/compiler/xla/xla_client/xla_util.cc:72]   %broadcast.341 = bf16[512,64,56,56]{3,2,1,0} broadcast(bf16[] %constant.340), dimensions={}
2019-12-04 19:32:43.139237: E   38714 tensorflow/compiler/xla/xla_client/xla_util.cc:72]   %add.308 = bf16[256]{0} add(bf16[256]{0} %get-tuple-element.304, bf16[256]{0} %broadcast.307)
2019-12-04 19:32:43.139241: E   38586 tensorflow/compiler/xla/xla_client/xla_util.cc:72]   %p31.318 = bf16[64]{0} parameter(31)
2019-12-04 19:32:43.139243: E   38524 tensorflow/compiler/xla/xla_client/xla_util.cc:72]   %convolution.358 = bf16[512,256,56,56]{3,2,1,0} convolution(bf16[512,64,56,56]{3,2,1,0} %maximum.357, bf16[256,64,1,1]{0,1,3,2} %p30.317), window={size=1x1}, dim_labels=bf01_oi01->bf01
2019-12-04 19:32:43.139243: E   38501 tensorflow/compiler/xla/xla_client/xla_util.cc:72]   %maximum.342 = bf16[512,64,56,56]{3,2,1,0} maximum(bf16[512,64,56,56]{3,2,1,0} %get-tuple-element.330, bf16[512,64,56,56]{3,2,1,0} %broadcast.341)
2019-12-04 19:32:43.139245: E   38714 tensorflow/compiler/xla/xla_client/xla_util.cc:72]   %sqrt.309 = bf16[256]{0} sqrt(bf16[256]{0} %add.308)
2019-12-04 19:32:43.139248: E   38586 tensorflow/compiler/xla/xla_client/xla_util.cc:72]   %p32.319 = bf16[64]{0} parameter(32)
2019-12-04 19:32:43.139254: E   38714 tensorflow/compiler/xla/xla_client/xla_util.cc:72]   %divide.311 = bf16[256]{0} divide(bf16[256]{0} %broadcast.310, bf16[256]{0} %sqrt.309)
2019-12-04 19:32:43.139254: E   38524 tensorflow/compiler/xla/xla_client/xla_util.cc:72]   %p29.316 = bf16[256]{0} parameter(29)
2019-12-04 19:32:43.139256: E   38586 tensorflow/compiler/xla/xla_client/xla_util.cc:72]   %p36.323 = bf16[64]{0} parameter(36)
2019-12-04 19:32:43.139254: E   38501 tensorflow/compiler/xla/xla_client/xla_util.cc:72]   %p35.322 = bf16[64,64,3,3]{1,0,3,2} parameter(35)
2019-12-04 19:32:43.139262: E   38714 tensorflow/compiler/xla/xla_client/xla_util.cc:72]   %p26.313 = bf16[256]{0} parameter(26)
2019-12-04 19:32:43.139265: E   38586 tensorflow/compiler/xla/xla_client/xla_util.cc:72]   %p37.324 = bf16[64]{0} parameter(37)
2019-12-04 19:32:43.139265: E   38524 tensorflow/compiler/xla/xla_client/xla_util.cc:72]   %p28.315 = bf16[256]{0} parameter(28)
2019-12-04 19:32:43.139266: E   38501 tensorflow/compiler/xla/xla_client/xla_util.cc:72]   %convolution.343 = bf16[512,64,56,56]{3,2,1,0} convolution(bf16[512,64,56,56]{3,2,1,0} %maximum.342, bf16[64,64,3,3]{1,0,3,2} %p35.322), window={size=3x3 pad=1_1x1_1}, dim_labels=bf01_oi01->bf01
2019-12-04 19:32:43.139269: E   38714 tensorflow/compiler/xla/xla_client/xla_util.cc:72]   %p27.314 = bf16[256]{0} parameter(27)
2019-12-04 19:32:43.139272: E   38586 tensorflow/compiler/xla/xla_client/xla_util.cc:72]   %p40.327 = bf16[64,64,1,1]{1,0,3,2} parameter(40)
2019-12-04 19:32:43.139274: E   38524 tensorflow/compiler/xla/xla_client/xla_util.cc:72]   %batch-norm-training.359 = (bf16[512,256,56,56]{3,2,1,0}, bf16[256]{0}, bf16[256]{0}) batch-norm-training(bf16[512,256,56,56]{3,2,1,0} %convolution.358, bf16[256]{0} %p29.316, bf16[256]{0} %p28.315), epsilon=1e-05, feature_index=1
2019-12-04 19:32:43.139275: E   38501 tensorflow/compiler/xla/xla_client/xla_util.cc:72]   %p34.321 = bf16[64]{0} parameter(34)
2019-12-04 19:32:43.139277: E   38714 tensorflow/compiler/xla/xla_client/xla_util.cc:72]   %p31.318 = bf16[64]{0} parameter(31)
2019-12-04 19:32:43.139282: E   38586 tensorflow/compiler/xla/xla_client/xla_util.cc:72]   %convolution.328 = bf16[512,64,56,56]{3,2,1,0} convolution(bf16[512,64,56,56]{3,2,1,0} %reduce-window.299, bf16[64,64,1,1]{1,0,3,2} %p40.327), window={size=1x1}, dim_labels=bf01_oi01->bf01
2019-12-04 19:32:43.139283: E   38524 tensorflow/compiler/xla/xla_client/xla_util.cc:72]   %get-tuple-element.361 = bf16[256]{0} get-tuple-element((bf16[512,256,56,56]{3,2,1,0}, bf16[256]{0}, bf16[256]{0}) %batch-norm-training.359), index=1
2019-12-04 19:32:43.139284: E   38714 tensorflow/compiler/xla/xla_client/xla_util.cc:72]   %p32.319 = bf16[64]{0} parameter(32)
2019-12-04 19:32:43.139284: E   38501 tensorflow/compiler/xla/xla_client/xla_util.cc:72]   %p33.320 = bf16[64]{0} parameter(33)
2019-12-04 19:32:43.139289: E   38586 tensorflow/compiler/xla/xla_client/xla_util.cc:72]   %p39.326 = bf16[64]{0} parameter(39)
2019-12-04 19:32:43.139292: E   38524 tensorflow/compiler/xla/xla_client/xla_util.cc:72]   %constant.364 = bf16[] constant(1)
2019-12-04 19:32:43.139293: E   38714 tensorflow/compiler/xla/xla_client/xla_util.cc:72]   %p36.323 = bf16[64]{0} parameter(36)
2019-12-04 19:32:43.139294: E   38501 tensorflow/compiler/xla/xla_client/xla_util.cc:72]   %batch-norm-training.344 = (bf16[512,64,56,56]{3,2,1,0}, bf16[64]{0}, bf16[64]{0}) batch-norm-training(bf16[512,64,56,56]{3,2,1,0} %convolution.343, bf16[64]{0} %p34.321, bf16[64]{0} %p33.320), epsilon=1e-05, feature_index=1
2019-12-04 19:32:43.139297: E   38586 tensorflow/compiler/xla/xla_client/xla_util.cc:72]   %p38.325 = bf16[64]{0} parameter(38)
2019-12-04 19:32:43.139302: E   38714 tensorflow/compiler/xla/xla_client/xla_util.cc:72]   %p37.324 = bf16[64]{0} parameter(37)
2019-12-04 19:32:43.139302: E   38524 tensorflow/compiler/xla/xla_client/xla_util.cc:72]   %broadcast.368 = bf16[256]{0} broadcast(bf16[] %constant.364), dimensions={}
2019-12-04 19:32:43.139303: E   38501 tensorflow/compiler/xla/xla_client/xla_util.cc:72]   %get-tuple-element.346 = bf16[64]{0} get-tuple-element((bf16[512,64,56,56]{3,2,1,0}, bf16[64]{0}, bf16[64]{0}) %batch-norm-training.344), index=1
2019-12-04 19:32:43.139305: E   38586 tensorflow/compiler/xla/xla_client/xla_util.cc:72]   %batch-norm-training.329 = (bf16[512,64,56,56]{3,2,1,0}, bf16[64]{0}, bf16[64]{0}) batch-norm-training(bf16[512,64,56,56]{3,2,1,0} %convolution.328, bf16[64]{0} %p39.326, bf16[64]{0} %p38.325), epsilon=1e-05, feature_index=1
2019-12-04 19:32:43.139310: E   38714 tensorflow/compiler/xla/xla_client/xla_util.cc:72]   %p40.327 = bf16[64,64,1,1]{1,0,3,2} parameter(40)
2019-12-04 19:32:43.139311: E   38524 tensorflow/compiler/xla/xla_client/xla_util.cc:72]   %get-tuple-element.362 = bf16[256]{0} get-tuple-element((bf16[512,256,56,56]{3,2,1,0}, bf16[256]{0}, bf16[256]{0}) %batch-norm-training.359), index=2
2019-12-04 19:32:43.139313: E   38586 tensorflow/compiler/xla/xla_client/xla_util.cc:72]   %get-tuple-element.331 = bf16[64]{0} get-tuple-element((bf16[512,64,56,56]{3,2,1,0}, bf16[64]{0}, bf16[64]{0}) %batch-norm-training.329), index=1
2019-12-04 19:32:43.139317: E   38714 tensorflow/compiler/xla/xla_client/xla_util.cc:72]   %convolution.328 = bf16[512,64,56,56]{3,2,1,0} convolution(bf16[512,64,56,56]{3,2,1,0} %reduce-window.299, bf16[64,64,1,1]{1,0,3,2} %p40.327), window={size=1x1}, dim_labels=bf01_oi01->bf01
2019-12-04 19:32:43.139320: E   38524 tensorflow/compiler/xla/xla_client/xla_util.cc:72]   %constant.363 = bf16[] constant(1.001e-05)
2019-12-04 19:32:43.139321: E   38586 tensorflow/compiler/xla/xla_client/xla_util.cc:72]   %constant.334 = bf16[] constant(1)
2019-12-04 19:32:43.139312: E   38501 tensorflow/compiler/xla/xla_client/xla_util.cc:72]   %constant.349 = bf16[] constant(1)
2019-12-04 19:32:43.139325: E   38714 tensorflow/compiler/xla/xla_client/xla_util.cc:72]   %p39.326 = bf16[64]{0} parameter(39)
2019-12-04 19:32:43.139330: E   38586 tensorflow/compiler/xla/xla_client/xla_util.cc:72]   %broadcast.338 = bf16[64]{0} broadcast(bf16[] %constant.334), dimensions={}
2019-12-04 19:32:43.139330: E   38524 tensorflow/compiler/xla/xla_client/xla_util.cc:72]   %broadcast.365 = bf16[256]{0} broadcast(bf16[] %constant.363), dimensions={}
2019-12-04 19:32:43.139331: E   38501 tensorflow/compiler/xla/xla_client/xla_util.cc:72]   %broadcast.353 = bf16[64]{0} broadcast(bf16[] %constant.349), dimensions={}
2019-12-04 19:32:43.139332: E   38714 tensorflow/compiler/xla/xla_client/xla_util.cc:72]   %p38.325 = bf16[64]{0} parameter(38)
2019-12-04 19:32:43.139338: E   38586 tensorflow/compiler/xla/xla_client/xla_util.cc:72]   %get-tuple-element.332 = bf16[64]{0} get-tuple-element((bf16[512,64,56,56]{3,2,1,0}, bf16[64]{0}, bf16[64]{0}) %batch-norm-training.329), index=2
2019-12-04 19:32:43.139338: E   38524 tensorflow/compiler/xla/xla_client/xla_util.cc:72]   %add.366 = bf16[256]{0} add(bf16[256]{0} %get-tuple-element.362, bf16[256]{0} %broadcast.365)
2019-12-04 19:32:43.139341: E   38714 tensorflow/compiler/xla/xla_client/xla_util.cc:72]   %batch-norm-training.329 = (bf16[512,64,56,56]{3,2,1,0}, bf16[64]{0}, bf16[64]{0}) batch-norm-training(bf16[512,64,56,56]{3,2,1,0} %convolution.328, bf16[64]{0} %p39.326, bf16[64]{0} %p38.325), epsilon=1e-05, feature_index=1
2019-12-04 19:32:43.139341: E   38501 tensorflow/compiler/xla/xla_client/xla_util.cc:72]   %get-tuple-element.347 = bf16[64]{0} get-tuple-element((bf16[512,64,56,56]{3,2,1,0}, bf16[64]{0}, bf16[64]{0}) %batch-norm-training.344), index=2
2019-12-04 19:32:43.139352: E   38586 tensorflow/compiler/xla/xla_client/xla_util.cc:72]   %constant.333 = bf16[] constant(1.001e-05)
2019-12-04 19:32:43.139354: E   38714 tensorflow/compiler/xla/xla_client/xla_util.cc:72]   %get-tuple-element.331 = bf16[64]{0} get-tuple-element((bf16[512,64,56,56]{3,2,1,0}, bf16[64]{0}, bf16[64]{0}) %batch-norm-training.329), index=1
2019-12-04 19:32:43.139354: E   38524 tensorflow/compiler/xla/xla_client/xla_util.cc:72]   %sqrt.367 = bf16[256]{0} sqrt(bf16[256]{0} %add.366)
2019-12-04 19:32:43.139355: E   38501 tensorflow/compiler/xla/xla_client/xla_util.cc:72]   %constant.348 = bf16[] constant(1.001e-05)
2019-12-04 19:32:43.139359: E   38586 tensorflow/compiler/xla/xla_client/xla_util.cc:72]   %broadcast.335 = bf16[64]{0} broadcast(bf16[] %constant.333), dimensions={}
2019-12-04 19:32:43.139363: E   38714 tensorflow/compiler/xla/xla_client/xla_util.cc:72]   %constant.334 = bf16[] constant(1)
2019-12-04 19:32:43.139364: E   38524 tensorflow/compiler/xla/xla_client/xla_util.cc:72]   %divide.369 = bf16[256]{0} divide(bf16[256]{0} %broadcast.368, bf16[256]{0} %sqrt.367)
2019-12-04 19:32:43.139365: E   38501 tensorflow/compiler/xla/xla_client/xla_util.cc:72]   %broadcast.350 = bf16[64]{0} broadcast(bf16[] %constant.348), dimensions={}
2019-12-04 19:32:43.139367: E   38586 tensorflow/compiler/xla/xla_client/xla_util.cc:72]   %add.336 = bf16[64]{0} add(bf16[64]{0} %get-tuple-element.332, bf16[64]{0} %broadcast.335)
2019-12-04 19:32:43.139371: E   38714 tensorflow/compiler/xla/xla_client/xla_util.cc:72]   %broadcast.338 = bf16[64]{0} broadcast(bf16[] %constant.334), dimensions={}
2019-12-04 19:32:43.139374: E   38524 tensorflow/compiler/xla/xla_client/xla_util.cc:72]   %p41.375 = bf16[256]{0} parameter(41)
2019-12-04 19:32:43.139375: E   38586 tensorflow/compiler/xla/xla_client/xla_util.cc:72]   %sqrt.337 = bf16[64]{0} sqrt(bf16[64]{0} %add.336)
2019-12-04 19:32:43.139374: E   38501 tensorflow/compiler/xla/xla_client/xla_util.cc:72]   %add.351 = bf16[64]{0} add(bf16[64]{0} %get-tuple-element.347, bf16[64]{0} %broadcast.350)
2019-12-04 19:32:43.139378: E   38714 tensorflow/compiler/xla/xla_client/xla_util.cc:72]   %get-tuple-element.332 = bf16[64]{0} get-tuple-element((bf16[512,64,56,56]{3,2,1,0}, bf16[64]{0}, bf16[64]{0}) %batch-norm-training.329), index=2
2019-12-04 19:32:43.139383: E   38586 tensorflow/compiler/xla/xla_client/xla_util.cc:72]   %divide.339 = bf16[64]{0} divide(bf16[64]{0} %broadcast.338, bf16[64]{0} %sqrt.337)
2019-12-04 19:32:43.139383: E   38524 tensorflow/compiler/xla/xla_client/xla_util.cc:72]   %p42.376 = bf16[256]{0} parameter(42)
2019-12-04 19:32:43.139384: E   38501 tensorflow/compiler/xla/xla_client/xla_util.cc:72]   %sqrt.352 = bf16[64]{0} sqrt(bf16[64]{0} %add.351)
2019-12-04 19:32:43.139386: E   38714 tensorflow/compiler/xla/xla_client/xla_util.cc:72]   %constant.333 = bf16[] constant(1.001e-05)
2019-12-04 19:32:43.139392: E   38586 tensorflow/compiler/xla/xla_client/xla_util.cc:72]   %get-tuple-element.330 = bf16[512,64,56,56]{3,2,1,0} get-tuple-element((bf16[512,64,56,56]{3,2,1,0}, bf16[64]{0}, bf16[64]{0}) %batch-norm-training.329), index=0
2019-12-04 19:32:43.139395: E   38714 tensorflow/compiler/xla/xla_client/xla_util.cc:72]   %broadcast.335 = bf16[64]{0} broadcast(bf16[] %constant.333), dimensions={}
2019-12-04 19:32:43.139394: E   38501 tensorflow/compiler/xla/xla_client/xla_util.cc:72]   %divide.354 = bf16[64]{0} divide(bf16[64]{0} %broadcast.353, bf16[64]{0} %sqrt.352)
2019-12-04 19:32:43.139394: E   38524 tensorflow/compiler/xla/xla_client/xla_util.cc:72]   %p46.380 = bf16[64]{0} parameter(46)
2019-12-04 19:32:43.139400: E   38586 tensorflow/compiler/xla/xla_client/xla_util.cc:72]   %constant.340 = bf16[] constant(0)
2019-12-04 19:32:43.139403: E   38714 tensorflow/compiler/xla/xla_client/xla_util.cc:72]   %add.336 = bf16[64]{0} add(bf16[64]{0} %get-tuple-element.332, bf16[64]{0} %broadcast.335)
2019-12-04 19:32:43.139405: E   38501 tensorflow/compiler/xla/xla_client/xla_util.cc:72]   %get-tuple-element.345 = bf16[512,64,56,56]{3,2,1,0} get-tuple-element((bf16[512,64,56,56]{3,2,1,0}, bf16[64]{0}, bf16[64]{0}) %batch-norm-training.344), index=0
2019-12-04 19:32:43.139405: E   38524 tensorflow/compiler/xla/xla_client/xla_util.cc:72]   %p47.381 = bf16[64]{0} parameter(47)
2019-12-04 19:32:43.139407: E   38586 tensorflow/compiler/xla/xla_client/xla_util.cc:72]   %broadcast.341 = bf16[512,64,56,56]{3,2,1,0} broadcast(bf16[] %constant.340), dimensions={}
2019-12-04 19:32:43.139410: E   38714 tensorflow/compiler/xla/xla_client/xla_util.cc:72]   %sqrt.337 = bf16[64]{0} sqrt(bf16[64]{0} %add.336)
2019-12-04 19:32:43.139416: E   38586 tensorflow/compiler/xla/xla_client/xla_util.cc:72]   %maximum.342 = bf16[512,64,56,56]{3,2,1,0} maximum(bf16[512,64,56,56]{3,2,1,0} %get-tuple-element.330, bf16[512,64,56,56]{3,2,1,0} %broadcast.341)
2019-12-04 19:32:43.139418: E   38714 tensorflow/compiler/xla/xla_client/xla_util.cc:72]   %divide.339 = bf16[64]{0} divide(bf16[64]{0} %broadcast.338, bf16[64]{0} %sqrt.337)
2019-12-04 19:32:43.139415: E   38524 tensorflow/compiler/xla/xla_client/xla_util.cc:72]   %p51.385 = bf16[64]{0} parameter(51)
2019-12-04 19:32:43.139415: E   38501 tensorflow/compiler/xla/xla_client/xla_util.cc:72]   %constant.355 = bf16[] constant(0)
2019-12-04 19:32:43.139426: E   38586 tensorflow/compiler/xla/xla_client/xla_util.cc:72]   %p35.322 = bf16[64,64,3,3]{1,0,3,2} parameter(35)
2019-12-04 19:32:43.139427: E   38714 tensorflow/compiler/xla/xla_client/xla_util.cc:72]   %get-tuple-element.330 = bf16[512,64,56,56]{3,2,1,0} get-tuple-element((bf16[512,64,56,56]{3,2,1,0}, bf16[64]{0}, bf16[64]{0}) %batch-norm-training.329), index=0
2019-12-04 19:32:43.139428: E   38524 tensorflow/compiler/xla/xla_client/xla_util.cc:72]   %p52.386 = bf16[64]{0} parameter(52)
2019-12-04 19:32:43.139429: E   38501 tensorflow/compiler/xla/xla_client/xla_util.cc:72]   %broadcast.356 = bf16[512,64,56,56]{3,2,1,0} broadcast(bf16[] %constant.355), dimensions={}
2019-12-04 19:32:43.139434: E   38586 tensorflow/compiler/xla/xla_client/xla_util.cc:72]   %convolution.343 = bf16[512,64,56,56]{3,2,1,0} convolution(bf16[512,64,56,56]{3,2,1,0} %maximum.342, bf16[64,64,3,3]{1,0,3,2} %p35.322), window={size=3x3 pad=1_1x1_1}, dim_labels=bf01_oi01->bf01
2019-12-04 19:32:43.139435: E   38714 tensorflow/compiler/xla/xla_client/xla_util.cc:72]   %constant.340 = bf16[] constant(0)
2019-12-04 19:32:43.139437: E   38524 tensorflow/compiler/xla/xla_client/xla_util.cc:72]   %get-tuple-element.360 = bf16[512,256,56,56]{3,2,1,0} get-tuple-element((bf16[512,256,56,56]{3,2,1,0}, bf16[256]{0}, bf16[256]{0}) %batch-norm-training.359), index=0
2019-12-04 19:32:43.139438: E   38501 tensorflow/compiler/xla/xla_client/xla_util.cc:72]   %maximum.357 = bf16[512,64,56,56]{3,2,1,0} maximum(bf16[512,64,56,56]{3,2,1,0} %get-tuple-element.345, bf16[512,64,56,56]{3,2,1,0} %broadcast.356)
2019-12-04 19:32:43.139441: E   38586 tensorflow/compiler/xla/xla_client/xla_util.cc:72]   %p34.321 = bf16[64]{0} parameter(34)
2019-12-04 19:32:43.139443: E   38714 tensorflow/compiler/xla/xla_client/xla_util.cc:72]   %broadcast.341 = bf16[512,64,56,56]{3,2,1,0} broadcast(bf16[] %constant.340), dimensions={}
2019-12-04 19:32:43.139446: E   38524 tensorflow/compiler/xla/xla_client/xla_util.cc:72]   %get-tuple-element.302 = bf16[512,256,56,56]{3,2,1,0} get-tuple-element((bf16[512,256,56,56]{3,2,1,0}, bf16[256]{0}, bf16[256]{0}) %batch-norm-training.301), index=0
2019-12-04 19:32:43.139447: E   38501 tensorflow/compiler/xla/xla_client/xla_util.cc:72]   %p30.317 = bf16[256,64,1,1]{0,1,3,2} parameter(30)
2019-12-04 19:32:43.139449: E   38586 tensorflow/compiler/xla/xla_client/xla_util.cc:72]   %p33.320 = bf16[64]{0} parameter(33)
2019-12-04 19:32:43.139451: E   38714 tensorflow/compiler/xla/xla_client/xla_util.cc:72]   %maximum.342 = bf16[512,64,56,56]{3,2,1,0} maximum(bf16[512,64,56,56]{3,2,1,0} %get-tuple-element.330, bf16[512,64,56,56]{3,2,1,0} %broadcast.341)
2019-12-04 19:32:43.139457: E   38501 tensorflow/compiler/xla/xla_client/xla_util.cc:72]   %convolution.358 = bf16[512,256,56,56]{3,2,1,0} convolution(bf16[512,64,56,56]{3,2,1,0} %maximum.357, bf16[256,64,1,1]{0,1,3,2} %p30.317), window={size=1x1}, dim_labels=bf01_oi01->bf01
2019-12-04 19:32:43.139457: E   38524 tensorflow/compiler/xla/xla_client/xla_util.cc:72]   %constant.261 = bf16[] constant(1)
2019-12-04 19:32:43.139459: E   38714 tensorflow/compiler/xla/xla_client/xla_util.cc:72]   %p35.322 = bf16[64,64,3,3]{1,0,3,2} parameter(35)
2019-12-04 19:32:43.139466: E   38501 tensorflow/compiler/xla/xla_client/xla_util.cc:72]   %p29.316 = bf16[256]{0} parameter(29)
2019-12-04 19:32:43.139468: E   38714 tensorflow/compiler/xla/xla_client/xla_util.cc:72]   %convolution.343 = bf16[512,64,56,56]{3,2,1,0} convolution(bf16[512,64,56,56]{3,2,1,0} %maximum.342, bf16[64,64,3,3]{1,0,3,2} %p35.322), window={size=3x3 pad=1_1x1_1}, dim_labels=bf01_oi01->bf01
2019-12-04 19:32:43.139458: E   38586 tensorflow/compiler/xla/xla_client/xla_util.cc:72]   %batch-norm-training.344 = (bf16[512,64,56,56]{3,2,1,0}, bf16[64]{0}, bf16[64]{0}) batch-norm-training(bf16[512,64,56,56]{3,2,1,0} %convolution.343, bf16[64]{0} %p34.321, bf16[64]{0} %p33.320), epsilon=1e-05, feature_index=1
2019-12-04 19:32:43.139468: E   38524 tensorflow/compiler/xla/xla_client/xla_util.cc:72]   %reshape.262 = bf16[1,1,1,1]{3,2,1,0} reshape(bf16[] %constant.261)
2019-12-04 19:32:43.139475: E   38501 tensorflow/compiler/xla/xla_client/xla_util.cc:72]   %p28.315 = bf16[256]{0} parameter(28)
2019-12-04 19:32:43.139475: E   38714 tensorflow/compiler/xla/xla_client/xla_util.cc:72]   %p34.321 = bf16[64]{0} parameter(34)
2019-12-04 19:32:43.139477: E   38586 tensorflow/compiler/xla/xla_client/xla_util.cc:72]   %get-tuple-element.346 = bf16[64]{0} get-tuple-element((bf16[512,64,56,56]{3,2,1,0}, bf16[64]{0}, bf16[64]{0}) %batch-norm-training.344), index=1
2019-12-04 19:32:43.139478: E   38524 tensorflow/compiler/xla/xla_client/xla_util.cc:72]   %broadcast.263 = bf16[1,1,1,1]{3,2,1,0} broadcast(bf16[1,1,1,1]{3,2,1,0} %reshape.262), dimensions={0,1,2,3}
2019-12-04 19:32:43.139485: E   38714 tensorflow/compiler/xla/xla_client/xla_util.cc:72]   %p33.320 = bf16[64]{0} parameter(33)
2019-12-04 19:32:43.139484: E   38501 tensorflow/compiler/xla/xla_client/xla_util.cc:72]   %batch-norm-training.359 = (bf16[512,256,56,56]{3,2,1,0}, bf16[256]{0}, bf16[256]{0}) batch-norm-training(bf16[512,256,56,56]{3,2,1,0} %convolution.358, bf16[256]{0} %p29.316, bf16[256]{0} %p28.315), epsilon=1e-05, feature_index=1
2019-12-04 19:32:43.139485: E   38586 tensorflow/compiler/xla/xla_client/xla_util.cc:72]   %constant.349 = bf16[] constant(1)
2019-12-04 19:32:43.139487: E   38524 tensorflow/compiler/xla/xla_client/xla_util.cc:72]   %reshape.264 = bf16[] reshape(bf16[1,1,1,1]{3,2,1,0} %broadcast.263)
2019-12-04 19:32:43.139493: E   38714 tensorflow/compiler/xla/xla_client/xla_util.cc:72]   %batch-norm-training.344 = (bf16[512,64,56,56]{3,2,1,0}, bf16[64]{0}, bf16[64]{0}) batch-norm-training(bf16[512,64,56,56]{3,2,1,0} %convolution.343, bf16[64]{0} %p34.321, bf16[64]{0} %p33.320), epsilon=1e-05, feature_index=1
2019-12-04 19:32:43.139495: E   38586 tensorflow/compiler/xla/xla_client/xla_util.cc:72]   %broadcast.353 = bf16[64]{0} broadcast(bf16[] %constant.349), dimensions={}
2019-12-04 19:32:43.139495: E   38501 tensorflow/compiler/xla/xla_client/xla_util.cc:72]   %get-tuple-element.361 = bf16[256]{0} get-tuple-element((bf16[512,256,56,56]{3,2,1,0}, bf16[256]{0}, bf16[256]{0}) %batch-norm-training.359), index=1
2019-12-04 19:32:43.139496: E   38524 tensorflow/compiler/xla/xla_client/xla_util.cc:72]   %broadcast.265 = bf16[512,256,56,56]{3,2,1,0} broadcast(bf16[] %reshape.264), dimensions={}
2019-12-04 19:32:43.139502: E   38714 tensorflow/compiler/xla/xla_client/xla_util.cc:72]   %get-tuple-element.346 = bf16[64]{0} get-tuple-element((bf16[512,64,56,56]{3,2,1,0}, bf16[64]{0}, bf16[64]{0}) %batch-norm-training.344), index=1
2019-12-04 19:32:43.139503: E   38586 tensorflow/compiler/xla/xla_client/xla_util.cc:72]   %get-tuple-element.347 = bf16[64]{0} get-tuple-element((bf16[512,64,56,56]{3,2,1,0}, bf16[64]{0}, bf16[64]{0}) %batch-norm-training.344), index=2
2019-12-04 19:32:43.139504: E   38501 tensorflow/compiler/xla/xla_client/xla_util.cc:72]   %constant.364 = bf16[] constant(1)
2019-12-04 19:32:43.139505: E   38524 tensorflow/compiler/xla/xla_client/xla_util.cc:72]   %multiply.312 = bf16[512,256,56,56]{3,2,1,0} multiply(bf16[512,256,56,56]{3,2,1,0} %get-tuple-element.302, bf16[512,256,56,56]{3,2,1,0} %broadcast.265)
2019-12-04 19:32:43.139510: E   38714 tensorflow/compiler/xla/xla_client/xla_util.cc:72]   %constant.349 = bf16[] constant(1)
2019-12-04 19:32:43.139511: E   38586 tensorflow/compiler/xla/xla_client/xla_util.cc:72]   %constant.348 = bf16[] constant(1.001e-05)
2019-12-04 19:32:43.139514: E   38501 tensorflow/compiler/xla/xla_client/xla_util.cc:72]   %broadcast.368 = bf16[256]{0} broadcast(bf16[] %constant.364), dimensions={}
2019-12-04 19:32:43.139514: E   38524 tensorflow/compiler/xla/xla_client/xla_util.cc:72]   %add.370 = bf16[512,256,56,56]{3,2,1,0} add(bf16[512,256,56,56]{3,2,1,0} %get-tuple-element.360, bf16[512,256,56,56]{3,2,1,0} %multiply.312)
2019-12-04 19:32:43.139519: E   38714 tensorflow/compiler/xla/xla_client/xla_util.cc:72]   %broadcast.353 = bf16[64]{0} broadcast(bf16[] %constant.349), dimensions={}
2019-12-04 19:32:43.139519: E   38586 tensorflow/compiler/xla/xla_client/xla_util.cc:72]   %broadcast.350 = bf16[64]{0} broadcast(bf16[] %constant.348), dimensions={}
2019-12-04 19:32:43.139524: E   38524 tensorflow/compiler/xla/xla_client/xla_util.cc:72]   %constant.371 = bf16[] constant(0)
2019-12-04 19:32:43.139524: E   38501 tensorflow/compiler/xla/xla_client/xla_util.cc:72]   %get-tuple-element.362 = bf16[256]{0} get-tuple-element((bf16[512,256,56,56]{3,2,1,0}, bf16[256]{0}, bf16[256]{0}) %batch-norm-training.359), index=2
2019-12-04 19:32:43.139527: E   38714 tensorflow/compiler/xla/xla_client/xla_util.cc:72]   %get-tuple-element.347 = bf16[64]{0} get-tuple-element((bf16[512,64,56,56]{3,2,1,0}, bf16[64]{0}, bf16[64]{0}) %batch-norm-training.344), index=2
2019-12-04 19:32:43.139527: E   38586 tensorflow/compiler/xla/xla_client/xla_util.cc:72]   %add.351 = bf16[64]{0} add(bf16[64]{0} %get-tuple-element.347, bf16[64]{0} %broadcast.350)
2019-12-04 19:32:43.139533: E   38524 tensorflow/compiler/xla/xla_client/xla_util.cc:72]   %broadcast.372 = bf16[512,256,56,56]{3,2,1,0} broadcast(bf16[] %constant.371), dimensions={}
2019-12-04 19:32:43.139534: E   38714 tensorflow/compiler/xla/xla_client/xla_util.cc:72]   %constant.348 = bf16[] constant(1.001e-05)
2019-12-04 19:32:43.139535: E   38586 tensorflow/compiler/xla/xla_client/xla_util.cc:72]   %sqrt.352 = bf16[64]{0} sqrt(bf16[64]{0} %add.351)
2019-12-04 19:32:43.139534: E   38501 tensorflow/compiler/xla/xla_client/xla_util.cc:72]   %constant.363 = bf16[] constant(1.001e-05)
2019-12-04 19:32:43.139541: E   38524 tensorflow/compiler/xla/xla_client/xla_util.cc:72]   %maximum.373 = bf16[512,256,56,56]{3,2,1,0} maximum(bf16[512,256,56,56]{3,2,1,0} %add.370, bf16[512,256,56,56]{3,2,1,0} %broadcast.372)
2019-12-04 19:32:43.139542: E   38714 tensorflow/compiler/xla/xla_client/xla_util.cc:72]   %broadcast.350 = bf16[64]{0} broadcast(bf16[] %constant.348), dimensions={}
2019-12-04 19:32:43.139543: E   38586 tensorflow/compiler/xla/xla_client/xla_util.cc:72]   %divide.354 = bf16[64]{0} divide(bf16[64]{0} %broadcast.353, bf16[64]{0} %sqrt.352)
2019-12-04 19:32:43.139546: E   38501 tensorflow/compiler/xla/xla_client/xla_util.cc:72]   %broadcast.365 = bf16[256]{0} broadcast(bf16[] %constant.363), dimensions={}
…
2019-12-04 19:33:08.271962: E   38650 tensorflow/compiler/xla/xla_client/xla_util.cc:72]   %constant.1635 = bf16[] constant(0)
2019-12-04 19:33:08.271963: E   38778 tensorflow/compiler/xla/xla_client/xla_util.cc:72]   %batch-norm-training.1732 = (bf16[512,256,14,14]{3,2,1,0}, bf16[256]{0}, bf16[256]{0}) batch-norm-training(bf16[512,256,14,14]{3,2,1,0} %convolution.1731, bf16[256]{0} %p364.1709, bf16[256]{0} %p363.1708), epsilon=1e-05, feature_index=1
2019-12-04 19:33:08.271964: E   38919 tensorflow/compiler/xla/xla_client/xla_util.cc:72]   %get-tuple-element.1501 = bf16[1024]{0} get-tuple-element((bf16[512,1024,14,14]{3,2,1,0}, bf16[1024]{0}, bf16[1024]{0}) %batch-norm-training.1499), index=1
2019-12-04 19:33:08.271964: E   38501 tensorflow/compiler/xla/xla_client/xla_util.cc:72]   %broadcast.2904 = bf16[256]{0} broadcast(bf16[] %constant.2900), dimensions={}
2019-12-04 19:33:08.271966: E   38855 tensorflow/compiler/xla/xla_client/xla_util.cc:72]   %add.1724 = bf16[256]{0} add(bf16[256]{0} %get-tuple-element.1720, bf16[256]{0} %broadcast.1723)
2019-12-04 19:33:08.271967: E   38650 tensorflow/compiler/xla/xla_client/xla_util.cc:72]   %broadcast.1636 = bf16[512,1024,14,14]{3,2,1,0} broadcast(bf16[] %constant.1635), dimensions={}
2019-12-04 19:33:08.271968: E   38778 tensorflow/compiler/xla/xla_client/xla_util.cc:72]   %get-tuple-element.1734 = bf16[256]{0} get-tuple-element((bf16[512,256,14,14]{3,2,1,0}, bf16[256]{0}, bf16[256]{0}) %batch-norm-training.1732), index=1
2019-12-04 19:33:08.271970: E   38919 tensorflow/compiler/xla/xla_client/xla_util.cc:72]   %constant.1504 = bf16[] constant(1)
2019-12-04 19:33:08.271970: E   38501 tensorflow/compiler/xla/xla_client/xla_util.cc:72]   %get-tuple-element.2898 = bf16[256]{0} get-tuple-element((bf16[512,256,14,14]{3,2,1,0}, bf16[256]{0}, bf16[256]{0}) %batch-norm-training.2895), index=2
2019-12-04 19:33:08.271971: E   38855 tensorflow/compiler/xla/xla_client/xla_util.cc:72]   %sqrt.1725 = bf16[256]{0} sqrt(bf16[256]{0} %add.1724)
2019-12-04 19:33:08.271972: E   38650 tensorflow/compiler/xla/xla_client/xla_util.cc:72]   %maximum.1637 = bf16[512,1024,14,14]{3,2,1,0} maximum(bf16[512,1024,14,14]{3,2,1,0} %add.1634, bf16[512,1024,14,14]{3,2,1,0} %broadcast.1636)
2019-12-04 19:33:08.271974: E   38778 tensorflow/compiler/xla/xla_client/xla_util.cc:72]   %constant.1737 = bf16[] constant(1)
2019-12-04 19:33:08.271975: E   38919 tensorflow/compiler/xla/xla_client/xla_util.cc:72]   %broadcast.1508 = bf16[1024]{0} broadcast(bf16[] %constant.1504), dimensions={}
2019-12-04 19:33:08.271975: E   38501 tensorflow/compiler/xla/xla_client/xla_util.cc:72]   %constant.2899 = bf16[] constant(1.001e-05)
2019-12-04 19:33:08.271976: E   38855 tensorflow/compiler/xla/xla_client/xla_util.cc:72]   %divide.1727 = bf16[256]{0} divide(bf16[256]{0} %broadcast.1726, bf16[256]{0} %sqrt.1725)
2019-12-04 19:33:08.271977: E   38650 tensorflow/compiler/xla/xla_client/xla_util.cc:72]   %p355.1653 = bf16[256,1024,1,1]{1,0,3,2} parameter(355)
2019-12-04 19:33:08.271979: E   38778 tensorflow/compiler/xla/xla_client/xla_util.cc:72]   %broadcast.1741 = bf16[256]{0} broadcast(bf16[] %constant.1737), dimensions={}
2019-12-04 19:33:08.271980: E   38919 tensorflow/compiler/xla/xla_client/xla_util.cc:72]   %get-tuple-element.1502 = bf16[1024]{0} get-tuple-element((bf16[512,1024,14,14]{3,2,1,0}, bf16[1024]{0}, bf16[1024]{0}) %batch-norm-training.1499), index=2
2019-12-04 19:33:08.271981: E   38501 tensorflow/compiler/xla/xla_client/xla_util.cc:72]   %broadcast.2901 = bf16[256]{0} broadcast(bf16[] %constant.2899), dimensions={}
2019-12-04 19:33:08.271981: E   38855 tensorflow/compiler/xla/xla_client/xla_util.cc:72]   %get-tuple-element.1718 = bf16[512,256,14,14]{3,2,1,0} get-tuple-element((bf16[512,256,14,14]{3,2,1,0}, bf16[256]{0}, bf16[256]{0}) %batch-norm-training.1717), index=0
2019-12-04 19:33:08.271982: E   38650 tensorflow/compiler/xla/xla_client/xla_util.cc:72]   %convolution.1654 = bf16[512,256,14,14]{3,2,1,0} convolution(bf16[512,1024,14,14]{3,2,1,0} %maximum.1637, bf16[256,1024,1,1]{1,0,3,2} %p355.1653), window={size=1x1}, dim_labels=bf01_oi01->bf01
2019-12-04 19:33:08.271984: E   38778 tensorflow/compiler/xla/xla_client/xla_util.cc:72]   %get-tuple-element.1735 = bf16[256]{0} get-tuple-element((bf16[512,256,14,14]{3,2,1,0}, bf16[256]{0}, bf16[256]{0}) %batch-norm-training.1732), index=2
2019-12-04 19:33:08.271985: E   38919 tensorflow/compiler/xla/xla_client/xla_util.cc:72]   %constant.1503 = bf16[] constant(1.001e-05)
2019-12-04 19:33:08.271986: E   38501 tensorflow/compiler/xla/xla_client/xla_util.cc:72]   %add.2902 = bf16[256]{0} add(bf16[256]{0} %get-tuple-element.2898, bf16[256]{0} %broadcast.2901)
2019-12-04 19:33:08.271986: E   38855 tensorflow/compiler/xla/xla_client/xla_util.cc:72]   %constant.1728 = bf16[] constant(0)
2019-12-04 19:33:08.271988: E   38650 tensorflow/compiler/xla/xla_client/xla_util.cc:72]   %p354.1652 = bf16[256]{0} parameter(354)
2019-12-04 19:33:08.271990: E   38778 tensorflow/compiler/xla/xla_client/xla_util.cc:72]   %constant.1736 = bf16[] constant(1.001e-05)
2019-12-04 19:33:08.271991: E   38919 tensorflow/compiler/xla/xla_client/xla_util.cc:72]   %broadcast.1505 = bf16[1024]{0} broadcast(bf16[] %constant.1503), dimensions={}
2019-12-04 19:33:08.271992: E   38501 tensorflow/compiler/xla/xla_client/xla_util.cc:72]   %sqrt.2903 = bf16[256]{0} sqrt(bf16[256]{0} %add.2902)
2019-12-04 19:33:08.271992: E   38855 tensorflow/compiler/xla/xla_client/xla_util.cc:72]   %broadcast.1729 = bf16[512,256,14,14]{3,2,1,0} broadcast(bf16[] %constant.1728), dimensions={}
2019-12-04 19:33:08.271993: E   38650 tensorflow/compiler/xla/xla_client/xla_util.cc:72]   %p353.1651 = bf16[256]{0} parameter(353)
2019-12-04 19:33:08.271995: E   38778 tensorflow/compiler/xla/xla_client/xla_util.cc:72]   %broadcast.1738 = bf16[256]{0} broadcast(bf16[] %constant.1736), dimensions={}
2019-12-04 19:33:08.271995: E   38919 tensorflow/compiler/xla/xla_client/xla_util.cc:72]   %add.1506 = bf16[1024]{0} add(bf16[1024]{0} %get-tuple-element.1502, bf16[1024]{0} %broadcast.1505)
2019-12-04 19:33:08.271998: E   38501 tensorflow/compiler/xla/xla_client/xla_util.cc:72]   %divide.2905 = bf16[256]{0} divide(bf16[256]{0} %broadcast.2904, bf16[256]{0} %sqrt.2903)
2019-12-04 19:33:08.271998: E   38855 tensorflow/compiler/xla/xla_client/xla_util.cc:72]   %maximum.1730 = bf16[512,256,14,14]{3,2,1,0} maximum(bf16[512,256,14,14]{3,2,1,0} %get-tuple-element.1718, bf16[512,256,14,14]{3,2,1,0} %broadcast.1729)
2019-12-04 19:33:08.271998: E   38650 tensorflow/compiler/xla/xla_client/xla_util.cc:72]   %batch-norm-training.1655 = (bf16[512,256,14,14]{3,2,1,0}, bf16[256]{0}, bf16[256]{0}) batch-norm-training(bf16[512,256,14,14]{3,2,1,0} %convolution.1654, bf16[256]{0} %p354.1652, bf16[256]{0} %p353.1651), epsilon=1e-05, feature_index=1
2019-12-04 19:33:08.272000: E   38778 tensorflow/compiler/xla/xla_client/xla_util.cc:72]   %add.1739 = bf16[256]{0} add(bf16[256]{0} %get-tuple-element.1735, bf16[256]{0} %broadcast.1738)
2019-12-04 19:33:08.272000: E   38919 tensorflow/compiler/xla/xla_client/xla_util.cc:72]   %sqrt.1507 = bf16[1024]{0} sqrt(bf16[1024]{0} %add.1506)
2019-12-04 19:33:08.272003: E   38501 tensorflow/compiler/xla/xla_client/xla_util.cc:72]   %get-tuple-element.2896 = bf16[512,256,14,14]{3,2,1,0} get-tuple-element((bf16[512,256,14,14]{3,2,1,0}, bf16[256]{0}, bf16[256]{0}) %batch-norm-training.2895), index=0
2019-12-04 19:33:08.272003: E   38855 tensorflow/compiler/xla/xla_client/xla_util.cc:72]   %p365.1710 = bf16[256,256,3,3]{1,0,3,2} parameter(365)
2019-12-04 19:33:08.272004: E   38650 tensorflow/compiler/xla/xla_client/xla_util.cc:72]   %get-tuple-element.1657 = bf16[256]{0} get-tuple-element((bf16[512,256,14,14]{3,2,1,0}, bf16[256]{0}, bf16[256]{0}) %batch-norm-training.1655), index=1
2019-12-04 19:33:08.272005: E   38778 tensorflow/compiler/xla/xla_client/xla_util.cc:72]   %sqrt.1740 = bf16[256]{0} sqrt(bf16[256]{0} %add.1739)
2019-12-04 19:33:08.272005: E   38919 tensorflow/compiler/xla/xla_client/xla_util.cc:72]   %divide.1509 = bf16[1024]{0} divide(bf16[1024]{0} %broadcast.1508, bf16[1024]{0} %sqrt.1507)
2019-12-04 19:33:08.272008: E   38501 tensorflow/compiler/xla/xla_client/xla_util.cc:72]   %constant.2906 = bf16[] constant(0)
2019-12-04 19:33:08.272008: E   38855 tensorflow/compiler/xla/xla_client/xla_util.cc:72]   %convolution.1731 = bf16[512,256,14,14]{3,2,1,0} convolution(bf16[512,256,14,14]{3,2,1,0} %maximum.1730, bf16[256,256,3,3]{1,0,3,2} %p365.1710), window={size=3x3 pad=1_1x1_1}, dim_labels=bf01_oi01->bf01
2019-12-04 19:33:08.272009: E   38650 tensorflow/compiler/xla/xla_client/xla_util.cc:72]   %constant.1660 = bf16[] constant(1)
2019-12-04 19:33:08.272010: E   38778 tensorflow/compiler/xla/xla_client/xla_util.cc:72]   %divide.1742 = bf16[256]{0} divide(bf16[256]{0} %broadcast.1741, bf16[256]{0} %sqrt.1740)
2019-12-04 19:33:08.272010: E   38919 tensorflow/compiler/xla/xla_client/xla_util.cc:72]   %p311.1515 = bf16[1024]{0} parameter(311)
2019-12-04 19:33:08.272014: E   38501 tensorflow/compiler/xla/xla_client/xla_util.cc:72]   %broadcast.2907 = bf16[512,256,14,14]{3,2,1,0} broadcast(bf16[] %constant.2906), dimensions={}
2019-12-04 19:33:08.272014: E   38855 tensorflow/compiler/xla/xla_client/xla_util.cc:72]   %p364.1709 = bf16[256]{0} parameter(364)
2019-12-04 19:33:08.272015: E   38650 tensorflow/compiler/xla/xla_client/xla_util.cc:72]   %broadcast.1664 = bf16[256]{0} broadcast(bf16[] %constant.1660), dimensions={}
2019-12-04 19:33:08.272015: E   38778 tensorflow/compiler/xla/xla_client/xla_util.cc:72]   %get-tuple-element.1733 = bf16[512,256,14,14]{3,2,1,0} get-tuple-element((bf16[512,256,14,14]{3,2,1,0}, bf16[256]{0}, bf16[256]{0}) %batch-norm-training.1732), index=0
2019-12-04 19:33:08.272015: E   38919 tensorflow/compiler/xla/xla_client/xla_util.cc:72]   %p312.1516 = bf16[1024]{0} parameter(312)
2019-12-04 19:33:08.272020: E   38855 tensorflow/compiler/xla/xla_client/xla_util.cc:72]   %p363.1708 = bf16[256]{0} parameter(363)
2019-12-04 19:33:08.272020: E   38650 tensorflow/compiler/xla/xla_client/xla_util.cc:72]   %get-tuple-element.1658 = bf16[256]{0} get-tuple-element((bf16[512,256,14,14]{3,2,1,0}, bf16[256]{0}, bf16[256]{0}) %batch-norm-training.1655), index=2
2019-12-04 19:33:08.272020: E   38501 tensorflow/compiler/xla/xla_client/xla_util.cc:72]   %maximum.2908 = bf16[512,256,14,14]{3,2,1,0} maximum(bf16[512,256,14,14]{3,2,1,0} %get-tuple-element.2896, bf16[512,256,14,14]{3,2,1,0} %broadcast.2907)
2019-12-04 19:33:08.272021: E   38778 tensorflow/compiler/xla/xla_client/xla_util.cc:72]   %constant.1743 = bf16[] constant(0)
2019-12-04 19:33:08.272021: E   38919 tensorflow/compiler/xla/xla_client/xla_util.cc:72]   %p316.1520 = bf16[256]{0} parameter(316)
2019-12-04 19:33:08.272025: E   38855 tensorflow/compiler/xla/xla_client/xla_util.cc:72]   %batch-norm-training.1732 = (bf16[512,256,14,14]{3,2,1,0}, bf16[256]{0}, bf16[256]{0}) batch-norm-training(bf16[512,256,14,14]{3,2,1,0} %convolution.1731, bf16[256]{0} %p364.1709, bf16[256]{0} %p363.1708), epsilon=1e-05, feature_index=1
2019-12-04 19:33:08.272025: E   38650 tensorflow/compiler/xla/xla_client/xla_util.cc:72]   %constant.1659 = bf16[] constant(1.001e-05)
2019-12-04 19:33:08.272026: E   38501 tensorflow/compiler/xla/xla_client/xla_util.cc:72]   %p650.2888 = bf16[256,256,3,3]{1,0,3,2} parameter(650)
2019-12-04 19:33:08.272027: E   38778 tensorflow/compiler/xla/xla_client/xla_util.cc:72]   %broadcast.1744 = bf16[512,256,14,14]{3,2,1,0} broadcast(bf16[] %constant.1743), dimensions={}
2019-12-04 19:33:08.272027: E   38919 tensorflow/compiler/xla/xla_client/xla_util.cc:72]   %p317.1521 = bf16[256]{0} parameter(317)
2019-12-04 19:33:08.272031: E   38855 tensorflow/compiler/xla/xla_client/xla_util.cc:72]   %get-tuple-element.1734 = bf16[256]{0} get-tuple-element((bf16[512,256,14,14]{3,2,1,0}, bf16[256]{0}, bf16[256]{0}) %batch-norm-training.1732), index=1
2019-12-04 19:33:08.272031: E   38650 tensorflow/compiler/xla/xla_client/xla_util.cc:72]   %broadcast.1661 = bf16[256]{0} broadcast(bf16[] %constant.1659), dimensions={}
2019-12-04 19:33:08.272033: E   38919 tensorflow/compiler/xla/xla_client/xla_util.cc:72]   %p321.1525 = bf16[256]{0} parameter(321)
2019-12-04 19:33:08.272048: E   38919 tensorflow/compiler/xla/xla_client/xla_util.cc:72]   %p322.1526 = bf16[256]{0} parameter(322)
2019-12-04 19:33:08.272036: E   38855 tensorflow/compiler/xla/xla_client/xla_util.cc:72]   %constant.1737 = bf16[] constant(1)
2019-12-04 19:33:08.727193: E   38919 tensorflow/compiler/xla/xla_client/xla_util.cc:72]   %get-tuple-element.1500 = bf16[512,1024,14,14]{3,2,1,0} get-tuple-element((bf16[512,1024,14,14]{3,2,1,0}, bf16[1024]{0}, bf16[1024]{0}) %batch-norm-training.1499), index=0
2019-12-04 19:33:08.727199: E   38855 tensorflow/compiler/xla/xla_client/xla_util.cc:72]   %broadcast.1741 = bf16[256]{0} broadcast(bf16[] %constant.1737), dimensions={}
2019-12-04 19:33:08.272037: E   38650 tensorflow/compiler/xla/xla_client/xla_util.cc:72]   %add.1662 = bf16[256]{0} add(bf16[256]{0} %get-tuple-element.1658, bf16[256]{0} %broadcast.1661)
2019-12-04 19:33:08.727238: E   38919 tensorflow/compiler/xla/xla_client/xla_util.cc:72]   %constant.161 = bf16[] constant(1)
2019-12-04 19:33:08.727240: E   38855 tensorflow/compiler/xla/xla_client/xla_util.cc:72]   %get-tuple-element.1735 = bf16[256]{0} get-tuple-element((bf16[512,256,14,14]{3,2,1,0}, bf16[256]{0}, bf16[256]{0}) %batch-norm-training.1732), index=2
2019-12-04 19:33:08.727244: E   38919 tensorflow/compiler/xla/xla_client/xla_util.cc:72]   %reshape.162 = bf16[1,1,1,1]{3,2,1,0} reshape(bf16[] %constant.161)
2019-12-04 19:33:08.727247: E   38855 tensorflow/compiler/xla/xla_client/xla_util.cc:72]   %constant.1736 = bf16[] constant(1.001e-05)
2019-12-04 19:33:08.727249: E   38919 tensorflow/compiler/xla/xla_client/xla_util.cc:72]   %broadcast.163 = bf16[1,1,1,1]{3,2,1,0} broadcast(bf16[1,1,1,1]{3,2,1,0} %reshape.162), dimensions={0,1,2,3}
2019-12-04 19:33:08.727252: E   38855 tensorflow/compiler/xla/xla_client/xla_util.cc:72]   %broadcast.1738 = bf16[256]{0} broadcast(bf16[] %constant.1736), dimensions={}
2019-12-04 19:33:08.727254: E   38919 tensorflow/compiler/xla/xla_client/xla_util.cc:72]   %reshape.164 = bf16[] reshape(bf16[1,1,1,1]{3,2,1,0} %broadcast.163)
2019-12-04 19:33:08.727257: E   38855 tensorflow/compiler/xla/xla_client/xla_util.cc:72]   %add.1739 = bf16[256]{0} add(bf16[256]{0} %get-tuple-element.1735, bf16[256]{0} %broadcast.1738)
2019-12-04 19:33:08.727258: E   38919 tensorflow/compiler/xla/xla_client/xla_util.cc:72]   %broadcast.165 = bf16[512,1024,14,14]{3,2,1,0} broadcast(bf16[] %reshape.164), dimensions={}
2019-12-04 19:33:08.727261: E   38855 tensorflow/compiler/xla/xla_client/xla_util.cc:72]   %sqrt.1740 = bf16[256]{0} sqrt(bf16[256]{0} %add.1739)
2019-12-04 19:33:08.727263: E   38919 tensorflow/compiler/xla/xla_client/xla_util.cc:72]   %multiply.1452 = bf16[512,1024,14,14]{3,2,1,0} multiply(bf16[512,1024,14,14]{3,2,1,0} %maximum.1451, bf16[512,1024,14,14]{3,2,1,0} %broadcast.165)
2019-12-04 19:33:08.727266: E   38855 tensorflow/compiler/xla/xla_client/xla_util.cc:72]   %divide.1742 = bf16[256]{0} divide(bf16[256]{0} %broadcast.1741, bf16[256]{0} %sqrt.1740)
2019-12-04 19:33:08.727268: E   38919 tensorflow/compiler/xla/xla_client/xla_util.cc:72]   %add.1510 = bf16[512,1024,14,14]{3,2,1,0} add(bf16[512,1024,14,14]{3,2,1,0} %get-tuple-element.1500, bf16[512,1024,14,14]{3,2,1,0} %multiply.1452)
2019-12-04 19:33:08.727270: E   38855 tensorflow/compiler/xla/xla_client/xla_util.cc:72]   %get-tuple-element.1733 = bf16[512,256,14,14]{3,2,1,0} get-tuple-element((bf16[512,256,14,14]{3,2,1,0}, bf16[256]{0}, bf16[256]{0}) %batch-norm-training.1732), index=0
2019-12-04 19:33:08.727272: E   38919 tensorflow/compiler/xla/xla_client/xla_util.cc:72]   %constant.1511 = bf16[] constant(0)
2019-12-04 19:33:08.727275: E   38855 tensorflow/compiler/xla/xla_client/xla_util.cc:72]   %constant.1743 = bf16[] constant(0)
2019-12-04 19:33:08.727277: E   38919 tensorflow/compiler/xla/xla_client/xla_util.cc:72]   %broadcast.1512 = bf16[512,1024,14,14]{3,2,1,0} broadcast(bf16[] %constant.1511), dimensions={}
2019-12-04 19:33:08.727280: E   38855 tensorflow/compiler/xla/xla_client/xla_util.cc:72]   %broadcast.1744 = bf16[512,256,14,14]{3,2,1,0} broadcast(bf16[] %constant.1743), dimensions={}
2019-12-04 19:33:08.727281: E   38919 tensorflow/compiler/xla/xla_client/xla_util.cc:72]   %maximum.1513 = bf16[512,1024,14,14]{3,2,1,0} maximum(bf16[512,1024,14,14]{3,2,1,0} %add.1510, bf16[512,1024,14,14]{3,2,1,0} %broadcast.1512)
2019-12-04 19:33:08.727284: E   38855 tensorflow/compiler/xla/xla_client/xla_util.cc:72]   %maximum.1745 = bf16[512,256,14,14]{3,2,1,0} maximum(bf16[512,256,14,14]{3,2,1,0} %get-tuple-element.1733, bf16[512,256,14,14]{3,2,1,0} %broadcast.1744)
2019-12-04 19:33:08.727286: E   38919 tensorflow/compiler/xla/xla_client/xla_util.cc:72]   %p325.1529 = bf16[256,1024,1,1]{1,0,3,2} parameter(325)
2019-12-04 19:33:08.727264: E   38650 tensorflow/compiler/xla/xla_client/xla_util.cc:72]   %sqrt.1663 = bf16[256]{0} sqrt(bf16[256]{0} %add.1662)
2019-12-04 19:33:08.727289: E   38855 tensorflow/compiler/xla/xla_client/xla_util.cc:72]   %p360.1705 = bf16[1024,256,1,1]{0,1,3,2} parameter(360)
2019-12-04 19:33:08.727290: E   38919 tensorflow/compiler/xla/xla_client/xla_util.cc:72]   %convolution.1530 = bf16[512,256,14,14]{3,2,1,0} convolution(bf16[512,1024,14,14]{3,2,1,0} %maximum.1513, bf16[256,1024,1,1]{1,0,3,2} %p325.1529), window={size=1x1}, dim_labels=bf01_oi01->bf01
2019-12-04 19:33:08.727294: E   38855 tensorflow/compiler/xla/xla_client/xla_util.cc:72]   %convolution.1746 = bf16[512,1024,14,14]{3,2,1,0} convolution(bf16[512,256,14,14]{3,2,1,0} %maximum.1745, bf16[1024,256,1,1]{0,1,3,2} %p360.1705), window={size=1x1}, dim_labels=bf01_oi01->bf01
2019-12-04 19:33:08.727293: E   38650 tensorflow/compiler/xla/xla_client/xla_util.cc:72]   %divide.1665 = bf16[256]{0} divide(bf16[256]{0} %broadcast.1664, bf16[256]{0} %sqrt.1663)
2019-12-04 19:33:08.727295: E   38919 tensorflow/compiler/xla/xla_client/xla_util.cc:72]   %p324.1528 = bf16[256]{0} parameter(324)
2019-12-04 19:33:08.727298: E   38855 tensorflow/compiler/xla/xla_client/xla_util.cc:72]   %p359.1704 = bf16[1024]{0} parameter(359)
2019-12-04 19:33:08.727300: E   38919 tensorflow/compiler/xla/xla_client/xla_util.cc:72]   %p323.1527 = bf16[256]{0} parameter(323)
2019-12-04 19:33:08.727300: E   38650 tensorflow/compiler/xla/xla_client/xla_util.cc:72]   %get-tuple-element.1656 = bf16[512,256,14,14]{3,2,1,0} get-tuple-element((bf16[512,256,14,14]{3,2,1,0}, bf16[256]{0}, bf16[256]{0}) %batch-norm-training.1655), index=0
2019-12-04 19:33:08.727303: E   38855 tensorflow/compiler/xla/xla_client/xla_util.cc:72]   %p358.1703 = bf16[1024]{0} parameter(358)
2019-12-04 19:33:08.727304: E   38919 tensorflow/compiler/xla/xla_client/xla_util.cc:72]   %batch-norm-training.1531 = (bf16[512,256,14,14]{3,2,1,0}, bf16[256]{0}, bf16[256]{0}) batch-norm-training(bf16[512,256,14,14]{3,2,1,0} %convolution.1530, bf16[256]{0} %p324.1528, bf16[256]{0} %p323.1527), epsilon=1e-05, feature_index=1
2019-12-04 19:33:08.727305: E   38650 tensorflow/compiler/xla/xla_client/xla_util.cc:72]   %constant.1666 = bf16[] constant(0)
2019-12-04 19:33:08.727307: E   38855 tensorflow/compiler/xla/xla_client/xla_util.cc:72]   %batch-norm-training.1747 = (bf16[512,1024,14,14]{3,2,1,0}, bf16[1024]{0}, bf16[1024]{0}) batch-norm-training(bf16[512,1024,14,14]{3,2,1,0} %convolution.1746, bf16[1024]{0} %p359.1704, bf16[1024]{0} %p358.1703), epsilon=1e-05, feature_index=1
2019-12-04 19:33:08.727309: E   38919 tensorflow/compiler/xla/xla_client/xla_util.cc:72]   %get-tuple-element.1533 = bf16[256]{0} get-tuple-element((bf16[512,256,14,14]{3,2,1,0}, bf16[256]{0}, bf16[256]{0}) %batch-norm-training.1531), index=1
2019-12-04 19:33:08.727310: E   38650 tensorflow/compiler/xla/xla_client/xla_util.cc:72]   %broadcast.1667 = bf16[512,256,14,14]{3,2,1,0} broadcast(bf16[] %constant.1666), dimensions={}
2019-12-04 19:33:08.727312: E   38855 tensorflow/compiler/xla/xla_client/xla_util.cc:72]   %get-tuple-element.1749 = bf16[1024]{0} get-tuple-element((bf16[512,1024,14,14]{3,2,1,0}, bf16[1024]{0}, bf16[1024]{0}) %batch-norm-training.1747), index=1
2019-12-04 19:33:08.727314: E   38919 tensorflow/compiler/xla/xla_client/xla_util.cc:72]   %constant.1536 = bf16[] constant(1)
2019-12-04 19:33:08.727315: E   38650 tensorflow/compiler/xla/xla_client/xla_util.cc:72]   %maximum.1668 = bf16[512,256,14,14]{3,2,1,0} maximum(bf16[512,256,14,14]{3,2,1,0} %get-tuple-element.1656, bf16[512,256,14,14]{3,2,1,0} %broadcast.1667)
2019-12-04 19:33:08.727317: E   38855 tensorflow/compiler/xla/xla_client/xla_util.cc:72]   %constant.1752 = bf16[] constant(1)
2019-12-04 19:33:08.727318: E   38919 tensorflow/compiler/xla/xla_client/xla_util.cc:72]   %broadcast.1540 = bf16[256]{0} broadcast(bf16[] %constant.1536), dimensions={}
2019-12-04 19:33:08.727323: E   38919 tensorflow/compiler/xla/xla_client/xla_util.cc:72]   %get-tuple-element.1534 = bf16[256]{0} get-tuple-element((bf16[512,256,14,14]{3,2,1,0}, bf16[256]{0}, bf16[256]{0}) %batch-norm-training.1531), index=2
2019-12-04 19:33:08.727321: E   38855 tensorflow/compiler/xla/xla_client/xla_util.cc:72]   %broadcast.1756 = bf16[1024]{0} broadcast(bf16[] %constant.1752), dimensions={}
2019-12-04 19:33:08.727361: E   38919 tensorflow/compiler/xla/xla_client/xla_util.cc:72]   %constant.1535 = bf16[] constant(1.001e-05)
2019-12-04 19:33:08.727362: E   38855 tensorflow/compiler/xla/xla_client/xla_util.cc:72]   %get-tuple-element.1750 = bf16[1024]{0} get-tuple-element((bf16[512,1024,14,14]{3,2,1,0}, bf16[1024]{0}, bf16[1024]{0}) %batch-norm-training.1747), index=2
2019-12-04 19:33:08.727372: E   38855 tensorflow/compiler/xla/xla_client/xla_util.cc:72]   %constant.1751 = bf16[] constant(1.001e-05)
2019-12-04 19:33:08.727372: E   38919 tensorflow/compiler/xla/xla_client/xla_util.cc:72]   %broadcast.1537 = bf16[256]{0} broadcast(bf16[] %constant.1535), dimensions={}
2019-12-04 19:33:08.727382: E   38919 tensorflow/compiler/xla/xla_client/xla_util.cc:72]   %add.1538 = bf16[256]{0} add(bf16[256]{0} %get-tuple-element.1534, bf16[256]{0} %broadcast.1537)
2019-12-04 19:33:08.727382: E   38855 tensorflow/compiler/xla/xla_client/xla_util.cc:72]   %broadcast.1753 = bf16[1024]{0} broadcast(bf16[] %constant.1751), dimensions={}
2019-12-04 19:33:08.727390: E   38855 tensorflow/compiler/xla/xla_client/xla_util.cc:72]   %add.1754 = bf16[1024]{0} add(bf16[1024]{0} %get-tuple-element.1750, bf16[1024]{0} %broadcast.1753)
2019-12-04 19:33:08.727390: E   38919 tensorflow/compiler/xla/xla_client/xla_util.cc:72]   %sqrt.1539 = bf16[256]{0} sqrt(bf16[256]{0} %add.1538)
2019-12-04 19:33:08.727397: E   38919 tensorflow/compiler/xla/xla_client/xla_util.cc:72]   %divide.1541 = bf16[256]{0} divide(bf16[256]{0} %broadcast.1540, bf16[256]{0} %sqrt.1539)
2019-12-04 19:33:08.727397: E   38855 tensorflow/compiler/xla/xla_client/xla_util.cc:72]   %sqrt.1755 = bf16[1024]{0} sqrt(bf16[1024]{0} %add.1754)
2019-12-04 19:33:08.727404: E   38855 tensorflow/compiler/xla/xla_client/xla_util.cc:72]   %divide.1757 = bf16[1024]{0} divide(bf16[1024]{0} %broadcast.1756, bf16[1024]{0} %sqrt.1755)
2019-12-04 19:33:08.727405: E   38919 tensorflow/compiler/xla/xla_client/xla_util.cc:72]   %get-tuple-element.1532 = bf16[512,256,14,14]{3,2,1,0} get-tuple-element((bf16[512,256,14,14]{3,2,1,0}, bf16[256]{0}, bf16[256]{0}) %batch-norm-training.1531), index=0
2019-12-04 19:33:08.727412: E   38919 tensorflow/compiler/xla/xla_client/xla_util.cc:72]   %constant.1542 = bf16[] constant(0)
2019-12-04 19:33:08.727412: E   38855 tensorflow/compiler/xla/xla_client/xla_util.cc:72]   %p371.1763 = bf16[1024]{0} parameter(371)
2019-12-04 19:33:08.727419: E   38855 tensorflow/compiler/xla/xla_client/xla_util.cc:72]   %p372.1764 = bf16[1024]{0} parameter(372)
2019-12-04 19:33:08.727419: E   38919 tensorflow/compiler/xla/xla_client/xla_util.cc:72]   %broadcast.1543 = bf16[512,256,14,14]{3,2,1,0} broadcast(bf16[] %constant.1542), dimensions={}
2019-12-04 19:33:08.727320: E   38650 tensorflow/compiler/xla/xla_client/xla_util.cc:72]   %p350.1648 = bf16[256,256,3,3]{1,0,3,2} parameter(350)
2019-12-04 19:33:08.727428: E   38855 tensorflow/compiler/xla/xla_client/xla_util.cc:72]   %p376.1768 = bf16[256]{0} parameter(376)
2019-12-04 19:33:08.727428: E   38919 tensorflow/compiler/xla/xla_client/xla_util.cc:72]   %maximum.1544 = bf16[512,256,14,14]{3,2,1,0} maximum(bf16[512,256,14,14]{3,2,1,0} %get-tuple-element.1532, bf16[512,256,14,14]{3,2,1,0} %broadcast.1543)
2019-12-04 19:33:08.727432: E   38855 tensorflow/compiler/xla/xla_client/xla_util.cc:72]   %p377.1769 = bf16[256]{0} parameter(377)
2019-12-04 19:33:08.727433: E   38919 tensorflow/compiler/xla/xla_client/xla_util.cc:72]   %p320.1524 = bf16[256,256,3,3]{1,0,3,2} parameter(320)
2019-12-04 19:33:08.727431: E   38650 tensorflow/compiler/xla/xla_client/xla_util.cc:72]   %convolution.1669 = bf16[512,256,14,14]{3,2,1,0} convolution(bf16[512,256,14,14]{3,2,1,0} %maximum.1668, bf16[256,256,3,3]{1,0,3,2} %p350.1648), window={size=3x3 pad=1_1x1_1}, dim_labels=bf01_oi01->bf01
2019-12-04 19:33:08.727437: E   38855 tensorflow/compiler/xla/xla_client/xla_util.cc:72]   %p381.1773 = bf16[256]{0} parameter(381)
2019-12-04 19:33:08.727437: E   38919 tensorflow/compiler/xla/xla_client/xla_util.cc:72]   %convolution.1545 = bf16[512,256,14,14]{3,2,1,0} convolution(bf16[512,256,14,14]{3,2,1,0} %maximum.1544, bf16[256,256,3,3]{1,0,3,2} %p320.1524), window={size=3x3 pad=1_1x1_1}, dim_labels=bf01_oi01->bf01
2019-12-04 19:33:08.727438: E   38650 tensorflow/compiler/xla/xla_client/xla_util.cc:72]   %p349.1647 = bf16[256]{0} parameter(349)
2019-12-04 19:33:08.727441: E   38855 tensorflow/compiler/xla/xla_client/xla_util.cc:72]   %p382.1774 = bf16[256]{0} parameter(382)
2019-12-04 19:33:08.727442: E   38919 tensorflow/compiler/xla/xla_client/xla_util.cc:72]   %p319.1523 = bf16[256]{0} parameter(319)
2019-12-04 19:33:08.727443: E   38650 tensorflow/compiler/xla/xla_client/xla_util.cc:72]   %p348.1646 = bf16[256]{0} parameter(348)
2019-12-04 19:33:08.727446: E   38855 tensorflow/compiler/xla/xla_client/xla_util.cc:72]   %get-tuple-element.1748 = bf16[512,1024,14,14]{3,2,1,0} get-tuple-element((bf16[512,1024,14,14]{3,2,1,0}, bf16[1024]{0}, bf16[1024]{0}) %batch-norm-training.1747), index=0
2019-12-04 19:33:08.727446: E   38919 tensorflow/compiler/xla/xla_client/xla_util.cc:72]   %p318.1522 = bf16[256]{0} parameter(318)
2019-12-04 19:33:08.727448: E   38650 tensorflow/compiler/xla/xla_client/xla_util.cc:72]   %batch-norm-training.1670 = (bf16[512,256,14,14]{3,2,1,0}, bf16[256]{0}, bf16[256]{0}) batch-norm-training(bf16[512,256,14,14]{3,2,1,0} %convolution.1669, bf16[256]{0} %p349.1647, bf16[256]{0} %p348.1646), epsilon=1e-05, feature_index=1
2019-12-04 19:33:08.727450: E   38855 tensorflow/compiler/xla/xla_client/xla_util.cc:72]   %constant.141 = bf16[] constant(1)
2019-12-04 19:33:08.727451: E   38919 tensorflow/compiler/xla/xla_client/xla_util.cc:72]   %batch-norm-training.1546 = (bf16[512,256,14,14]{3,2,1,0}, bf16[256]{0}, bf16[256]{0}) batch-norm-training(bf16[512,256,14,14]{3,2,1,0} %convolution.1545, bf16[256]{0} %p319.1523, bf16[256]{0} %p318.1522), epsilon=1e-05, feature_index=1
2019-12-04 19:33:08.727452: E   38650 tensorflow/compiler/xla/xla_client/xla_util.cc:72]   %get-tuple-element.1672 = bf16[256]{0} get-tuple-element((bf16[512,256,14,14]{3,2,1,0}, bf16[256]{0}, bf16[256]{0}) %batch-norm-training.1670), index=1
2019-12-04 19:33:08.727455: E   38855 tensorflow/compiler/xla/xla_client/xla_util.cc:72]   %reshape.142 = bf16[1,1,1,1]{3,2,1,0} reshape(bf16[] %constant.141)
2019-12-04 19:33:08.727455: E   38919 tensorflow/compiler/xla/xla_client/xla_util.cc:72]   %get-tuple-element.1548 = bf16[256]{0} get-tuple-element((bf16[512,256,14,14]{3,2,1,0}, bf16[256]{0}, bf16[256]{0}) %batch-norm-training.1546), index=1
2019-12-04 19:33:08.727457: E   38650 tensorflow/compiler/xla/xla_client/xla_util.cc:72]   %constant.1675 = bf16[] constant(1)
2019-12-04 19:33:08.727459: E   38855 tensorflow/compiler/xla/xla_client/xla_util.cc:72]   %broadcast.143 = bf16[1,1,1,1]{3,2,1,0} broadcast(bf16[1,1,1,1]{3,2,1,0} %reshape.142), dimensions={0,1,2,3}
2019-12-04 19:33:08.727460: E   38919 tensorflow/compiler/xla/xla_client/xla_util.cc:72]   %constant.1551 = bf16[] constant(1)
2019-12-04 19:33:08.727462: E   38650 tensorflow/compiler/xla/xla_client/xla_util.cc:72]   %broadcast.1679 = bf16[256]{0} broadcast(bf16[] %constant.1675), dimensions={}
2019-12-04 19:33:08.727465: E   38855 tensorflow/compiler/xla/xla_client/xla_util.cc:72]   %reshape.144 = bf16[] reshape(bf16[1,1,1,1]{3,2,1,0} %broadcast.143)
2019-12-04 19:33:08.727465: E   38919 tensorflow/compiler/xla/xla_client/xla_util.cc:72]   %broadcast.1555 = bf16[256]{0} broadcast(bf16[] %constant.1551), dimensions={}
2019-12-04 19:33:08.727466: E   38650 tensorflow/compiler/xla/xla_client/xla_util.cc:72]   %get-tuple-element.1673 = bf16[256]{0} get-tuple-element((bf16[512,256,14,14]{3,2,1,0}, bf16[256]{0}, bf16[256]{0}) %batch-norm-training.1670), index=2
2019-12-04 19:33:08.727469: E   38855 tensorflow/compiler/xla/xla_client/xla_util.cc:72]   %broadcast.145 = bf16[512,1024,14,14]{3,2,1,0} broadcast(bf16[] %reshape.144), dimensions={}
2019-12-04 19:33:08.727469: E   38919 tensorflow/compiler/xla/xla_client/xla_util.cc:72]   %get-tuple-element.1549 = bf16[256]{0} get-tuple-element((bf16[512,256,14,14]{3,2,1,0}, bf16[256]{0}, bf16[256]{0}) %batch-norm-training.1546), index=2
2019-12-04 19:33:08.727471: E   38650 tensorflow/compiler/xla/xla_client/xla_util.cc:72]   %constant.1674 = bf16[] constant(1.001e-05)
2019-12-04 19:33:08.727474: E   38855 tensorflow/compiler/xla/xla_client/xla_util.cc:72]   %multiply.1700 = bf16[512,1024,14,14]{3,2,1,0} multiply(bf16[512,1024,14,14]{3,2,1,0} %maximum.1699, bf16[512,1024,14,14]{3,2,1,0} %broadcast.145)
2019-12-04 19:33:08.727474: E   38919 tensorflow/compiler/xla/xla_client/xla_util.cc:72]   %constant.1550 = bf16[] constant(1.001e-05)
2019-12-04 19:33:08.727475: E   38650 tensorflow/compiler/xla/xla_client/xla_util.cc:72]   %broadcast.1676 = bf16[256]{0} broadcast(bf16[] %constant.1674), dimensions={}
2019-12-04 19:33:08.727479: E   38919 tensorflow/compiler/xla/xla_client/xla_util.cc:72]   %broadcast.1552 = bf16[256]{0} broadcast(bf16[] %constant.1550), dimensions={}
2019-12-04 19:33:08.727480: E   38855 tensorflow/compiler/xla/xla_client/xla_util.cc:72]   %add.1758 = bf16[512,1024,14,14]{3,2,1,0} add(bf16[512,1024,14,14]{3,2,1,0} %get-tuple-element.1748, bf16[512,1024,14,14]{3,2,1,0} %multiply.1700)
2019-12-04 19:33:08.727480: E   38650 tensorflow/compiler/xla/xla_client/xla_util.cc:72]   %add.1677 = bf16[256]{0} add(bf16[256]{0} %get-tuple-element.1673, bf16[256]{0} %broadcast.1676)
2019-12-04 19:33:08.727484: E   38919 tensorflow/compiler/xla/xla_client/xla_util.cc:72]   %add.1553 = bf16[256]{0} add(bf16[256]{0} %get-tuple-element.1549, bf16[256]{0} %broadcast.1552)
2019-12-04 19:33:08.727484: E   38855 tensorflow/compiler/xla/xla_client/xla_util.cc:72]   %constant.1759 = bf16[] constant(0)
2019-12-04 19:33:08.727484: E   38650 tensorflow/compiler/xla/xla_client/xla_util.cc:72]   %sqrt.1678 = bf16[256]{0} sqrt(bf16[256]{0} %add.1677)
2019-12-04 19:33:08.727488: E   38919 tensorflow/compiler/xla/xla_client/xla_util.cc:72]   %sqrt.1554 = bf16[256]{0} sqrt(bf16[256]{0} %add.1553)
2019-12-04 19:33:08.727489: E   38855 tensorflow/compiler/xla/xla_client/xla_util.cc:72]   %broadcast.1760 = bf16[512,1024,14,14]{3,2,1,0} broadcast(bf16[] %constant.1759), dimensions={}
2019-12-04 19:33:08.727489: E   38650 tensorflow/compiler/xla/xla_client/xla_util.cc:72]   %divide.1680 = bf16[256]{0} divide(bf16[256]{0} %broadcast.1679, bf16[256]{0} %sqrt.1678)
2019-12-04 19:33:08.727493: E   38919 tensorflow/compiler/xla/xla_client/xla_util.cc:72]   %divide.1556 = bf16[256]{0} divide(bf16[256]{0} %broadcast.1555, bf16[256]{0} %sqrt.1554)
2019-12-04 19:33:08.727497: E   38919 tensorflow/compiler/xla/xla_client/xla_util.cc:72]   %get-tuple-element.1547 = bf16[512,256,14,14]{3,2,1,0} get-tuple-element((bf16[512,256,14,14]{3,2,1,0}, bf16[256]{0}, bf16[256]{0}) %batch-norm-training.1546), index=0
2019-12-04 19:33:08.727494: E   38650 tensorflow/compiler/xla/xla_client/xla_util.cc:72]   %get-tuple-element.1671 = bf16[512,256,14,14]{3,2,1,0} get-tuple-element((bf16[512,256,14,14]{3,2,1,0}, bf16[256]{0}, bf16[256]{0}) %batch-norm-training.1670), index=0
2019-12-04 19:33:08.727556: E   38919 tensorflow/compiler/xla/xla_client/xla_util.cc:72]   %constant.1557 = bf16[] constant(0)
2019-12-04 19:33:08.727562: E   38919 tensorflow/compiler/xla/xla_client/xla_util.cc:72]   %broadcast.1558 = bf16[512,256,14,14]{3,2,1,0} broadcast(bf16[] %constant.1557), dimensions={}
2019-12-04 19:33:08.727562: E   38650 tensorflow/compiler/xla/xla_client/xla_util.cc:72]   %constant.1681 = bf16[] constant(0)
2019-12-04 19:33:08.727570: E   38650 tensorflow/compiler/xla/xla_client/xla_util.cc:72]   %broadcast.1682 = bf16[512,256,14,14]{3,2,1,0} broadcast(bf16[] %constant.1681), dimensions={}
2019-12-04 19:33:08.727570: E   38919 tensorflow/compiler/xla/xla_client/xla_util.cc:72]   %maximum.1559 = bf16[512,256,14,14]{3,2,1,0} maximum(bf16[512,256,14,14]{3,2,1,0} %get-tuple-element.1547, bf16[512,256,14,14]{3,2,1,0} %broadcast.1558)
2019-12-04 19:33:08.727580: E   38919 tensorflow/compiler/xla/xla_client/xla_util.cc:72]   %p315.1519 = bf16[1024,256,1,1]{0,1,3,2} parameter(315)
2019-12-04 19:33:08.727580: E   38650 tensorflow/compiler/xla/xla_client/xla_util.cc:72]   %maximum.1683 = bf16[512,256,14,14]{3,2,1,0} maximum(bf16[512,256,14,14]{3,2,1,0} %get-tuple-element.1671, bf16[512,256,14,14]{3,2,1,0} %broadcast.1682)
2019-12-04 19:33:08.727587: E   38650 tensorflow/compiler/xla/xla_client/xla_util.cc:72]   %p345.1643 = bf16[1024,256,1,1]{0,1,3,2} parameter(345)
2019-12-04 19:33:08.727587: E   38919 tensorflow/compiler/xla/xla_client/xla_util.cc:72]   %convolution.1560 = bf16[512,1024,14,14]{3,2,1,0} convolution(bf16[512,256,14,14]{3,2,1,0} %maximum.1559, bf16[1024,256,1,1]{0,1,3,2} %p315.1519), window={size=1x1}, dim_labels=bf01_oi01->bf01
2019-12-04 19:33:08.727595: E   38919 tensorflow/compiler/xla/xla_client/xla_util.cc:72]   %p314.1518 = bf16[1024]{0} parameter(314)
2019-12-04 19:33:08.727595: E   38650 tensorflow/compiler/xla/xla_client/xla_util.cc:72]   %convolution.1684 = bf16[512,1024,14,14]{3,2,1,0} convolution(bf16[512,256,14,14]{3,2,1,0} %maximum.1683, bf16[1024,256,1,1]{0,1,3,2} %p345.1643), window={size=1x1}, dim_labels=bf01_oi01->bf01
2019-12-04 19:33:08.727602: E   38650 tensorflow/compiler/xla/xla_client/xla_util.cc:72]   %p344.1642 = bf16[1024]{0} parameter(344)
2019-12-04 19:33:08.727603: E   38919 tensorflow/compiler/xla/xla_client/xla_util.cc:72]   %p313.1517 = bf16[1024]{0} parameter(313)
2019-12-04 19:33:08.727610: E   38919 tensorflow/compiler/xla/xla_client/xla_util.cc:72]   %batch-norm-training.1561 = (bf16[512,1024,14,14]{3,2,1,0}, bf16[1024]{0}, bf16[1024]{0}) batch-norm-training(bf16[512,1024,14,14]{3,2,1,0} %convolution.1560, bf16[1024]{0} %p314.1518, bf16[1024]{0} %p313.1517), epsilon=1e-05, feature_index=1
2019-12-04 19:33:08.727610: E   38650 tensorflow/compiler/xla/xla_client/xla_util.cc:72]   %p343.1641 = bf16[1024]{0} parameter(343)
2019-12-04 19:33:08.727618: E   38650 tensorflow/compiler/xla/xla_client/xla_util.cc:72]   %batch-norm-training.1685 = (bf16[512,1024,14,14]{3,2,1,0}, bf16[1024]{0}, bf16[1024]{0}) batch-norm-training(bf16[512,1024,14,14]{3,2,1,0} %convolution.1684, bf16[1024]{0} %p344.1642, bf16[1024]{0} %p343.1641), epsilon=1e-05, feature_index=1
2019-12-04 19:33:08.727619: E   38919 tensorflow/compiler/xla/xla_client/xla_util.cc:72]   %get-tuple-element.1563 = bf16[1024]{0} get-tuple-element((bf16[512,1024,14,14]{3,2,1,0}, bf16[1024]{0}, bf16[1024]{0}) %batch-norm-training.1561), index=1
2019-12-04 19:33:08.727626: E   38650 tensorflow/compiler/xla/xla_client/xla_util.cc:72]   %get-tuple-element.1687 = bf16[1024]{0} get-tuple-element((bf16[512,1024,14,14]{3,2,1,0}, bf16[1024]{0}, bf16[1024]{0}) %batch-norm-training.1685), index=1
2019-12-04 19:33:08.727626: E   38919 tensorflow/compiler/xla/xla_client/xla_util.cc:72]   %constant.1566 = bf16[] constant(1)
2019-12-04 19:33:08.727634: E   38650 tensorflow/compiler/xla/xla_client/xla_util.cc:72]   %constant.1690 = bf16[] constant(1)
2019-12-04 19:33:08.727634: E   38919 tensorflow/compiler/xla/xla_client/xla_util.cc:72]   %broadcast.1570 = bf16[1024]{0} broadcast(bf16[] %constant.1566), dimensions={}
2019-12-04 19:33:08.727670: E   38650 tensorflow/compiler/xla/xla_client/xla_util.cc:72]   %broadcast.1694 = bf16[1024]{0} broadcast(bf16[] %constant.1690), dimensions={}
2019-12-04 19:33:08.727493: E   38855 tensorflow/compiler/xla/xla_client/xla_util.cc:72]   %maximum.1761 = bf16[512,1024,14,14]{3,2,1,0} maximum(bf16[512,1024,14,14]{3,2,1,0} %add.1758, bf16[512,1024,14,14]{3,2,1,0} %broadcast.1760)
2019-12-04 19:33:08.727677: E   38650 tensorflow/compiler/xla/xla_client/xla_util.cc:72]   %get-tuple-element.1688 = bf16[1024]{0} get-tuple-element((bf16[512,1024,14,14]{3,2,1,0}, bf16[1024]{0}, bf16[1024]{0}) %batch-norm-training.1685), index=2
2019-12-04 19:33:08.727677: E   38919 tensorflow/compiler/xla/xla_client/xla_util.cc:72]   %get-tuple-element.1564 = bf16[1024]{0} get-tuple-element((bf16[512,1024,14,14]{3,2,1,0}, bf16[1024]{0}, bf16[1024]{0}) %batch-norm-training.1561), index=2
2019-12-04 19:33:08.727679: E   38855 tensorflow/compiler/xla/xla_client/xla_util.cc:72]   %p385.1777 = bf16[256,1024,1,1]{1,0,3,2} parameter(385)
2019-12-04 19:33:08.727682: E   38650 tensorflow/compiler/xla/xla_client/xla_util.cc:72]   %constant.1689 = bf16[] constant(1.001e-05)
2019-12-04 19:33:08.727683: E   38919 tensorflow/compiler/xla/xla_client/xla_util.cc:72]   %constant.1565 = bf16[] constant(1.001e-05)
2019-12-04 19:33:08.727685: E   38855 tensorflow/compiler/xla/xla_client/xla_util.cc:72]   %convolution.1778 = bf16[512,256,14,14]{3,2,1,0} convolution(bf16[512,1024,14,14]{3,2,1,0} %maximum.1761, bf16[256,1024,1,1]{1,0,3,2} %p385.1777), window={size=1x1}, dim_labels=bf01_oi01->bf01
2019-12-04 19:33:08.727686: E   38650 tensorflow/compiler/xla/xla_client/xla_util.cc:72]   %broadcast.1691 = bf16[1024]{0} broadcast(bf16[] %constant.1689), dimensions={}
2019-12-04 19:33:08.727687: E   38919 tensorflow/compiler/xla/xla_client/xla_util.cc:72]   %broadcast.1567 = bf16[1024]{0} broadcast(bf16[] %constant.1565), dimensions={}
2019-12-04 19:33:08.727689: E   38855 tensorflow/compiler/xla/xla_client/xla_util.cc:72]   %p384.1776 = bf16[256]{0} parameter(384)
2019-12-04 19:33:08.727691: E   38650 tensorflow/compiler/xla/xla_client/xla_util.cc:72]   %add.1692 = bf16[1024]{0} add(bf16[1024]{0} %get-tuple-element.1688, bf16[1024]{0} %broadcast.1691)
2019-12-04 19:33:08.727692: E   38919 tensorflow/compiler/xla/xla_client/xla_util.cc:72]   %add.1568 = bf16[1024]{0} add(bf16[1024]{0} %get-tuple-element.1564, bf16[1024]{0} %broadcast.1567)
2019-12-04 19:33:08.727694: E   38855 tensorflow/compiler/xla/xla_client/xla_util.cc:72]   %p383.1775 = bf16[256]{0} parameter(383)
2019-12-04 19:33:08.727695: E   38650 tensorflow/compiler/xla/xla_client/xla_util.cc:72]   %sqrt.1693 = bf16[1024]{0} sqrt(bf16[1024]{0} %add.1692)
2019-12-04 19:33:08.727696: E   38919 tensorflow/compiler/xla/xla_client/xla_util.cc:72]   %sqrt.1569 = bf16[1024]{0} sqrt(bf16[1024]{0} %add.1568)
2019-12-04 19:33:08.727698: E   38855 tensorflow/compiler/xla/xla_client/xla_util.cc:72]   %batch-norm-training.1779 = (bf16[512,256,14,14]{3,2,1,0}, bf16[256]{0}, bf16[256]{0}) batch-norm-training(bf16[512,256,14,14]{3,2,1,0} %convolution.1778, bf16[256]{0} %p384.1776, bf16[256]{0} %p383.1775), epsilon=1e-05, feature_index=1
2019-12-04 19:33:08.727700: E   38650 tensorflow/compiler/xla/xla_client/xla_util.cc:72]   %divide.1695 = bf16[1024]{0} divide(bf16[1024]{0} %broadcast.1694, bf16[1024]{0} %sqrt.1693)
2019-12-04 19:33:08.727700: E   38919 tensorflow/compiler/xla/xla_client/xla_util.cc:72]   %divide.1571 = bf16[1024]{0} divide(bf16[1024]{0} %broadcast.1570, bf16[1024]{0} %sqrt.1569)
2019-12-04 19:33:08.727703: E   38855 tensorflow/compiler/xla/xla_client/xla_util.cc:72]   %get-tuple-element.1781 = bf16[256]{0} get-tuple-element((bf16[512,256,14,14]{3,2,1,0}, bf16[256]{0}, bf16[256]{0}) %batch-norm-training.1779), index=1
2019-12-04 19:33:08.727704: E   38650 tensorflow/compiler/xla/xla_client/xla_util.cc:72]   %p356.1701 = bf16[1024]{0} parameter(356)
2019-12-04 19:33:08.727705: E   38919 tensorflow/compiler/xla/xla_client/xla_util.cc:72]   %p326.1577 = bf16[1024]{0} parameter(326)
2019-12-04 19:33:08.727707: E   38855 tensorflow/compiler/xla/xla_client/xla_util.cc:72]   %constant.1784 = bf16[] constant(1)
2019-12-04 19:33:08.727711: E   38855 tensorflow/compiler/xla/xla_client/xla_util.cc:72]   %broadcast.1788 = bf16[256]{0} broadcast(bf16[] %constant.1784), dimensions={}
2019-12-04 19:33:08.727709: E   38919 tensorflow/compiler/xla/xla_client/xla_util.cc:72]   %p327.1578 = bf16[1024]{0} parameter(327)
2019-12-04 19:33:08.727788: E   38855 tensorflow/compiler/xla/xla_client/xla_util.cc:72]   %get-tuple-element.1782 = bf16[256]{0} get-tuple-element((bf16[512,256,14,14]{3,2,1,0}, bf16[256]{0}, bf16[256]{0}) %batch-norm-training.1779), index=2
2019-12-04 19:33:08.727794: E   38855 tensorflow/compiler/xla/xla_client/xla_util.cc:72]   %constant.1783 = bf16[] constant(1.001e-05)
2019-12-04 19:33:08.727795: E   38919 tensorflow/compiler/xla/xla_client/xla_util.cc:72]   %p331.1582 = bf16[256]{0} parameter(331)
2019-12-04 19:33:08.727802: E   38919 tensorflow/compiler/xla/xla_client/xla_util.cc:72]   %p332.1583 = bf16[256]{0} parameter(332)
2019-12-04 19:33:08.727802: E   38855 tensorflow/compiler/xla/xla_client/xla_util.cc:72]   %broadcast.1785 = bf16[256]{0} broadcast(bf16[] %constant.1783), dimensions={}
2019-12-04 19:33:08.727810: E   38855 tensorflow/compiler/xla/xla_client/xla_util.cc:72]   %add.1786 = bf16[256]{0} add(bf16[256]{0} %get-tuple-element.1782, bf16[256]{0} %broadcast.1785)
2019-12-04 19:33:08.727810: E   38919 tensorflow/compiler/xla/xla_client/xla_util.cc:72]   %p336.1587 = bf16[256]{0} parameter(336)
2019-12-04 19:33:08.727818: E   38919 tensorflow/compiler/xla/xla_client/xla_util.cc:72]   %p337.1588 = bf16[256]{0} parameter(337)
2019-12-04 19:33:08.727818: E   38855 tensorflow/compiler/xla/xla_client/xla_util.cc:72]   %sqrt.1787 = bf16[256]{0} sqrt(bf16[256]{0} %add.1786)
2019-12-04 19:33:08.727825: E   38855 tensorflow/compiler/xla/xla_client/xla_util.cc:72]   %divide.1789 = bf16[256]{0} divide(bf16[256]{0} %broadcast.1788, bf16[256]{0} %sqrt.1787)
2019-12-04 19:33:08.727826: E   38919 tensorflow/compiler/xla/xla_client/xla_util.cc:72]   %get-tuple-element.1562 = bf16[512,1024,14,14]{3,2,1,0} get-tuple-element((bf16[512,1024,14,14]{3,2,1,0}, bf16[1024]{0}, bf16[1024]{0}) %batch-norm-training.1561), index=0
2019-12-04 19:33:08.727833: E   38919 tensorflow/compiler/xla/xla_client/xla_util.cc:72]   %constant.156 = bf16[] constant(1)
2019-12-04 19:33:08.727833: E   38855 tensorflow/compiler/xla/xla_client/xla_util.cc:72]   %get-tuple-element.1780 = bf16[512,256,14,14]{3,2,1,0} get-tuple-element((bf16[512,256,14,14]{3,2,1,0}, bf16[256]{0}, bf16[256]{0}) %batch-norm-training.1779), index=0
2019-12-04 19:33:08.727840: E   38855 tensorflow/compiler/xla/xla_client/xla_util.cc:72]   %constant.1790 = bf16[] constant(0)
2019-12-04 19:33:08.727840: E   38919 tensorflow/compiler/xla/xla_client/xla_util.cc:72]   %reshape.157 = bf16[1,1,1,1]{3,2,1,0} reshape(bf16[] %constant.156)
2019-12-04 19:33:08.727847: E   38919 tensorflow/compiler/xla/xla_client/xla_util.cc:72]   %broadcast.158 = bf16[1,1,1,1]{3,2,1,0} broadcast(bf16[1,1,1,1]{3,2,1,0} %reshape.157), dimensions={0,1,2,3}
2019-12-04 19:33:08.727847: E   38855 tensorflow/compiler/xla/xla_client/xla_util.cc:72]   %broadcast.1791 = bf16[512,256,14,14]{3,2,1,0} broadcast(bf16[] %constant.1790), dimensions={}
2019-12-04 19:33:08.727854: E   38855 tensorflow/compiler/xla/xla_client/xla_util.cc:72]   %maximum.1792 = bf16[512,256,14,14]{3,2,1,0} maximum(bf16[512,256,14,14]{3,2,1,0} %get-tuple-element.1780, bf16[512,256,14,14]{3,2,1,0} %broadcast.1791)
2019-12-04 19:33:08.727854: E   38919 tensorflow/compiler/xla/xla_client/xla_util.cc:72]   %reshape.159 = bf16[] reshape(bf16[1,1,1,1]{3,2,1,0} %broadcast.158)
2019-12-04 19:33:08.727861: E   38919 tensorflow/compiler/xla/xla_client/xla_util.cc:72]   %broadcast.160 = bf16[512,1024,14,14]{3,2,1,0} broadcast(bf16[] %reshape.159), dimensions={}
2019-12-04 19:33:08.727861: E   38855 tensorflow/compiler/xla/xla_client/xla_util.cc:72]   %p380.1772 = bf16[256,256,3,3]{1,0,3,2} parameter(380)
2019-12-04 19:33:08.727869: E   38855 tensorflow/compiler/xla/xla_client/xla_util.cc:72]   %convolution.1793 = bf16[512,256,14,14]{3,2,1,0} convolution(bf16[512,256,14,14]{3,2,1,0} %maximum.1792, bf16[256,256,3,3]{1,0,3,2} %p380.1772), window={size=3x3 pad=1_1x1_1}, dim_labels=bf01_oi01->bf01
2019-12-04 19:33:08.727876: E   38855 tensorflow/compiler/xla/xla_client/xla_util.cc:72]   %p379.1771 = bf16[256]{0} parameter(379)
2019-12-04 19:33:08.727709: E   38650 tensorflow/compiler/xla/xla_client/xla_util.cc:72]   %p357.1702 = bf16[1024]{0} parameter(357)
2019-12-04 19:33:08.727869: E   38919 tensorflow/compiler/xla/xla_client/xla_util.cc:72]   %multiply.1514 = bf16[512,1024,14,14]{3,2,1,0} multiply(bf16[512,1024,14,14]{3,2,1,0} %maximum.1513, bf16[512,1024,14,14]{3,2,1,0} %broadcast.160)
2019-12-04 19:33:08.727899: E   38855 tensorflow/compiler/xla/xla_client/xla_util.cc:72]   %p378.1770 = bf16[256]{0} parameter(378)
2019-12-04 19:33:08.727900: E   38650 tensorflow/compiler/xla/xla_client/xla_util.cc:72]   %p361.1706 = bf16[256]{0} parameter(361)
2019-12-04 19:33:08.727903: E   38919 tensorflow/compiler/xla/xla_client/xla_util.cc:72]   %add.1572 = bf16[512,1024,14,14]{3,2,1,0} add(bf16[512,1024,14,14]{3,2,1,0} %get-tuple-element.1562, bf16[512,1024,14,14]{3,2,1,0} %multiply.1514)
2019-12-04 19:33:08.727905: E   38855 tensorflow/compiler/xla/xla_client/xla_util.cc:72]   %batch-norm-training.1794 = (bf16[512,256,14,14]{3,2,1,0}, bf16[256]{0}, bf16[256]{0}) batch-norm-training(bf16[512,256,14,14]{3,2,1,0} %convolution.1793, bf16[256]{0} %p379.1771, bf16[256]{0} %p378.1770), epsilon=1e-05, feature_index=1
2019-12-04 19:33:08.727906: E   38650 tensorflow/compiler/xla/xla_client/xla_util.cc:72]   %p362.1707 = bf16[256]{0} parameter(362)
2019-12-04 19:33:08.727908: E   38919 tensorflow/compiler/xla/xla_client/xla_util.cc:72]   %constant.1573 = bf16[] constant(0)
2019-12-04 19:33:08.727909: E   38855 tensorflow/compiler/xla/xla_client/xla_util.cc:72]   %get-tuple-element.1796 = bf16[256]{0} get-tuple-element((bf16[512,256,14,14]{3,2,1,0}, bf16[256]{0}, bf16[256]{0}) %batch-norm-training.1794), index=1
2019-12-04 19:33:08.727911: E   38650 tensorflow/compiler/xla/xla_client/xla_util.cc:72]   %p366.1711 = bf16[256]{0} parameter(366)
2019-12-04 19:33:08.727912: E   38919 tensorflow/compiler/xla/xla_client/xla_util.cc:72]   %broadcast.1574 = bf16[512,1024,14,14]{3,2,1,0} broadcast(bf16[] %constant.1573), dimensions={}
2019-12-04 19:33:08.727914: E   38855 tensorflow/compiler/xla/xla_client/xla_util.cc:72]   %constant.1799 = bf16[] constant(1)
2019-12-04 19:33:08.727915: E   38650 tensorflow/compiler/xla/xla_client/xla_util.cc:72]   %p367.1712 = bf16[256]{0} parameter(367)
2019-12-04 19:33:08.727917: E   38919 tensorflow/compiler/xla/xla_client/xla_util.cc:72]   %maximum.1575 = bf16[512,1024,14,14]{3,2,1,0} maximum(bf16[512,1024,14,14]{3,2,1,0} %add.1572, bf16[512,1024,14,14]{3,2,1,0} %broadcast.1574)
2019-12-04 19:33:08.727918: E   38855 tensorflow/compiler/xla/xla_client/xla_util.cc:72]   %broadcast.1803 = bf16[256]{0} broadcast(bf16[] %constant.1799), dimensions={}
2019-12-04 19:33:08.727920: E   38650 tensorflow/compiler/xla/xla_client/xla_util.cc:72]   %get-tuple-element.1686 = bf16[512,1024,14,14]{3,2,1,0} get-tuple-element((bf16[512,1024,14,14]{3,2,1,0}, bf16[1024]{0}, bf16[1024]{0}) %batch-norm-training.1685), index=0
2019-12-04 19:33:08.727921: E   38919 tensorflow/compiler/xla/xla_client/xla_util.cc:72]   %p340.1591 = bf16[256,1024,1,1]{1,0,3,2} parameter(340)
2019-12-04 19:33:08.727923: E   38855 tensorflow/compiler/xla/xla_client/xla_util.cc:72]   %get-tuple-element.1797 = bf16[256]{0} get-tuple-element((bf16[512,256,14,14]{3,2,1,0}, bf16[256]{0}, bf16[256]{0}) %batch-norm-training.1794), index=2
2019-12-04 19:33:08.727924: E   38650 tensorflow/compiler/xla/xla_client/xla_util.cc:72]   %constant.146 = bf16[] constant(1)
2019-12-04 19:33:08.727926: E   38919 tensorflow/compiler/xla/xla_client/xla_util.cc:72]   %convolution.1592 = bf16[512,256,14,14]{3,2,1,0} convolution(bf16[512,1024,14,14]{3,2,1,0} %maximum.1575, bf16[256,1024,1,1]{1,0,3,2} %p340.1591), window={size=1x1}, dim_labels=bf01_oi01->bf01
2019-12-04 19:33:08.727927: E   38855 tensorflow/compiler/xla/xla_client/xla_util.cc:72]   %constant.1798 = bf16[] constant(1.001e-05)
2019-12-04 19:33:08.727929: E   38650 tensorflow/compiler/xla/xla_client/xla_util.cc:72]   %reshape.147 = bf16[1,1,1,1]{3,2,1,0} reshape(bf16[] %constant.146)
2019-12-04 19:33:08.727930: E   38919 tensorflow/compiler/xla/xla_client/xla_util.cc:72]   %p339.1590 = bf16[256]{0} parameter(339)
Traceback (most recent call last):
  File "tpu_distributed_fastai.py", line 107, in <module>
    xmp.spawn(train_loop,args=())
  File "/anaconda3/envs/torch-xla-nightly/lib/python3.6/site-packages/torch_xla/distributed/xla_multiprocessing.py", line 182, in spawn
    start_method=start_method)
  File "/anaconda3/envs/torch-xla-nightly/lib/python3.6/site-packages/torch/multiprocessing/spawn.py", line 149, in start_processes
    while not context.join():
  File "/anaconda3/envs/torch-xla-nightly/lib/python3.6/site-packages/torch/multiprocessing/spawn.py", line 107, in join
    (error_index, name)
Exception: process 1 terminated with signal SIGSEGV
